path/to/dir/cond_wire/2026_01_28__16_59_45-no_wandb_id/2026_01_28__16_59_45-no_wandb_id-model.pt (torch, 273908 bytes, 7 tensors)

net.0.freq_scale.weight f4 [256, 4]
0	0x3eb89fd5	0.36059442
1	0x3e7e3036	0.24823079
2	0x3e91fe06	0.28514117
3	0x3d7d1ebf	0.0617969
4	0x3da7f7d1	0.08201564
5	0x3ea35f5f	0.319087
6	0x3e574acc	0.21024626
7	0xbedde692	-0.43339974
8	0xbec7a16a	-0.38990337
9	0xbc8fdaf1	-0.017560454
10	0x3e52b887	0.20578204
11	0x3e87a0b9	0.2648981
12	0x3edf98e3	0.4367133
13	0x3e6fbd78	0.2341212
14	0xbee5101f	-0.44738862
15	0xbe7b2dfe	-0.24529263
16	0x3e8f9f58	0.28051257
17	0x3d1e2976	0.03861376
18	0x3e200c52	0.156297
19	0x3e1bc5cf	0.15212177
20	0xbe52ab41	-0.2057314
21	0xbdb29834	-0.08720437
22	0x3e672d7b	0.22575943
23	0xbf04464c	-0.51669765
24	0x3e97c76c	0.29644334
25	0x3cfec828	0.031101301
26	0x3ec3cc6d	0.38241902
27	0xbe10404a	-0.14087024
28	0xbc76ac0f	-0.01505567
29	0x3e25d2d3	0.16193704
30	0xbe870999	-0.2637451
31	0x3e5bc86c	0.21463174
32	0xbd7d3924	-0.06182207
33	0x3ca58e93	0.020209586
34	0xbe9f3b82	-0.31100088
35	0xbedee1ba	-0.4353159
36	0x3e9e6b15	0.30941072
37	0xbf05576c	-0.5208652
38	0x3ec72949	0.38898686
39	0x3eb04e18	0.3443458
40	0x3e87f1e3	0.26551732
41	0x3e853791	0.26018956
42	0x3dcf597f	0.10124492
43	0x3e6b0e9c	0.22954792
44	0xbe00825b	-0.12549727
45	0xbe5b1ad6	-0.21396956
46	0x3e53b58e	0.20674726
47	0x3ec57610	0.38566637
48	0xbe40e08e	-0.18835661
49	0x3e69595b	0.22787993
50	0xbe048a45	-0.1294337
51	0xbed8f5b5	-0.4237496
52	0x3c98cdc5	0.018652806
53	0xbea708f8	-0.3262403
54	0x3e96b9c4	0.29438603
55	0x3e9f38c4	0.31097996
56	0x3e2096b3	0.15682487
57	0xbebcf407	-0.36904928
58	0x3ee018da	0.4376896
59	0xbde983b4	-0.114020735
60	0xbebb88ea	-0.36627895
61	0xbed46d21	-0.4148951
62	0x3df1368a	0.117779806
63	0x3d86d177	0.06582921
64	0xbd1d6f95	-0.03843649
65	0x3d1faffd	0.038986195
66	0xbdfeae7c	-0.12435624
67	0x3d5f3aae	0.05449932
68	0x3dad1a51	0.08452285
69	0x3e5d9e07	0.21642314
70	0xbee29286	-0.44252414
71	0x3ef7dc03	0.48410043
72	0xbe15d03e	-0.1463022
73	0x3ecebe76	0.40379685
74	0xbecf513e	-0.4049167
75	0xbededf63	-0.43529806
76	0xbebba4e8	-0.3664925
77	0x3e98a79e	0.29815382
78	0x3d73f350	0.059558213
79	0x3d17bb5c	0.037043914
80	0xbe90adc1	-0.28257564
81	0xbdc96728	-0.098341286
82	0x3e8ce2bd	0.27516738
83	0x3e7cb32a	0.2467772
84	0x3ecdfc6f	0.40231654
85	0xbee8bd05	-0.4545671
86	0x3dea7e02	0.11449815
87	0xbe40ff5f	-0.18847416
88	0xbec99117	-0.39368507
89	0xbdcfeea2	-0.101529375
90	0x3da5594f	0.08073675
91	0xbf01fb97	-0.5077452
92	0xbe451d8a	-0.1924955
93	0x3eec2de0	0.4612875
94	0xbe883c60	-0.26608562
95	0xbe1cc03d	-0.15307708
96	0xbe1fc497	-0.15602337
97	0xbeedd82c	-0.4645399
98	0xbe0106b0	-0.12600207
99	0x3ecb1c51	0.3967004
100	0x3e052aec	0.13004655
101	0xbeb0e1fb	-0.3454741
102	0xbe29324b	-0.16523091
103	0xbeb5c874	-0.35504496
104	0x3d9d6468	0.076851666
105	0xbe95e068	-0.2927277
106	0x3e99f6bd	0.3007106
107	0xbed68eaf	-0.41905734
108	0x3eaadadb	0.33370098
109	0x3ebd1e6e	0.36937279
110	0xbea671fa	-0.32508832
111	0x3e98de87	0.29857275
112	0xbd2b6f8a	-0.04185442
113	0x3dca982b	0.09892305
114	0x3eb90db4	0.36143267
115	0xbe43b6ce	-0.19112703
116	0x3c9f252b	0.019426903
117	0xbedbcf03	-0.42931375
118	0x3e8c741e	0.2743234
119	0x3e9644f1	0.29349473
120	0x3e814b45	0.2525274
121	0xbda4e981	-0.0805235
122	0x3e67fe03	0.22655492
123	0xbea3a93f	-0.31965062
124	0xbedb6b54	-0.42855322
125	0xbe0f3222	-0.13983968
126	0xbec21af9	-0.37911204
127	0x3e97ee67	0.29674074
128	0xbecccc8e	-0.39999813
129	0x3e25d4b4	0.16194421
130	0x3dab6e53	0.08370652
131	0x3e3ee459	0.18641795
132	0x3ea03998	0.3129394
133	0xbd86c16e	-0.065798625
134	0xbddac51b	-0.10682126
135	0x3cb02a57	0.021504564
136	0xbecf7027	-0.40515253
137	0xbec1c160	-0.37842846
138	0xbb012237	-0.0019704232
139	0xbece4e98	-0.40294337
140	0xbe7c3aa7	-0.24631749
141	0x3de7ca9e	0.11317943
142	0x3e20b5dd	0.15694375
143	0x3df1993f	0.117968075
144	0xbe953417	-0.29141304
145	0x3e8d80d6	0.27637357
146	0x3e40dccf	0.18834232
147	0x3eb11b85	0.34591308
148	0xbea3bdcc	-0.3198074
149	0x3e848446	0.25882167
150	0x3e567076	0.20941338
151	0x3ebc90bb	0.3682917
152	0x3e4346b7	0.19069944
153	0xbaa630ba	-0.0012679317
154	0x3df999ae	0.12187515
155	0x3efc3fb9	0.49267367
156	0xbd291887	-0.041283157
157	0x3ebb95bd	0.3663768
158	0xbd8e6f6c	-0.06954846
159	0x3de02443	0.109444164
160	0x3ed94f2c	0.42443216
161	0x3dc556d2	0.096357
162	0xbed73385	-0.42031494
163	0xbd431d2a	-0.047635235
164	0x3e0a188e	0.1348593
165	0xbe2ba518	-0.16762197
166	0xbe5cfbea	-0.21580473
167	0xbe82230f	-0.25417373
168	0x3d412b38	0.047160357
169	0x3e9fc8af	0.31207797
170	0x3e4347d8	0.19070375
171	0x3ee46852	0.4461084
172	0x3d39ee09	0.045393024
173	0x3e94f007	0.29089376
174	0xbecb16e0	-0.3966589
175	0xbdc97d8b	-0.098383985
176	0xbda40267	-0.08008271
177	0x3c189d3f	0.009314834
178	0xbebdc8f3	-0.37067375
179	0x3ea39593	0.31950054
180	0xbe696a15	-0.22794373
181	0x3ea50651	0.32231382
182	0x3e80db7d	0.25167456
183	0x3cdd7cbf	0.027037023
184	0xbe3ec508	-0.18629849
185	0x3de75fae	0.11297546
186	0xbe62b409	-0.2213899
187	0xbe0a71c5	-0.13519962
188	0x3e310f77	0.17291056
189	0xbe179541	-0.1480303
190	0xbe47850b	-0.19484346
191	0x3eb4311e	0.35193723
192	0xbe7d672a	-0.24746385
193	0x3eade6a2	0.3396502
194	0x3e04737c	0.12934679
195	0x3e9c2542	0.30497175
196	0xbe20b5f1	-0.15694405
197	0xbd7334bd	-0.059376467
198	0xbed9b412	-0.42520195
199	0xbe29006e	-0.1650407
200	0x3e5cc150	0.21558118
201	0xbc8e8212	-0.017396007
202	0x3db3a359	0.087713905
203	0xbef04c90	-0.46933413
204	0xbe7e843e	-0.24855134
205	0x3ebe3875	0.37152448
206	0xbe50d073	-0.20392017
207	0xbe9d44e6	-0.30716628
208	0x3e8dd2f4	0.27700007
209	0xbebc9730	-0.36834097
210	0xbe30f4dd	-0.17280908
211	0x3eceaf58	0.40368152
212	0xbd2da505	-0.042393703
213	0x3c639c82	0.013892295
214	0xbd557f07	-0.052123096
215	0x3ebca7d7	0.36846802
216	0xbe98a1dc	-0.2981099
217	0xbe84e133	-0.25953063
218	0x3dd895ac	0.10575423
219	0xbea33173	-0.31873664
220	0x3cb90302	0.022584442
221	0xbee5b65d	-0.44865695
222	0x3efd2991	0.49445775
223	0x3df0a2be	0.117497906
224	0xbd9fdd54	-0.07805887
225	0x3ea0bc76	0.31393784
226	0x3eb3b9f5	0.3510281
227	0xbeca4547	-0.3950598
228	0xbe8574d2	-0.2606569
229	0xbeee2a5e	-0.465167
230	0xbd1a0d7e	-0.037610523
231	0xbea8f25b	-0.32997403
232	0x3ee98079	0.4560583
233	0x3e870629	0.26371887
234	0xbe4560d0	-0.19275212
235	0x3e97243c	0.29519832
236	0xbedd5d0a	-0.43235046
237	0x3db40618	0.08790225
238	0xbefa3108	-0.48865533
239	0x3ecba0a3	0.39770994
240	0xbecfd6bd	-0.4059352
241	0x3e474e5d	0.19463487
242	0x3dd5fbeb	0.1044844
243	0xbefa5a03	-0.48896798
244	0xbded5852	-0.115891114
245	0xbde02a15	-0.109455265
246	0x3eae8257	0.34083816
247	0x3d49861c	0.049200162
248	0xbe6fd2a3	-0.23420195
249	0xbdd1a0b9	-0.102357335
250	0x3ea4e5f0	0.32206678
251	0xbec656da	-0.38738137
252	0xbec488ba	-0.38385564
253	0x3e62c4fe	0.22145459
254	0x3e922bc2	0.2854901
255	0x3e53ed2a	0.2069594

net.0.freq_scale.bias f4 [256]
0	0xbdd34711	-0.10316289
1	0xbe16583e	-0.14682099
2	0xbd6d110e	-0.057877593
3	0x3eb2834c	0.34865797
4	0x3e896f9a	0.26842958
5	0xbebcc018	-0.36865306
6	0xbdb67137	-0.08908313
7	0xbe158597	-0.14601742
8	0xbe888935	-0.2666718
9	0xbe8c90f2	-0.27454334
10	0xbe8ea713	-0.27861843
11	0xbef4b53b	-0.47794518
12	0x3f004a27	0.5011315
13	0x3c6e6db1	0.01455252
14	0x3ebd3949	0.36957768
15	0xbe25c515	-0.16188462
16	0xbda1991e	-0.07890533
17	0x3deaca9a	0.114644244
18	0x3f00891d	0.5020922
19	0x3d9ea3d8	0.077460945
20	0xbec5c6f8	-0.38628364
21	0xbeeaddc0	-0.45872307
22	0xbd8a4051	-0.06750549
23	0xbe8b2eb0	-0.27184057
24	0xbee9e8f3	-0.4568554
25	0x3ea8bf83	0.32958612
26	0xbe283651	-0.1642697
27	0x3cb78fb9	0.0224074
28	0x3d209b36	0.03921052
29	0xbe8e2b7d	-0.27767554
30	0x3ed0eff4	0.4080807
31	0x3eac2c90	0.33627748
32	0x3d8da5f7	0.06916421
33	0xbebd09b0	-0.36921453
34	0x3eec4801	0.46148685
35	0xbece4a8b	-0.40291247
36	0xbeca1c80	-0.3947487
37	0x3ed361f7	0.4128568
38	0x3c7b9abc	0.015356716
39	0xbd8870ea	-0.06662162
40	0x3e097c82	0.13426402
41	0x3e85c8ab	0.2612966
42	0x3ed86d7a	0.42271024
43	0x3ef87f73	0.48534736
44	0x3d5b076d	0.05347388
45	0xbdd3b97b	-0.10338112
46	0x3ef227f0	0.47296095
47	0xbe08bf20	-0.13354158
48	0x3c9f3396	0.019433778
49	0x3eefcabb	0.4683436
50	0xbf02c875	-0.51087123
51	0xbeceab66	-0.40365142
52	0xbe8cea2e	-0.27522415
53	0xbec0c6ff	-0.37651822
54	0xbeab2399	-0.33425596
55	0xbd78200d	-0.06057744
56	0xbebfc976	-0.3745839
57	0xbeb8f415	-0.3612372
58	0x3e8ec3a2	0.2788363
59	0xbdf7a9e9	-0.12092955
60	0x3ee02670	0.43779325
61	0x3e045b33	0.12925415
62	0xbd99e014	-0.07513443
63	0x3eda6d5c	0.4266156
64	0x3de71344	0.112829715
65	0x3e8bc5d4	0.27299368
66	0xbeead7ce	-0.4586777
67	0x3edafd4f	0.42771384
68	0x3d385025	0.044998307
69	0x3ef45485	0.47720733
70	0x3e480ae1	0.195354
71	0xbdb42aa3	-0.08797195
72	0x3ece9aa8	0.40352368
73	0xbe31301e	-0.17303512
74	0xbd42da49	-0.047571454
75	0x3e900588	0.2812922
76	0x3e8f1d53	0.2795206
77	0x3e8b6456	0.27224988
78	0xbeccf8d6	-0.40033597
79	0x3d415785	0.047202606
80	0xbddef52a	-0.10886605
81	0xbe1605f1	-0.14650704
82	0x3eba33ae	0.36367553
83	0xbe1af186	-0.15131196
84	0x3df845b7	0.12122672
85	0x3df92199	0.12164611
86	0xbe9eac5b	-0.30990872
87	0xbe247a18	-0.160622
88	0xbddc77fa	-0.10765071
89	0x3eb0fd94	0.34568465
90	0xbd2273ca	-0.039661206
91	0xbecd462c	-0.400926
92	0x3dc71f25	0.09722737
93	0x3ee24edc	0.4420079
94	0xbe8ebf12	-0.2788015
95	0x3dea9535	0.1145424
96	0xbebb4d95	-0.36582628
97	0x3c0c28b8	0.00855463
98	0xbf08613e	-0.5327338
99	0xbde68a60	-0.11256862
100	0xbe4600b6	-0.19336209
101	0x3e2d68c4	0.16934496
102	0x3ddd5125	0.10806493
103	0xbe7cd130	-0.24689174
104	0xbe76155d	-0.24031587
105	0xbe404473	-0.18776111
106	0x3e960428	0.29300046
107	0x3e13e12f	0.1444137
108	0x3d4a26ea	0.049353518
109	0x3dbd047a	0.092293695
110	0xbea69b10	-0.32540178
111	0x3ef812b9	0.48451784
112	0xbee8c028	-0.45459104
113	0x3e641658	0.22274148
114	0xbee37d7c	-0.44431674
115	0xbea7d35c	-0.32778442
116	0xbeaf9882	-0.34296042
117	0x3e287701	0.16451646
118	0x3de2eba5	0.11080102
119	0x3dfc3921	0.12315584
120	0xbd9d285f	-0.07673716
121	0x3e7d08d7	0.24710403
122	0x3e787f98	0.24267423
123	0xbecde139	-0.40210894
124	0xbd1b6b6e	-0.03794425
125	0x3ecf6f85	0.4051477
126	0x3e362115	0.17786057
127	0x3dea66e8	0.11445409
128	0x3e9da01f	0.30786225
129	0x3c1ea596	0.009683033
130	0x3e534ddb	0.20635168
131	0x3e93719a	0.2879761
132	0xbe1fd83e	-0.15609834
133	0x3dc24290	0.09485352
134	0xbe125c7c	-0.14293092
135	0x3ef306e2	0.4746619
136	0xbe2166b3	-0.15761833
137	0x3e8e8e46	0.2784292
138	0x3ea60c94	0.3243147
139	0x3ec5575f	0.3854322
140	0x3eabe41d	0.33572474
141	0x3e4b1182	0.19830897
142	0xbe994ea1	-0.29942802
143	0x3e5ca5c8	0.21547616
144	0xbe0b2421	-0.13588001
145	0x3e82a29d	0.2551469
146	0xbeab2e7f	-0.3343391
147	0x3e765e11	0.24059321
148	0x3dfad556	0.12247722
149	0x3edd4808	0.43219018
150	0xbd51fe4a	-0.0512679
151	0xbe3bba0c	-0.1833269
152	0xbe91939c	-0.2843293
153	0x3eb65f11	0.35619405
154	0x3e3c35bf	0.18379878
155	0x3e9fbf1a	0.31200486
156	0xbece8029	-0.40332153
157	0xbe5990d9	-0.21246661
158	0xbec076db	-0.3759068
159	0x3d3383d4	0.043826893
160	0xbcb486ff	-0.022037027
161	0xbea270b1	-0.31726602
162	0x3e5287f7	0.20559679
163	0x3e9e86f2	0.3096233
164	0x3ca68652	0.02032772
165	0x3e6ea712	0.2330592
166	0xbe133a39	-0.14377679
167	0x3d6ae0be	0.057343237
168	0x3e7da070	0.24768233
169	0x3c61dbfc	0.0137853585
170	0xbe5b128b	-0.21393792
171	0xbea2d1d4	-0.3180071
172	0x3e70b7cb	0.23507611
173	0x3eebefce	0.46081394
174	0x3ebe44ce	0.3716187
175	0x3ed7d2fd	0.4215316
176	0x3edac7fa	0.42730695
177	0x3ec56ed8	0.3856113
178	0x3ec6508a	0.3873332
179	0x3ce72b66	0.028218936
180	0xbe90eee8	-0.2830727
181	0x3e2b1b25	0.16709574
182	0x3e830bee	0.2559504
183	0x3f076715	0.52891666
184	0xbe84bcb8	-0.2592523
185	0xbee9a957	-0.4563701
186	0xbd188e86	-0.037245296
187	0xbeb548eb	-0.35407194
188	0xbe9b5eeb	-0.30345854
189	0xbd9d5245	-0.07681707
190	0xbe0de513	-0.13856916
191	0xbe6d8476	-0.23195061
192	0x3d602dba	0.05473111
193	0x3f05df81	0.52294165
194	0xbed4b956	-0.4154765
195	0x3e92aad3	0.28645954
196	0x3ebf9833	0.37420806
197	0x3ebaa49b	0.3645371
198	0x3ee23ae3	0.44185552
199	0xbe091c91	-0.13389803
200	0xbbd1744f	-0.006392039
201	0x3e0cf3eb	0.13764922
202	0xbed80567	-0.42191622
203	0xbecdea0e	-0.40217632
204	0x3f051cb1	0.51996905
205	0x3ebd6b75	0.36996046
206	0x3e8cbb13	0.27486476
207	0x3eddb3be	0.43301195
208	0x3e0dadcc	0.1383583
209	0x3e2f535c	0.17121643
210	0xbef2bc95	-0.47409502
211	0x3e0abc4f	0.13548397
212	0xbedc819a	-0.43067628
213	0xbec1a7ee	-0.37823433
214	0x3e6e9864	0.2330032
215	0x3e650236	0.22364125
216	0x3e609afb	0.2193412
217	0x3e791517	0.24324451
218	0x3e0400c9	0.12890925
219	0xbdb0b820	-0.08628869
220	0x3f122517	0.57087845
221	0x3e237b78	0.15965068
222	0x3d91cd20	0.071192026
223	0x3ea4d625	0.3219463
224	0xbedee243	-0.43532
225	0xbe2bb0cf	-0.16766666
226	0x3f0309b2	0.5118667
227	0x3e9fcf48	0.3121283
228	0x3eb92855	0.36163583
229	0x3d283aef	0.04107183
230	0xbe8165f3	-0.25273094
231	0x3ebb05c3	0.36527833
232	0x3b42ff9c	0.0029754406
233	0xbeb01e28	-0.34398007
234	0xbed1c8d5	-0.40973535
235	0x3e99b24f	0.3001885
236	0x3ccf89c5	0.025334248
237	0x3eec4663	0.4614745
238	0x3ee19ace	0.4406342
239	0xbc043302	-0.008068802
240	0xbe46a606	-0.1939927
241	0xbd88887b	-0.066666566
242	0xbef2a470	-0.4739108
243	0x3efbfaf0	0.49214888
244	0x3e5d7843	0.21627907
245	0x3ec2ec1e	0.38070768
246	0x3e7abd9c	0.24486393
247	0x3e1a4ec4	0.15069109
248	0xbdf885a4	-0.12134865
249	0xbe5b42c8	-0.21412194
250	0xbea4e516	-0.3220603
251	0x3e4f1e9c	0.2022652
252	0x3c5f2cf5	0.013621558
253	0xbdd562f5	-0.10419265
254	0x3ea65bdd	0.3249196
255	0xbe927e26	-0.2861187

net.1.freq_scale.weight f4 [256, 128]
0	0x3e19706e	0.14984295
1	0xbd75e2ce	-0.06003075
2	0x3dc02b11	0.09383214
3	0x3d60be04	0.054868713
4	0xbd09232f	-0.03348082
5	0xbde78a74	-0.11305705
6	0x3e2e7751	0.17037703
7	0x3e11b48e	0.14229032
8	0x3d8d5451	0.06900848
9	0x3ccc5a49	0.024945395
10	0xbd159ec4	-0.036528364
11	0x3d35df62	0.044402488
12	0x3d975860	0.07389903
13	0xbd99e5b9	-0.07514519
14	0xbc278223	-0.010223898
15	0x3d6ea25d	0.05826031
16	0xbdb6531d	-0.08902571
17	0x3c744a2b	0.014910261
18	0x3db4f972	0.088366404
19	0x3e18e7fd	0.14932247
20	0x3d963bf1	0.07335652
21	0xbce3d028	-0.027809218
22	0x3c3bf223	0.011471304
23	0x3cde3be6	0.027128171
24	0x3d0b68f4	0.034035638
25	0x3cda644c	0.026659153
26	0x3d887695	0.06663243
27	0x3cf6909e	0.030098256
28	0xbd990e00	-0.074733734
29	0xbdbe8b5f	-0.09303927
30	0x3dbec129	0.09314186
31	0xbd95558f	-0.0729171
32	0x3e1f1620	0.15535784
33	0xbd5f2958	-0.054482788
34	0x3dfd561f	0.12369942
35	0xbd2bf515	-0.041981775
36	0xbccf37a5	-0.025295088
37	0x3d759138	0.059952945
38	0xbc16184c	-0.009161066
39	0x3db244e9	0.0870455
40	0x3cecb0c5	0.028892884
41	0xbd59f047	-0.053207662
42	0x3d75083b	0.059822302
43	0xbca57407	-0.020196928
44	0x3daca3b8	0.084296644
45	0xbdcbacd2	-0.09945072
46	0x3d370fb2	0.044692703
47	0xbd40d380	-0.047076702
48	0x3d38e5bc	0.045140967
49	0x3e37e0bc	0.17956823
50	0xbdb700aa	-0.089356735
51	0xbe4218a0	-0.18954706
52	0xbd8c88ec	-0.06862053
53	0xbd03a5cb	-0.032140534
54	0x3cacc70e	0.02109101
55	0xbd94cdbf	-0.072658055
56	0xbcf10f4c	-0.02942624
57	0xbdeb33e7	-0.11484509
58	0x3e164b43	0.14677148
59	0x3df89d36	0.121393606
60	0x3da3daa4	0.08000687
61	0x3d608aab	0.054819744
62	0xbcecfee0	-0.028930128
63	0x3dcf5635	0.101238646
64	0xbba365ad	-0.004986486
65	0xbd26f0d2	-0.040757008
66	0xbd7f7eb0	-0.062376678
67	0x3df8a5c4	0.12140992
68	0xbd3d5329	-0.046221886
69	0x3dc5978f	0.09648048
70	0xbd32a360	-0.043612838
71	0x3dd6e55c	0.104929656
72	0xbe282c20	-0.16423082
73	0x3a16ab47	0.0005747568
74	0xbd31b90f	-0.043389376
75	0x3d6f925a	0.05848918
76	0xbd9b9976	-0.0759763
77	0x3c94fccc	0.01818695
78	0xbcc7bb78	-0.024381384
79	0x3d51ebec	0.051250383
80	0x3e1617d4	0.14657527
81	0x3d8e1ee1	0.069394834
82	0xbddd46b8	-0.10804504
83	0x3d8f22e0	0.06989074
84	0xbcdf45e3	-0.027255004
85	0x3d766e86	0.060163997
86	0x3e3cc87f	0.18435858
87	0x3e008fac	0.12554806
88	0x3d88bf38	0.06677097
89	0xbe4b10fa	-0.19830695
90	0xbd6a3780	-0.057181835
91	0x3c3a1707	0.011358029
92	0x3d3344ac	0.043766662
93	0x3c14fe56	0.009093842
94	0x3ccb0544	0.024782784
95	0xbdd4a286	-0.103825614
96	0x3dbae0e6	0.09124927
97	0xbd49a28c	-0.049227282
98	0xbd0b244c	-0.033970162
99	0x3cc3b0f9	0.023888098
100	0xbcfc31ea	-0.03078552
101	0x3d982779	0.07429404
102	0xbe2a022e	-0.16602394
103	0xbd8883c9	-0.06665761
104	0xbca7d3d8	-0.020486757
105	0x3dcedd26	0.101007745
106	0xbe56c08f	-0.20971893
107	0x3d4835ca	0.048879422
108	0xbd77b2ac	-0.06047313
109	0x3e2a7c93	0.16649084
110	0xbd450d72	-0.048108526
111	0xbdf2f050	-0.11862242
112	0xbc7f07d9	-0.015565836
113	0xbdb0c913	-0.08632102
114	0x3bfadc4f	0.0076556574
115	0xbd486be5	-0.04893102
116	0xbd2b9b10	-0.041895926
117	0x3dafdec7	0.08587413
118	0x3c84c915	0.016209165
119	0x3c510949	0.012758561
120	0xbd419a53	-0.047266316
121	0x3dd17370	0.10227096
122	0xbe08fd60	-0.13377905
123	0xbd0b220f	-0.033968028
124	0xbcdc01e7	-0.026856376
125	0x3d37c7a2	0.04486812
126	0xbd873e4f	-0.06603681
127	0xbdd95df2	-0.10613622
128	0x3d1982ae	0.03747814
129	0xbd80a921	-0.06282259
130	0x3d2f4ef7	0.042799916
131	0x3bf05f81	0.0073356037
132	0x3d6ecac4	0.05829884
133	0x3dee1772	0.116255656
134	0x3da3f1bd	0.08005092
135	0xbdb78be0	-0.08962226
136	0x3e363d46	0.17796811
137	0xbc690bc4	-0.014223997
138	0x3d172b3f	0.036906477
139	0xbb8ccc21	-0.004296795
140	0xbd712283	-0.058870804
141	0xbc8a2ac1	-0.01686609
142	0xbd333414	-0.043750837
143	0xbcad986a	-0.02119084
144	0xbd976378	-0.07392019
145	0x3c8267b2	0.015918586
146	0x3c9bed44	0.019034036
147	0xbda17601	-0.078838356
148	0x3e0c80fa	0.13721076
149	0xbd8bd42c	-0.06827578
150	0x3d480bef	0.048839506
151	0x3d6862c3	0.05673481
152	0x3d107e3e	0.035276644
153	0xbd0cc2bc	-0.0343654
154	0xbdaf42c7	-0.08557659
155	0xbdd89021	-0.105743654
156	0x3d87024d	0.06592236
157	0xbcd57034	-0.02605448
158	0x3d5750c1	0.052567247
159	0x3d0edbe1	0.03487766
160	0x3d2291df	0.039689895
161	0xbd6694fa	-0.05629442
162	0xba8c529f	-0.0010705775
163	0x3d22a5a5	0.039708752
164	0x3dd15ee9	0.10223181
165	0xbdb47598	-0.08811492
166	0xbc47f26b	-0.012203793
167	0x3d0f23d6	0.034946285
168	0xbdeaf8fc	-0.11473271
169	0xbd978365	-0.073981084
170	0x3c2489f6	0.010042658
171	0x3dcc5334	0.09976807
172	0x3e10a7df	0.14126538
173	0x3d401329	0.046893273
174	0x3d5da7ee	0.05411523
175	0xbd8d1b9c	-0.06890032
176	0xbd8edcfc	-0.06975743
177	0x3dd98ed7	0.10622948
178	0xbd867e0e	-0.06567012
179	0xbc8cf6d8	-0.017207548
180	0x3d56aade	0.052409045
181	0x3de574e8	0.11203939
182	0x3d14414d	0.03619509
183	0x3be46c38	0.0069709085
184	0xbacd5478	-0.0015665432
185	0xbd5a99dc	-0.053369388
186	0x3d02bc40	0.03191781
187	0xbd09ac93	-0.033611845
188	0xbdd4055e	-0.10352586
189	0xbdd7a91d	-0.10530303
190	0xbbd5288e	-0.0065050786
191	0x3d16d86f	0.0368275
192	0xbdb27cc4	-0.087152034
193	0xbd3c7162	-0.046006568
194	0xbd9e2891	-0.07722581
195	0x3d7eafca	0.062179364
196	0xbe0fc764	-0.14040905
197	0x3cda6d8d	0.026663566
198	0xbd701096	-0.058609568
199	0xbd93cc6c	-0.07216725
200	0x3ca79256	0.02045552
201	0x3d87357f	0.066020004
202	0x3dc31ca9	0.09526951
203	0xbdcd441e	-0.10022758
204	0xbd1706af	-0.03687161
205	0xbd6cf0ab	-0.057846706
206	0x3d73ce8d	0.059523154
207	0xbdda9f8c	-0.106749624
208	0xbb9585ac	-0.004563054
209	0xbd91bb7b	-0.07115837
210	0xbb67203f	-0.0035267023
211	0xbdd221ac	-0.10260329
212	0xbd89a14d	-0.06720219
213	0xbe16b12a	-0.1471602
214	0x3d47cc7c	0.048778996
215	0xbda43296	-0.08017461
216	0xbd6f6922	-0.05844987
217	0xbd99c16d	-0.07507596
218	0xbdf4ffc9	-0.1196285
219	0x3deb4af8	0.114889085
220	0xbb3a8599	-0.0028460978
221	0xbc5afc5a	-0.013365829
222	0xbdc83347	-0.097754054
223	0x3e5ec152	0.21753433
224	0xbd9ed87d	-0.077561356
225	0x3daf3b2f	0.0855621
226	0x3c0e1bcf	0.008673622
227	0xbd6fab17	-0.058512773
228	0xbd961f42	-0.07330181
229	0xbd043fab	-0.03228728
230	0x3dbbb4df	0.09165358
231	0x3d9dc338	0.07703251
232	0xbdd02c1c	-0.10164663
233	0xbd51d697	-0.05123004
234	0x3d1a5cc0	0.03768611
235	0x3e0acd0e	0.13554785
236	0x3d62d228	0.055376202
237	0xbe0cfd56	-0.13768515
238	0x3d08a039	0.033355925
239	0x3cc71cdb	0.024305752
240	0xbd3ba268	-0.04580918
241	0x3d0dd88b	0.03463034
242	0x3d87b617	0.06626528
243	0x3d432e38	0.0476515
244	0x3cf4bd7d	0.029875511
245	0x3d972bf8	0.07381433
246	0x3d5f8460	0.054569602
247	0x3d2aa060	0.04165685
248	0x3ded6e3e	0.11593293
249	0x3e07a90f	0.13248084
250	0x3aeebaf3	0.0018213674
251	0xbd17c373	-0.03705163
252	0x3dab9a78	0.08379072
253	0x3e17a2c5	0.14808185
254	0xbd56af68	-0.052413374
255	0x3c8cbc5b	0.017179659

net.1.freq_scale.bias f4 [256]
0	0xbdaecb4c	-0.085348696
1	0x3d4ac159	0.049500797
2	0xbcde59db	-0.027142456
3	0xbd201cb6	-0.03908988
4	0xbe141d68	-0.14464343
5	0x3dbb2bfa	0.09139247
6	0x3d9dd03a	0.07705732
7	0x3bd50a42	0.006501467
8	0xbd387b77	-0.04503962
9	0xbe098f96	-0.1343368
10	0xbdedfdcb	-0.11620673
11	0xbc63e3cf	-0.013909294
12	0x3d8c5977	0.068530016
13	0xbda30903	-0.07960703
14	0xbcd6d21f	-0.02622324
15	0x3d6c9013	0.057754587
16	0x3bf3b6fc	0.007437585
17	0xbd41da17	-0.047327127
18	0xbbc7e8e7	-0.006100762
19	0xbd590db5	-0.052991588
20	0x3d060ecb	0.03272895
21	0x3dabb37a	0.08383842
22	0x3cb6c5d6	0.022311132
23	0x3d4b42a1	0.04962409
24	0x3c96a1ba	0.018387664
25	0x3d92204d	0.07135067
26	0x3dec2df0	0.115321994
27	0xbd5a4a58	-0.053293556
28	0xbd863495	-0.06552998
29	0x3de65dc3	0.112483524
30	0x3c6edf30	0.014579579
31	0xbe1fcbfb	-0.15605156
32	0xbe24a8c3	-0.16080002
33	0x3d491cfc	0.049099907
34	0x3de8b580	0.113627434
35	0xbdf8a3d6	-0.12140624
36	0xbd7dc7b3	-0.061958026
37	0xbda46bc8	-0.0802837
38	0xbe39faf2	-0.18162134
39	0x3d52480b	0.051338237
40	0xbda3ea85	-0.080037154
41	0xbd32dc67	-0.043667223
42	0x3d1631ab	0.03666846
43	0xbc063f6d	-0.008193833
44	0x3be000b1	0.00683602
45	0xbdaf2f85	-0.085539855
46	0x3e04d721	0.1297269
47	0xbd04c1fd	-0.032411564
48	0x3c4d1c55	0.012518962
49	0x3dd8824c	0.10571727
50	0xbcf85c41	-0.030317428
51	0x3d6bee08	0.05760005
52	0x3c99efbd	0.018791074
53	0xbdf4cd52	-0.11953224
54	0x3e0055ae	0.12532684
55	0xbe09dd1e	-0.13463256
56	0xbdc9a056	-0.09845035
57	0xbdf201b0	-0.11816728
58	0x3dd59313	0.10428443
59	0x3e0477e6	0.12936363
60	0xbc958aac	-0.0182546
61	0xbd64229a	-0.05569706
62	0xbc38bcd2	-0.011275487
63	0x3dbfe5bc	0.0936999
64	0x3e3b5519	0.18294181
65	0x3dcf72de	0.10129331
66	0x3c7efffd	0.015563962
67	0x3d472f84	0.0486293
68	0x3e090b8d	0.13383313
69	0x3deff985	0.11717514
70	0x3ac154c8	0.0014749998
71	0xbcb56dda	-0.022147108
72	0x3ca93b19	0.020658063
73	0xbe07b91a	-0.13254204
74	0xbc622dc1	-0.013804854
75	0xbd0e2279	-0.034700844
76	0x3c831c97	0.016004844
77	0xbcf74d96	-0.030188363
78	0x3e042dd5	0.12908109
79	0x3d71c46d	0.059025217
80	0x3d93c2c6	0.072148845
81	0x3cb58fb5	0.022163251
82	0x3cfca400	0.03083992
83	0xbbec7d35	-0.0072170743
84	0xbd52425e	-0.051332824
85	0xbb777a47	-0.0037762092
86	0xbd56c40d	-0.052433062
87	0x3e1367bc	0.1439504
88	0xbd1fe50e	-0.039036803
89	0xbe231083	-0.15924267
90	0xbe333a8a	-0.175028
91	0x3c8267c6	0.015918624
92	0x3d02019f	0.031739827
93	0xbcb2c710	-0.021823436
94	0xbdf8e8b5	-0.1215376
95	0xbe358f02	-0.17730334
96	0xbb27bdf3	-0.0025595396
97	0x3d26dfb2	0.040740676
98	0xbcb5a339	-0.022172557
99	0x3dda0509	0.10645492
100	0x3d902439	0.07038159
101	0xbc0967da	-0.008386577
102	0x3d1fc28c	0.039003894
103	0xbe0b1ce0	-0.13585234
104	0xbdcc2a64	-0.09969023
105	0xbc5959d1	-0.013266043
106	0x3bcb1a5b	0.00619821
107	0x3e4c8ec4	0.19976336
108	0x3d1c2a9a	0.038126566
109	0x3b0c2d38	0.0021389257
110	0x3e156a3c	0.14591306
111	0xbda8a68f	-0.082348935
112	0xbd80e31a	-0.06293316
113	0xbda49782	-0.0803671
114	0xbda102e7	-0.07861882
115	0xbc5939fe	-0.013258455
116	0x3c9fac03	0.019491201
117	0xbdc29552	-0.09501137
118	0xbd8c5744	-0.06852582
119	0xbd47541e	-0.048664205
120	0x3d90d633	0.07072105
121	0x3d61ec1d	0.055156816
122	0xbde95846	-0.1139379
123	0x3dad4c2f	0.084617965
124	0x3d46ff39	0.048583243
125	0x3d45a541	0.0482533
126	0x3c0fc4be	0.008774934
127	0x3ca32c93	0.019918716
128	0xbdd805fa	-0.10548015
129	0x3d8617d1	0.06547511
130	0xbd7b936a	-0.061419882
131	0x3d43505b	0.047684055
132	0xbd486291	-0.048922125
133	0xbd6b534f	-0.057452496
134	0xbd97f3dc	-0.07419559
135	0xbde24730	-0.11048734
136	0xbd91c855	-0.071182884
137	0x3ca36305	0.019944677
138	0xbccc35b4	-0.024927951
139	0x3d8bd8d7	0.06828468
140	0x3c97af9a	0.01851635
141	0x3dacec83	0.084435485
142	0xbc7cf1f1	-0.015438543
143	0x3ddc8aef	0.10768687
144	0xbd5da288	-0.05411008
145	0x3d9e3896	0.07725637
146	0x3dac78ab	0.08421453
147	0x39d1f625	0.00040046978
148	0xbc95fe46	-0.018309724
149	0x3bbd1e10	0.005771406
150	0xbcb7ef80	-0.02245307
151	0x3ca1d26f	0.019753663
152	0xbdabf1fc	-0.08395764
153	0x3d8596f4	0.06522933
154	0x3dae8d1d	0.08523009
155	0x3af04372	0.0018330647
156	0x3d1a914b	0.03773622
157	0x3d2d1bd0	0.042262852
158	0x3d081de7	0.033231642
159	0xbe2524f1	-0.16127373
160	0x3d74bca4	0.059750214
161	0xbd4e638f	-0.050387915
162	0x3d24d323	0.04024042
163	0x3dd9942b	0.10623964
164	0x3d4fc5fe	0.05072593
165	0xbdc62a39	-0.09676022
166	0xbd8f5557	-0.06998699
167	0x3dddf5b4	0.1083788
168	0x3c99d2ad	0.018777216
169	0xbe042667	-0.12905274
170	0xbd6c66e7	-0.057715323
171	0xbdb321b6	-0.08746664
172	0x3d2738c1	0.04082561
173	0xbdf55b49	-0.11980302
174	0x3dcc25da	0.09968157
175	0x3dfed7aa	0.124434784
176	0x3c4df6c4	0.012571041
177	0x3c8a58a5	0.016887972
178	0xbdfa18e3	-0.12211778
179	0xbca5d3d5	-0.020242611
180	0x3cc33f5b	0.023833921
181	0x3d634985	0.055490036
182	0xbd7c92e4	-0.061663523
183	0xbced4412	-0.028963123
184	0xbd26e3b3	-0.040744495
185	0x3c8af1bb	0.01696097
186	0xbda768f9	-0.08174319
187	0xbb17c1b3	-0.0023156225
188	0xbdb5b150	-0.0887171
189	0x3d70adae	0.058759384
190	0x3bec8dc0	0.0072190464
191	0x3d936752	0.07197441
192	0xbcbed8ab	-0.023296675
193	0xbc0e498d	-0.008684528
194	0xbc5b018c	-0.013367068
195	0xb9dad8ca	-0.0004174172
196	0x3dda9c4d	0.10674343
197	0xbdba2447	-0.090889506
198	0x3d542d18	0.051800817
199	0x3db4e668	0.08833009
200	0xbd9c2085	-0.0762339
201	0xbdfee73a	-0.12446447
202	0x3cfc3fef	0.030792205
203	0xbdd98a0d	-0.10622034
204	0xbc41f27e	-0.0118376
205	0x3e16bf72	0.14721468
206	0xbe01e043	-0.12683205
207	0xbe00649b	-0.12538378
208	0xbda6e664	-0.08149412
209	0xbd8345c9	-0.06409795
210	0xbc635295	-0.01387467
211	0x3d9d9dda	0.076961234
212	0x3d917445	0.07102255
213	0xbd7b06a8	-0.061285645
214	0x3dfb9e3d	0.12286041
215	0x3d604666	0.054754637
216	0x3c3a822e	0.011383576
217	0x3e09f9ed	0.13474245
218	0xbd0a33c8	-0.03374079
219	0xba97c605	-0.00115794
220	0xbe055426	-0.13020381
221	0x3dfd8c2f	0.123802535
222	0x3d1b5c26	0.037929676
223	0x3d0d2d80	0.03446722
224	0xbd9ecb8d	-0.07753668
225	0x3c817960	0.015804946
226	0xbd90b23b	-0.07065245
227	0x3c2c40de	0.010513512
228	0x3db9ac63	0.09066083
229	0x3bdb9b4e	0.0067018634
230	0xba907fdf	-0.0011024437
231	0xbd4006df	-0.046881553
232	0x3d83d668	0.06437379
233	0xbba5194b	-0.0050384155
234	0x3dacab5f	0.08431124
235	0xbd405328	-0.046954304
236	0x3d24fb50	0.040278733
237	0x3d819d0f	0.06328785
238	0x3d9ebe68	0.07751161
239	0xbd072cc4	-0.033001676
240	0xbdc48552	-0.09595741
241	0x3be089da	0.0068523707
242	0xbcefb34f	-0.029260306
243	0x3cdf9c1a	0.027296115
244	0x3c84b26e	0.016198363
245	0xbc8fc900	-0.017551899
246	0x3e19b8ae	0.15011856
247	0x3d929f38	0.07159275
248	0xbd30ba7a	-0.043146588
249	0x3d545c66	0.05184593
250	0xbde96f38	-0.113981664
251	0xbdc7fee2	-0.09765412
252	0xbce7e373	-0.028306698
253	0x3db462a5	0.088078775
254	0x3c891685	0.016734371
255	0x3d26e993	0.040750097

net.2.freq_scale.weight f4 [256, 128]
0	0xbd9756ed	-0.07389627
1	0xbcc6b51e	-0.024256285
2	0x3c390260	0.01129207
3	0xbdb13b60	-0.08653903
4	0xbda21d95	-0.079157986
5	0x3d706bb6	0.05869647
6	0x3d8f1d13	0.06987967
7	0x3d61a466	0.055088423
8	0xbd432661	-0.047644023
9	0x3cec34d9	0.028833793
10	0xbd0e66e6	-0.0347661
11	0xbdcebb67	-0.10094338
12	0xbc286a8b	-0.010279308
13	0x3c7d78dd	0.015470711
14	0xbc4a7af4	-0.012358416
15	0xbd18fdd1	-0.037351433
16	0xbd62c3a9	-0.055362377
17	0xbc33eab3	-0.01098125
18	0xbd8c7652	-0.06858505
19	0x3d359f2a	0.044341244
20	0xbdb0c233	-0.086307906
21	0xbda37eb4	-0.07983151
22	0x3d41e968	0.047341734
23	0xbd926a66	-0.071492
24	0xbda5e1d3	-0.08099713
25	0xbd10c1f6	-0.035341226
26	0xbcf9fc68	-0.030515864
27	0xbd1fb7db	-0.038993698
28	0x3d218bfb	0.039440136
29	0xbd041904	-0.03225042
30	0x3d84ad40	0.06478357
31	0xbb08edf8	-0.0020893794
32	0xbda80ced	-0.082055904
33	0xbd9edd48	-0.0775705
34	0xbdc79008	-0.09744269
35	0xbcd8252e	-0.026384916
36	0x3d33957c	0.04384373
37	0x3d5f7d30	0.054562747
38	0x3d3a9aa5	0.045557637
39	0x3cbb757d	0.022883171
40	0xbda59f3c	-0.08087012
41	0x3d4e6a2a	0.050394215
42	0x3d256bd2	0.04038603
43	0x3d9deea1	0.077115305
44	0xbd9a3646	-0.07529883
45	0x3a3ecd23	0.00072784926
46	0x3d19cf51	0.037551228
47	0xbcc56643	-0.024096614
48	0x3d3a5bc8	0.045497686
49	0xbb78ac22	-0.0037944396
50	0x3d63548f	0.055500563
51	0x3d0f48ce	0.03498154
52	0x3ca512e9	0.020150619
53	0xbd82248f	-0.06354629
54	0x3d53796e	0.051629476
55	0xbdcb59d9	-0.099292465
56	0xbd68e349	-0.05685738
57	0x3cc70a6a	0.024296958
58	0x3bb9ac64	0.0056663025
59	0xbcb4ef04	-0.022086628
60	0x3d7f543e	0.0623362
61	0x3c321357	0.010868869
62	0x3d98df8d	0.07464514
63	0x3d482c99	0.048870657
64	0x3b52e383	0.0032179065
65	0xbdd04567	-0.101694874
66	0xbcb53f8a	-0.022125024
67	0xbd9eda85	-0.07756523
68	0x3caabdf4	0.02084253
69	0xbd28c3a8	-0.041202217
70	0x3d1b22ef	0.037875112
71	0x3d4f773f	0.05065083
72	0xbce64c02	-0.028112415
73	0xbd8cd923	-0.06877353
74	0xbc7f1a82	-0.015570285
75	0xbdab0732	-0.08350982
76	0x3ce3de0d	0.027815843
77	0xbcb758d6	-0.022381227
78	0xbdba8e59	-0.09109182
79	0xbda9aa6f	-0.08284461
80	0xbd42b3e2	-0.04753483
81	0xbbb756e0	-0.005595073
82	0xbdb17bbb	-0.08666178
83	0xbdb33dcc	-0.08752021
84	0xbd1c5905	-0.038170833
85	0xbd88807a	-0.0666513
86	0xbca4f84f	-0.020137934
87	0xbd7ad95b	-0.061242443
88	0xbcffc1dc	-0.031220369
89	0x3d1115d3	0.035421204
90	0xbda36bb1	-0.07979525
91	0xbd2c845f	-0.042118426
92	0x3cd98f36	0.026557546
93	0x3d87b193	0.066256665
94	0xbcfbf22e	-0.030755129
95	0x3c955290	0.018227845
96	0xbd32938a	-0.043597735
97	0x3d44bce1	0.04803169
98	0xbdb831e9	-0.089938946
99	0x3c9c0636	0.01904593
100	0x3d1470a9	0.036240254
101	0xbd2bec14	-0.04197319
102	0x3cd6b2bf	0.02620828
103	0xbd27ecbd	-0.040997256
104	0xbda33646	-0.07969336
105	0x3d1a7868	0.037712485
106	0xbd13ac09	-0.036052737
107	0xbc8a8d13	-0.016912973
108	0xbd1abd31	-0.037778083
109	0xbd10bf49	-0.035338674
110	0xbd7d1f08	-0.06179717
111	0x3d4dd3cc	0.050250813
112	0xbd520a27	-0.051279213
113	0xbb410c70	-0.0029456876
114	0xbd5ef3b3	-0.05443163
115	0xbd9fb028	-0.07797271
116	0xbdb9ae21	-0.090664156
117	0xbd7e1d64	-0.062039748
118	0x3d7a0228	0.061037213
119	0xbd90eed5	-0.070768036
120	0x3d7b7873	0.061394166
121	0xbdbcc1df	-0.092166655
122	0xbc8ff2b8	-0.017571792
123	0x3d64a2e8	0.055819422
124	0xbda94543	-0.08265164
125	0x3cccf80a	0.025020618
126	0xbce0b3a3	-0.027429407
127	0x3d668118	0.056275457
128	0x3b395659	0.0028280227
129	0xbe0b282a	-0.1358954
130	0xbd84df0d	-0.06487856
131	0xbd66baea	-0.0563306
132	0xbde97f49	-0.11401231
133	0xbdd1fcea	-0.10253318
134	0xbdf76a4a	-0.1208082
135	0xbd530442	-0.051517732
136	0xbd928ed0	-0.071561456
137	0xbb959072	-0.0045643384
138	0xbd3898cf	-0.045067605
139	0x3d755020	0.059890866
140	0xbccf0c92	-0.025274549
141	0xbc751744	-0.01495916
142	0x3b3afa6f	0.0028530618
143	0xbc95fda9	-0.018309431
144	0xbc39d36e	-0.011341913
145	0xbcf09da2	-0.02937204
146	0xbdae5b4b	-0.085135065
147	0xbd736ffc	-0.05943297
148	0xbbb29839	-0.0054502753
149	0xbdd45dc7	-0.10369449
150	0x3c92e77f	0.017932652
151	0xbd9e86db	-0.077405654
152	0xbdc791ba	-0.09744592
153	0xbd9295eb	-0.07157501
154	0x3c1d6b0d	0.009608042
155	0x3c832962	0.016010944
156	0x3d21a832	0.039467044
157	0xbc3b1b98	-0.011420153
158	0xbd84559f	-0.064616434
159	0xbba0faa7	-0.0049126926
160	0xbdd76fe1	-0.10519386
161	0x3d4c0197	0.049806204
162	0xbd797818	-0.060905546
163	0x3d543a3a	0.05181334
164	0x3bc55f2d	0.0060233087
165	0x3c15a1ba	0.009132797
166	0x3c2d03d6	0.010559997
167	0x3da95532	0.08268203
168	0xbd9f139e	-0.077674136
169	0x3d643c8e	0.055721812
170	0xbdbcb1ba	-0.09213586
171	0x3c2b9c01	0.010474206
172	0xbc3062ef	-0.010765775
173	0xbdf53b5b	-0.11974212
174	0x3d05cb51	0.0326646
175	0x3d33b594	0.04387434
176	0x3d8a3065	0.06747512
177	0xbcf1ef35	-0.029533008
178	0xbd95288a	-0.07283123
179	0xbdb522ec	-0.088445514
180	0xbd84d56b	-0.06486019
181	0x3d69db2a	0.057093777
182	0xbdd9826d	-0.1062058
183	0x3cadb017	0.02120213
184	0xbda4edf5	-0.08053199
185	0xbd38378a	-0.04497484
186	0xbd90edd6	-0.070766136
187	0xbdd3316a	-0.10312159
188	0xbe0907a9	-0.13381828
189	0x3d4e64f3	0.05038924
190	0xbd6da848	-0.058021814
191	0x3d7a3f5e	0.061095588
192	0xbc464515	-0.012101431
193	0xbd9e403c	-0.077270955
194	0x3d15d5cd	0.03658085
195	0x3ccba622	0.024859492
196	0xbcefe799	-0.029285239
197	0xbdc25f49	-0.094908305
198	0xbdfba9c0	-0.122882366
199	0xbd940cba	-0.0722899
200	0x3c8f6fe7	0.017509414
201	0xbdf00c91	-0.11721147
202	0xbd20fb53	-0.03930218
203	0xbdcda566	-0.10041313
204	0xbc5f3d4f	-0.013625457
205	0x3d16862c	0.03674905
206	0xbd8877b3	-0.06663456
207	0xbd4428a2	-0.047890313
208	0x3c895b5e	0.0167672
209	0xbde9d3ee	-0.114173755
210	0xbd9c8bff	-0.0764389
211	0xbaf12ab2	-0.0018399565
212	0xbd00cbc0	-0.03144431
213	0xbde7c715	-0.11317269
214	0x3d26eca9	0.04075304
215	0xbd965330	-0.073400855
216	0x3d0e7e93	0.03478868
217	0xbd465513	-0.048420977
218	0x3b63ff4e	0.0034789625
219	0x3c2a1db9	0.010383063
220	0xbd418a6d	-0.047251154
221	0xbda6d983	-0.08146956
222	0xbdcba2ca	-0.09943159
223	0xbe0ea160	-0.13928747
224	0xbcacabd0	-0.02107802
225	0x3cc52521	0.024065556
226	0xbca2ecc1	-0.019888284
227	0xbd13eeb4	-0.036116317
228	0x3da9fc18	0.08300036
229	0x3d8e9ea7	0.06963854
230	0xbd986abb	-0.07442232
231	0xbd4fea0e	-0.05076032
232	0xbb3617ae	-0.002778511
233	0xbd18c07a	-0.037292935
234	0x3c6f9920	0.01462391
235	0xbde82c35	-0.11336557
236	0xbd555512	-0.052083082
237	0x3d90b4b9	0.0706572
238	0x3ced2853	0.028949892
239	0xbd048385	-0.03235199
240	0xbdcf9611	-0.10136045
241	0xbdd81b30	-0.105520606
242	0xbd1d0a8b	-0.038340133
243	0xb9444ac0	-0.00018719863
244	0x3ce10426	0.027467798
245	0x3d5b0b1e	0.0534774
246	0x3d6e07b7	0.058112826
247	0xbd9e2fc1	-0.07723952
248	0x3c2ad756	0.010427317
249	0x3c93469f	0.01797801
250	0x3c8a0eaa	0.016852695
251	0x3c0a1bef	0.008429511
252	0xbbbe4e4c	-0.0058076736
253	0xbc17f64c	-0.00927503
254	0x3cc5e45b	0.02415674
255	0xbdacfec5	-0.08447031

net.2.freq_scale.bias f4 [256]
0	0x3c2f2a25	0.0106912
1	0xbd922aaf	-0.071370475
2	0x3d9ca040	0.07647753
3	0xbd15669d	-0.036474813
4	0xbbdda8ed	-0.0067645223
5	0x3d9b1258	0.07571858
6	0x3d648601	0.05579186
7	0xbbf60951	-0.007508435
8	0x3d342185	0.04397728
9	0x3cc70a65	0.024296949
10	0xbcc2c7c8	-0.023776904
11	0x3dbb874f	0.091566674
12	0xbcd21a72	-0.025647376
13	0x3d725ff8	0.059173554
14	0x3c5c5455	0.013447841
15	0x3d349c38	0.044094294
16	0x3c4beb29	0.012446203
17	0xbcf725ed	-0.030169452
18	0xbd338e12	-0.04383666
19	0xbd0a0f45	-0.03370597
20	0xbd65a674	-0.056066945
21	0x3d7dc999	0.061959837
22	0x3d29e33d	0.041476477
23	0xbd6c4e4a	-0.05769185
24	0x3d5ae323	0.05343927
25	0xbc60274a	-0.013681242
26	0xbd41e04f	-0.047333058
27	0xbc829003	-0.01593781
28	0x3c8cb510	0.017176181
29	0x3d35be3f	0.044370886
30	0x3dc0ec1f	0.094200365
31	0xbd09dd3d	-0.033658255
32	0x3d2cc6ee	0.0421819
33	0x3d0670e0	0.03282249
34	0x3d145e2c	0.03622262
35	0xbd9b5c11	-0.0758592
36	0x3d1e9d67	0.03872433
37	0xbd2b71ce	-0.04185658
38	0xbcb8a71b	-0.02254062
39	0x3da58ad7	0.08083122
40	0xbcfd8c56	-0.030950706
41	0xbda41f52	-0.080137864
42	0x3d9c5308	0.076330245
43	0x3c286bf6	0.010279646
44	0xbdcc7936	-0.09984057
45	0xbcc20b55	-0.023687044
46	0xbcfffc3a	-0.0312482
47	0xbda645b0	-0.081187606
48	0xbdde4631	-0.10853232
49	0xbcc3838a	-0.023866434
50	0xbd6eb16e	-0.05827468
51	0x3dcac3a7	0.09900599
52	0xbbd9899f	-0.00663872
53	0xbd2489fe	-0.040170662
54	0x3c4be918	0.012445711
55	0x3d415b9e	0.047206514
56	0x3d8747f7	0.06605523
57	0x3d997af7	0.07494157
58	0x3dd50096	0.104005024
59	0xbd185c7e	-0.037197582
60	0xbd15a867	-0.036537554
61	0x3d241555	0.040059406
62	0x3b9e88f2	0.0048381025
63	0xbda5c4d8	-0.080941856
64	0x3c88cd3e	0.01669943
65	0x3d39fcb8	0.045407027
66	0x3d9bd474	0.076088816
67	0xbc519cf0	-0.0127937645
68	0x3d1802aa	0.037111916
69	0xbd171063	-0.036880862
70	0xbc619279	-0.013767832
71	0x3c6a173e	0.014287768
72	0x3d8d0d89	0.06887347
73	0xbc9ff28c	-0.019524835
74	0x3b66770e	0.0035166177
75	0x3d71c0ec	0.059021875
76	0xbc33499e	-0.010942845
77	0xbd915387	-0.0709601
78	0x3d56b035	0.052414138
79	0xbd8b9944	-0.068163425
80	0xbc3c3ef5	-0.0114896195
81	0xbd439d4e	-0.04775744
82	0xbc825233	-0.015908336
83	0xbd528ade	-0.051401965
84	0x3c97998c	0.018505834
85	0x3d70ce66	0.058790587
86	0x3d754816	0.0598832
87	0xbd785c0b	-0.060634654
88	0xbc17c1e1	-0.009262533
89	0x3c80053b	0.015627494
90	0xbd6deb13	-0.058085512
91	0xbd0833e6	-0.03325262
92	0xbd3fd311	-0.046832148
93	0x3b906a08	0.004407171
94	0xbd3a4574	-0.045476392
95	0x3dd06a3a	0.10176511
96	0x3cdb791a	0.026791144
97	0xbca0bf6e	-0.01962253
98	0x3d043416	0.032276236
99	0xbd38780d	-0.045036364
100	0xbd407014	-0.046981886
101	0xbd2c7bc8	-0.042110234
102	0xbd77860e	-0.06043058
103	0x3d97662f	0.07392537
104	0x3a0a9bab	0.00052874786
105	0x3d45b2a6	0.048266076
106	0xbc36de80	-0.011161447
107	0x3c45bb3b	0.012068565
108	0x3ddccda2	0.10781409
109	0x3cb6fd1e	0.022337493
110	0x3d4f0d31	0.05054969
111	0x3d8b9f4a	0.06817491
112	0xbcd7307a	-0.026268233
113	0x3d86b50d	0.065775014
114	0x3d8f29c9	0.06990392
115	0x3d2ee37d	0.04269742
116	0x3cfc0aa2	0.030766789
117	0x3d697cd4	0.05700381
118	0xbd1c59b4	-0.038171485
119	0x3d5f974a	0.05458764
120	0x3d5026d9	0.050818298
121	0xbd95f178	-0.07321447
122	0xbdccb9b8	-0.099963605
123	0x3c323a25	0.010878121
124	0xbd36df63	-0.044646632
125	0xbd97e018	-0.07415789
126	0x3d561ae8	0.052271754
127	0x3d1ba6a1	0.038000707
128	0xbda2df67	-0.07952767
129	0xbc0d283a	-0.008615548
130	0xbc282263	-0.010262105
131	0xbd5edda7	-0.054410603
132	0xbd85b04d	-0.06527767
133	0x3d2ac503	0.04169179
134	0xbd727f42	-0.059203394
135	0xbd99b924	-0.07506016
136	0xbc3dce7a	-0.011584872
137	0x3d73f70a	0.059561767
138	0x3dd687cf	0.10475122
139	0x3dabed42	0.08394863
140	0xbd9a94c5	-0.07547907
141	0x3daef77e	0.08543299
142	0xbb662a62	-0.0035120477
143	0x3d2c57bf	0.04207587
144	0x3ca9a1a3	0.020706957
145	0x3d320466	0.043461226
146	0x3cbbaaf8	0.022908673
147	0xbc33dd88	-0.01097811
148	0x3daaccde	0.083398566
149	0x3d1b2cd8	0.037884563
150	0x3a6a39f1	0.00089350255
151	0x3d282a6b	0.041056078
152	0xbd6bef80	-0.057601452
153	0x3dbd0c69	0.09230883
154	0xbda1c642	-0.07899143
155	0xbcdd0fab	-0.02698501
156	0x3d29e821	0.04148114
157	0x3d910abf	0.07082128
158	0xbdbaac87	-0.09114938
159	0x3d437e25	0.047727723
160	0x3d33bd89	0.043881927
161	0x3cb024c0	0.021501899
162	0x3d0ce1bb	0.03439496
163	0x3d2d5c2e	0.042324238
164	0x3cf278a1	0.029598536
165	0x3c504eb4	0.012714077
166	0x3bf741a4	0.007545667
167	0x3d038f88	0.032119304
168	0x3d0b0a7d	0.03394555
169	0x3d3b7974	0.045770124
170	0x3d0032fe	0.03129863
171	0x3d8ed297	0.069737606
172	0xbd1f0a67	-0.03882828
173	0x3d0c1f8e	0.03420978
174	0x3d7c6c92	0.06162698
175	0xbc81b179	-0.015831696
176	0x3d25f097	0.040512647
177	0x3d7b9ec2	0.0614307
178	0xbd99f21c	-0.07516882
179	0xbcc408f9	-0.02393006
180	0x3bfc80c1	0.0077057783
181	0x3b9bc6d2	0.004753926
182	0x3d4a3fb0	0.049377143
183	0x3cc9d590	0.024637967
184	0xbd820406	-0.06348424
185	0x3da3df73	0.08001604
186	0x3cc1f063	0.023674196
187	0xbd95f3f5	-0.07321922
188	0xbcae5194	-0.021279134
189	0x3da784b6	0.081796095
190	0x3c3fc815	0.011705418
191	0x3ccdc5f4	0.025118805
192	0xbb8d4b00	-0.004311919
193	0x3c4728dc	0.012155738
194	0x3dd8b22a	0.10580857
195	0xbd309e47	-0.043119695
196	0x3da32e2a	0.079677895
197	0xbce6a7c5	-0.02815617
198	0x3db245f9	0.087047525
199	0xbdbebc1c	-0.09313223
200	0xbcd06d22	-0.025442664
201	0x384c1ede	4.8666137e-05
202	0xbd3df747	-0.0463784
203	0xbda8cbdf	-0.0824201
204	0xbd790777	-0.060798135
205	0xbdab16a3	-0.08353927
206	0x3d7db907	0.061944034
207	0xbd8aa9f4	-0.06770697
208	0xbd19c864	-0.037544623
209	0xbdaa0d51	-0.08303321
210	0xbaf3bb8d	-0.0018595323
211	0x3d7c9d35	0.06167336
212	0x3c9b35a6	0.01894648
213	0x3cdd3128	0.027000979
214	0x3d476a6c	0.048685476
215	0xbcbe9770	-0.02326557
216	0xbd897aed	-0.06712899
217	0x3c3bd198	0.011463545
218	0x3ca85d0f	0.020552186
219	0x3d079e9c	0.033110246
220	0x3ca2600b	0.019821187
221	0xbcbbc64b	-0.022921702
222	0x3d387b5c	0.04503952
223	0x3d506de5	0.050886054
224	0x3ca7e7a6	0.0204962
225	0xbd63ecdf	-0.05564582
226	0x3d818f79	0.06326193
227	0x3c9adcb3	0.018904066
228	0x3d5cf2c8	0.05394247
229	0xbd02a546	-0.0318959
230	0x3d322c6a	0.043499388
231	0x3cc35a4a	0.023846764
232	0xbbc78ec1	-0.0060900156
233	0xbd1b4af6	-0.037913285
234	0xbd530176	-0.051515065
235	0x3c376ee8	0.011195876
236	0xbd6b7094	-0.05748041
237	0x3c862864	0.016376682
238	0x3d86f7df	0.065902464
239	0xbda946d3	-0.08265462
240	0xbbc34841	-0.005959541
241	0x3d9e95ce	0.07743417
242	0x3d74d091	0.059769217
243	0x3d9061eb	0.07049926
244	0x3d1b3cd0	0.037899792
245	0xbdc6b73f	-0.0970292
246	0xbbc8250c	-0.006107932
247	0x3d1eabb8	0.038737983
248	0xbde5c6a7	-0.112195306
249	0xbd2cbc6a	-0.042171873
250	0xbca64006	-0.0202942
251	0xbc077313	-0.008267182
252	0x3cac2974	0.02101586
253	0xbd0c9d39	-0.034329627
254	0x3df69f1d	0.12042067
255	0xbb2d3358	-0.0026428308

net.3.weight f4 [1, 128]
0	0xbd081626	-0.033224247
1	0x3d043384	0.03227569
2	0x3ca6d314	0.020364322
3	0xbd603110	-0.05473429
4	0x3a04230e	0.0005040624
5	0xbc8de525	-0.017321179
6	0xbc21fa27	-0.009886301
7	0xbbf9e1db	-0.007625801
8	0xbc91eb03	-0.017812258
9	0xbcf93f6c	-0.03042575
10	0x3c2f8a61	0.010714144
11	0xbc1fced7	-0.009753904
12	0xbd636209	-0.055513415
13	0x3cbeb5a1	0.023279967
14	0x3a6c8225	0.00090220786
15	0xbc8007c4	-0.015628703
16	0x3b278187	0.0025559382
17	0xbd2c2ea0	-0.042036653
18	0x3d03a01a	0.032135107
19	0xbc639910	-0.013891473
20	0xbca28313	-0.019837892
21	0xbb0cc1e9	-0.0021477884
22	0xbb8ff99c	-0.0043937694
23	0xbd5c498c	-0.053781077
24	0x3ae1fe69	0.0017241958
25	0x3c58fb58	0.013243519
26	0xbd414d09	-0.047192607
27	0xbbced3ef	-0.0063118855
28	0x3c262969	0.010141709
29	0xbb8d1020	-0.0043049008
30	0x3d36f455	0.044666607
31	0x3cdbe904	0.026844509
32	0xbcb7abaa	-0.022420723
33	0xbd087e41	-0.03332353
34	0x3c82c4d6	0.015963
35	0xbcabac92	-0.020956311
36	0x3c616189	0.013756164
37	0x3a6f486e	0.00091279193
38	0xbb2637c7	-0.0025362836
39	0x3b1fd0fc	0.002438604
40	0xbc3f90f4	-0.011692274
41	0xbc446da6	-0.011989033
42	0xbc1f2c97	-0.009715221
43	0x3b8585d6	0.0040747924
44	0x3d5514be	0.052021734
45	0x3c8216ad	0.015879953
46	0x3d3861d4	0.04501517
47	0xbc925115	-0.017860929
48	0xbc059f69	-0.008155682
49	0xbc459e7f	-0.012061714
50	0xb97fcb30	-0.00024394388
51	0xbd3b85b2	-0.0457818
52	0xbba1e543	-0.00494066
53	0x3c389bd8	0.011267625
54	0xbb83f0d5	-0.004026512
55	0xbcbbc71c	-0.022922091
56	0x3cfdac89	0.03096606
57	0x3c596c24	0.013270412
58	0xbd116f1f	-0.035506364
59	0x3c19a00b	0.009376536
60	0xbb74fb6f	-0.0037381311
61	0x3c57a209	0.013161191
62	0xbbf3bf47	-0.0074385735
63	0xbc66a7fb	-0.014078136
64	0xba88aa44	-0.001042672
65	0xbbd8ebf9	-0.006619927
66	0xbc3e7bdf	-0.011626213
67	0x3d20d9a5	0.039270062
68	0xbcbb1305	-0.022836218
69	0xbbad1c26	-0.0052828966
70	0xbb3388ab	-0.0027394693
71	0x3c71f705	0.014768367
72	0xbc3ecb41	-0.011645139
73	0x3d57fb90	0.052730143
74	0xbc17b683	-0.009259823
75	0x3c82f7a9	0.015987234
76	0x3c5f22ff	0.013619184
77	0xbc73e02b	-0.014884989
78	0x3b889123	0.0041676923
79	0xbd4c95d7	-0.049947586
80	0x3c5624a3	0.013070258
81	0xbb1d03ae	-0.0023958492
82	0xbd1801db	-0.037111145
83	0xbccc604e	-0.024948265
84	0x3cce7520	0.025202334
85	0x3d16edb0	0.03684777
86	0x3d07ec4b	0.03318433
87	0xbad4b7d3	-0.00162291
88	0xbcf99d82	-0.030470613
89	0xb9ea1b2e	-0.00044652208
90	0xbc9e6fb8	-0.019340381
91	0xbd544521	-0.05182374
92	0xbc4a07f5	-0.012330999
93	0xbbf3aa53	-0.0074360757
94	0x3a207a74	0.00061217626
95	0x3c97d6d1	0.01853505
96	0x3bbffbb2	0.005858862
97	0xbc09d867	-0.008413411
98	0xb8ea5b5c	-0.000111750065
99	0x3cd6b22a	0.026208002
100	0xba0b6cc7	-0.0005318638
101	0xbc070a90	-0.008242264
102	0xbc177ec0	-0.009246528
103	0xbd06245a	-0.03274951
104	0xbc84df82	-0.016219858
105	0x3c2d7d70	0.010588989
106	0xbc6ee906	-0.014581924
107	0x3cb38a7d	0.021916622
108	0xbcf440f2	-0.029816125
109	0xbc736010	-0.014854446
110	0xbc994b67	-0.018712712
111	0x3cdfd574	0.027323462
112	0x3d0025a7	0.031285908
113	0x3be259ea	0.0069076912
114	0xbcb7ee8d	-0.022452617
115	0x3cf18bd2	0.029485617
116	0x3cb48641	0.022036674
117	0xbbf15752	-0.0073651457
118	0xbd382193	-0.044953894
119	0xbbb99d9f	-0.005664542
120	0xbc9703df	-0.018434463
121	0xbbf2bfc5	-0.0074081146
122	0x3d467f3a	0.048461176
123	0xb87010da	-5.7236153e-05
124	0x3b5f553e	0.0034077908
125	0x3d636fc4	0.05552651
126	0x3c252000	0.01007843
127	0x3d47cd61	0.04877985
