path/to/dir/cond_wire/2026_02_04__10_54_32-sg44gcy6/2026_02_04__10_54_32-sg44gcy6-model.pt (torch, 274896 bytes, 7 tensors)

net.0.freq_scale.weight f4 [256, 5]
0	0x3ea20c8d	0.316502
1	0x3e54e546	0.20790586
2	0x3f47b300	0.7800751
3	0x3d5de630	0.054174602
4	0x3dd1ecd9	0.10250253
5	0x3e89e1b4	0.2693001
6	0x3e6a72d4	0.22895366
7	0x3cf67c3a	0.030088533
8	0xbeb14a11	-0.3462682
9	0xbbf69d5e	-0.007526084
10	0x3e90dc1a	0.28292924
11	0x3e70fd13	0.2353404
12	0xbb96a1bd	-0.0045969174
13	0x3e3ff63f	0.18746279
14	0xbeced57f	-0.4039726
15	0xbe453112	-0.19257
16	0x3e6f3eba	0.23363772
17	0x3d83977b	0.06425377
18	0x3e1b8668	0.1518799
19	0x3e138306	0.1440545
20	0xbe1b7dcc	-0.15184706
21	0xbd12d12d	-0.035844017
22	0x3f4b6a49	0.79459053
23	0xbee10660	-0.43950176
24	0x3e9bf1a7	0.30457804
25	0x3d290d09	0.041272197
26	0x3eb64b44	0.35604298
27	0xbf130ca7	-0.5744118
28	0xbc73e462	-0.014885994
29	0x3e12654f	0.14296459
30	0xbe08c16a	-0.13355032
31	0x3db82475	0.089913286
32	0x3e389294	0.18024665
33	0x3c06fc32	0.008238839
34	0xbea1fb57	-0.3163707
35	0xbea04b49	-0.31307438
36	0x3edc602b	0.4304212
37	0xbf7d69f7	-0.98989815
38	0x3ec1e9c5	0.37873664
39	0x3eac7888	0.33685708
40	0x3e974519	0.29544905
41	0x3e1720e1	0.14758636
42	0x3f148c8d	0.58026963
43	0x3e7c3c80	0.24632454
44	0xbdf221e3	-0.1182287
45	0xbe0fe21b	-0.14051096
46	0x3e56f02f	0.2099006
47	0x3f1fa45d	0.62360173
48	0xbe37b198	-0.1793884
49	0x3e5e09b0	0.21683383
50	0xbe24f6fb	-0.1610984
51	0xbea6ca21	-0.32576087
52	0xbeb12529	-0.34598663
53	0xbe90aff2	-0.28259236
54	0x3e91e6af	0.2849631
55	0x3e75e08c	0.24011439
56	0x3dbcceae	0.092191085
57	0xbf38c939	-0.7218204
58	0x3ed16e8b	0.4090465
59	0xbd7f3810	-0.062309325
60	0xbe8d869a	-0.27641755
61	0xbeb7ec6a	-0.35922557
62	0x3eff8f47	0.49914
63	0x3db3f253	0.08786454
64	0xbd96e489	-0.07367808
65	0x3dab606a	0.08367999
66	0xbdb71fe1	-0.08941627
67	0xbea4f8ce	-0.32221073
68	0x3c150352	0.00909503
69	0x3e382f16	0.17986712
70	0xbea40a17	-0.32038948
71	0x3ec1c7b2	0.37847668
72	0xbf17cada	-0.592939
73	0x3eb27796	0.34856862
74	0xbec2c580	-0.38041306
75	0xbeac8c5f	-0.33700845
76	0xbe7db7c2	-0.2477713
77	0x3f2c8f1c	0.6740587
78	0x3db3abe4	0.0877302
79	0x3cde1b68	0.027112678
80	0xbe9b21c7	-0.30299208
81	0xbda30497	-0.0795986
82	0x3f4a23e7	0.7896103
83	0x3e6b6bf1	0.22990395
84	0x3ec3e4d4	0.3826052
85	0xbecc7f8f	-0.3994107
86	0x3e02e300	0.12781906
87	0xbf48cc2f	-0.7843656
88	0xbec45366	-0.38344878
89	0xbdd9995c	-0.10624954
90	0x3d9450db	0.072419845
91	0xbeb8f050	-0.36120844
92	0xbf438e51	-0.7638903
93	0x3ed93213	0.42421016
94	0xbe990add	-0.298911
95	0xbdad4d48	-0.08462006
96	0xbe033470	-0.12812972
97	0xbf807e40	-1.0038528
98	0xbd868bd1	-0.065696366
99	0x3eab455f	0.33451363
100	0x3d88dd70	0.06682861
101	0xbeaceb89	-0.3377345
102	0x3ec6f33a	0.38857442
103	0xbea70473	-0.32620582
104	0x3d4d8712	0.05017764
105	0xbe60700f	-0.21917747
106	0x3e8047f4	0.25054896
107	0xbf63c873	-0.88977736
108	0x3e9b8cb2	0.3038078
109	0x3ea70277	0.32619068
110	0xbe7e40c5	-0.24829395
111	0x3e79ef0c	0.24407595
112	0xbd700ec9	-0.05860785
113	0x3dd1a263	0.10236051
114	0x3eb24f3b	0.34826073
115	0xbe26d02c	-0.16290349
116	0xbc194f52	-0.00935729
117	0xbf6d6431	-0.92731005
118	0x3e89016b	0.26758894
119	0x3e8bd477	0.27310535
120	0x3e4ffd4b	0.20311467
121	0xbdb72dda	-0.08944292
122	0x3f585060	0.8449764
123	0xbe89eb55	-0.26937357
124	0xbecdaf28	-0.40172696
125	0xbdc11a6d	-0.094288684
126	0xbe92bbee	-0.28659004
127	0x3f22fcc6	0.6366695
128	0xbed2c16a	-0.41163188
129	0x3e31648b	0.1732351
130	0x3d56d286	0.052446865
131	0x3dd19860	0.10234141
132	0x3e4058ac	0.18783826
133	0xbd64084d	-0.05567198
134	0xbdaa2d3a	-0.083094075
135	0x3e1451a8	0.14484274
136	0xbeb2c985	-0.34919372
137	0xbf5d2f34	-0.8640015
138	0x3d9fd282	0.07803823
139	0xbeb9f7d5	-0.36321893
140	0xbe74b070	-0.2389543
141	0x3e0f1b93	0.13975362
142	0xbeac71e1	-0.33680633
143	0x3de522e2	0.11188294
144	0xbe88bc02	-0.2670594
145	0x3e6655ec	0.22493714
146	0x3e22fbef	0.15916418
147	0x3f74b856	0.95593774
148	0xbea35ad0	-0.31905222
149	0x3e763868	0.24044955
150	0x3e1f04eb	0.1552922
151	0x3ea1ed4b	0.31626353
152	0x3f26301e	0.6491717
153	0xbbdc80a4	-0.0067292023
154	0x3db3925f	0.087681524
155	0x3eacd4bc	0.33756053
156	0xbddd0e9f	-0.107938044
157	0x3f69e9d9	0.9137245
158	0xbddd7e04	-0.10815051
159	0x3dd360c3	0.1032119
160	0x3ea7c837	0.3276994
161	0x3d874375	0.06604663
162	0xbf65bb6d	-0.89739114
163	0xbd9bc19b	-0.07605287
164	0x3e2d0a56	0.16898474
165	0xbe30a6ce	-0.17251131
166	0xbdf46580	-0.11933422
167	0xbf171e6c	-0.59030795
168	0x3da4eda9	0.080531426
169	0x3e94f4c0	0.2909298
170	0x3d47bd1e	0.04876434
171	0x3e839c8f	0.25705382
172	0xbd81d6b2	-0.06339778
173	0x3e719512	0.23592022
174	0xbece4a01	-0.40290835
175	0xbe2f2b55	-0.17106374
176	0xbdf4f054	-0.119599015
177	0xbf29fcd7	-0.6640143
178	0xbea407da	-0.3203724
179	0x3e85f09a	0.26160127
180	0xbe580a52	-0.21097687
181	0x3e69f85c	0.22848648
182	0x3f0434f3	0.51643294
183	0x3d95e6ba	0.07319398
184	0xbe14e68d	-0.14541073
185	0x3dbdeef0	0.09274089
186	0xbe5650e2	-0.20929292
187	0x3ee00236	0.43751687
188	0x3e29ca45	0.16581066
189	0xbe0c5b74	-0.13706762
190	0xbe18af55	-0.14910634
191	0x3ea9a248	0.33131623
192	0xbf4ab696	-0.79184854
193	0x3ea16bbb	0.31527504
194	0x3dc74e27	0.09731703
195	0x3e7e9622	0.24861959
196	0xbe0e2c19	-0.1388401
197	0xbe135146	-0.14386472
198	0xbecbcb0e	-0.39803356
199	0xbe21ded0	-0.15807652
200	0x3e54e13f	0.2078905
201	0xbc207dfe	-0.009795664
202	0x3f20be2e	0.6279019
203	0xbecb954a	-0.39762336
204	0xbe6f507d	-0.23370548
205	0x3eaaa7c8	0.33331132
206	0xbe184d00	-0.14873123
207	0xbf5ab1a1	-0.8542729
208	0x3e803d7d	0.25046912
209	0xbec6bc17	-0.38815376
210	0xbca1814d	-0.019714976
211	0x3e9cf1f7	0.30653355
212	0xbef6de0b	-0.4821628
213	0x3c092e57	0.008372865
214	0xbd8a077a	-0.06739707
215	0x3e8aa8be	0.27081865
216	0xbe3e2f00	-0.18572617
217	0xbf41b7bf	-0.75671
218	0x3e262bba	0.16227618
219	0xbe8d9afa	-0.276573
220	0xbb79d298	-0.0038119908
221	0xbec94b87	-0.39315435
222	0x3f7318bc	0.94959617
223	0x3e03e5d4	0.12880641
224	0xbdb58617	-0.08863466
225	0x3ea235b5	0.316816
226	0x3e87d972	0.26533085
227	0xbf50a841	-0.81506735
228	0xbe8c9cf7	-0.27463505
229	0xbec77283	-0.38954553
230	0xba0cb309	-0.00053672545
231	0xbe8b7e1e	-0.27244657
232	0x3f801a5d	1.0008045
233	0x3e736098	0.23767316
234	0xbe600dcc	-0.21880263
235	0x3e9379f0	0.28803968
236	0xbea60676	-0.32426804
237	0x3edfdb65	0.43722072
238	0xbedddf22	-0.433343
239	0x3eb0ee8e	0.34557003
240	0xbeb2a4b8	-0.34891295
241	0x3e1c2951	0.15250136
242	0x3f217895	0.6307462
243	0xbed6b24a	-0.419329
244	0xbdfade87	-0.12249475
245	0xbdb69a91	-0.089162
246	0x3e34e158	0.17664087
247	0xbd2c345c	-0.04204212
248	0xbe4a5303	-0.19758229
249	0xbd8b26de	-0.06794523
250	0x3e8e288a	0.27765304
251	0xbe8dc729	-0.2769101
252	0xbf80f2b8	-1.0074072
253	0x3e43afbc	0.19110006
254	0x3e691543	0.22762017
255	0x3e92fb39	0.28707293

net.0.freq_scale.bias f4 [256]
0	0xbdbdbdad	-0.092646934
1	0xbe055e9d	-0.13024373
2	0xbcb47f3e	-0.02203333
3	0x3e859dce	0.26096958
4	0x3e84ee10	0.25962877
5	0xbe8a7865	-0.2704498
6	0xbdb2393d	-0.087023236
7	0xbdd652a9	-0.10464985
8	0xbe860c08	-0.26181054
9	0xbe0afd77	-0.13573252
10	0xbe6bad07	-0.23015223
11	0xbed9b2fc	-0.42519367
12	0x3edec4b5	0.4350945
13	0x3db1aacd	0.08675156
14	0x3edf196f	0.43574092
15	0xbdbe98d6	-0.09306495
16	0xbdb73588	-0.08945757
17	0x3db6f4d9	0.0893342
18	0x3ee0a596	0.43876332
19	0x3dae3f63	0.08508184
20	0xbe9caee5	-0.30602184
21	0xbedddabc	-0.43330944
22	0xbd861c51	-0.0654837
23	0xbe84017a	-0.25782377
24	0xbee0a6d8	-0.43877292
25	0x3e853b47	0.26021788
26	0xbdb2d6f5	-0.08732406
27	0x3d756876	0.059914075
28	0x3db337ea	0.08750899
29	0xbe869c24	-0.26291
30	0x3ed963e4	0.42459023
31	0x3e8989f9	0.26863077
32	0x3db20942	0.08693172
33	0xbe8b56aa	-0.27214557
34	0x3edfb81d	0.43695155
35	0xbec78159	-0.38965872
36	0xbe86c155	-0.26319376
37	0x3ecd5f4c	0.40111768
38	0x3d9cd6ad	0.07658134
39	0xbdb2c3aa	-0.08728726
40	0x3dac1b3a	0.084036306
41	0x3e78055c	0.24220794
42	0x3edb126f	0.427875
43	0x3ede8054	0.43457282
44	0x3d95d857	0.07316654
45	0xbd9ddc02	-0.07707979
46	0x3edc5280	0.43031693
47	0xbdb85125	-0.08999852
48	0x3d9305a7	0.071788125
49	0x3edf7c6e	0.4364962
50	0xbedf1730	-0.43572378
51	0xbed75999	-0.42060545
52	0xbe86de03	-0.26341256
53	0xbeadcfe8	-0.33947682
54	0xbe85ef93	-0.26159343
55	0x3d646f1a	0.055770017
56	0xbe940dea	-0.28916866
57	0xbe873b3f	-0.2641239
58	0x3e831fc0	0.2561016
59	0xbdb59b9d	-0.088675715
60	0x3ed88be6	0.42294234
61	0x3de3bf09	0.111204214
62	0xbda2af51	-0.07943595
63	0x3edf8d3f	0.4366245
64	0x3dab8ace	0.08376084
65	0x3e6c3dd9	0.23070468
66	0xbede2dff	-0.43394467
67	0x3ed67fc7	0.4189436
68	0x3d9e7211	0.077366
69	0x3edac5f8	0.42729163
70	0x3e761e3a	0.24034968
71	0xbdb2cdc8	-0.08730656
72	0x3ed4bdec	0.4155115
73	0xbe69121a	-0.22760811
74	0xbdb283b9	-0.0871653
75	0x3e817329	0.25283173
76	0x3e8698e3	0.26288518
77	0x3e86cb7c	0.2632712
78	0xbed2a471	-0.41141084
79	0x3d6094bb	0.05482934
80	0xbdaea6dc	-0.0852792
81	0xbde29ff5	-0.11065666
82	0x3e94a1c5	0.2902967
83	0xbddb4190	-0.107058644
84	0x3db0fee5	0.08642367
85	0x3dbb54ba	0.0914702
86	0xbe86f990	-0.26362276
87	0xbdc1c72d	-0.09461818
88	0xbe54788e	-0.20749113
89	0x3edf6c4c	0.4363731
90	0xbd969ce6	-0.07354145
91	0xbe9e7c73	-0.30954322
92	0x3db88ae2	0.09010865
93	0x3e9081e1	0.2822409
94	0xbe86f972	-0.26362187
95	0x3dba3809	0.09092719
96	0xbe8692ff	-0.26284024
97	0xbdb46b01	-0.08809472
98	0xbedd8f81	-0.43273547
99	0xbdb0b1a0	-0.08627629
100	0xbe191829	-0.14950623
101	0x3df179ee	0.11790834
102	0x3db88378	0.09009451
103	0xbe7326ca	-0.23745266
104	0xbde84190	-0.1134063
105	0xbe714a5e	-0.23563525
106	0x3e864de1	0.26231292
107	0x3db57e78	0.088620126
108	0x3da7a3c0	0.0818553
109	0x3db34eea	0.08755286
110	0xbe9a6337	-0.3015382
111	0x3edf22a9	0.4358113
112	0xbed4ed03	-0.41587076
113	0x3e6e1c96	0.23253092
114	0xbecbe599	-0.39823607
115	0xbe8c4459	-0.27395895
116	0xbea34b39	-0.31893328
117	0x3dbd7655	0.09251086
118	0x3dbbbcaa	0.09166844
119	0x3db9db04	0.09074977
120	0xbd9e5665	-0.07731322
121	0x3e827f88	0.25487924
122	0x3e7da915	0.24771531
123	0xbecd5dcb	-0.4011062
124	0x3d712c8d	0.058880378
125	0x3ec181c8	0.37794328
126	0x3e7badce	0.2457802
127	0x3dc26f74	0.09493914
128	0x3e23c97b	0.15994827
129	0xbdb13f09	-0.08654601
130	0x3e8f633f	0.28005406
131	0x3e894d33	0.2681671
132	0xbb89cc78	-0.004205283
133	0x3d5c95e1	0.053853873
134	0xbe8b8ccd	-0.2725586
135	0x3edeb802	0.43499762
136	0xbddc24f7	-0.10749238
137	0x3e2bee46	0.16790113
138	0x3eb92685	0.361622
139	0x3eb4e75d	0.35332766
140	0x3e997f70	0.2998004
141	0x3e9d09fd	0.30671683
142	0xbe89e181	-0.26929858
143	0x3e07a11a	0.13245049
144	0xbd9ddafb	-0.07707783
145	0xba8695a7	-0.0010267989
146	0xbb677cdd	-0.0035322227
147	0x3dcf2148	0.1011377
148	0x3de4dde0	0.11175132
149	0x3d2bea70	0.041971624
150	0xbde53fc8	-0.11193806
151	0x3a0ade7e	0.0005297436
152	0xb9d8f71b	-0.00041382838
153	0x3e9bc8b7	0.3042657
154	0x3e933580	0.28751755
155	0x3e56534b	0.20930211
156	0xbecbb65e	-0.39787573
157	0xbc274039	-0.010208183
158	0xbeb6bc9e	-0.35690778
159	0x3ca061c8	0.019577876
160	0xbbbf5e52	-0.0058401013
161	0xbe985604	-0.29753125
162	0x3eb0f9c3	0.34565553
163	0x3e92e0d9	0.2868717
164	0x3e06ba93	0.1315711
165	0x3e16a046	0.14709577
166	0xbe111ecf	-0.14171909
167	0x3e8504db	0.25980267
168	0x3da76af5	0.08174697
169	0xbd6e9aff	-0.058253285
170	0xbe9d0b46	-0.30672663
171	0xbe02c4a5	-0.12770326
172	0x3e4adfac	0.19811887
173	0x3ec6f843	0.38861284
174	0x3e440358	0.191419
175	0x3ecb00dd	0.39649096
176	0x3eb5fb35	0.35543218
177	0x3ee1c526	0.44095725
178	0x3dd7529d	0.10513804
179	0x3d6aef11	0.057356898
180	0xbdd5b750	-0.10435355
181	0x3e77fccc	0.24217528
182	0x3e7edd37	0.24889074
183	0x3ed7611e	0.42066282
184	0xbe8d7538	-0.27628493
185	0xbed35f34	-0.41283572
186	0xbcea2776	-0.02858327
187	0xbe4accba	-0.1980466
188	0xbe1f29db	-0.1554331
189	0xbd803c9e	-0.06261562
190	0xbdcf97bf	-0.10136365
191	0xbdce3749	-0.100691386
192	0x398820b7	0.00025964316
193	0x3edd276a	0.43194133
194	0xbe6d6be9	-0.23185696
195	0x3e02ba4a	0.12766376
196	0x3e989d4a	0.29807502
197	0x3e653d5f	0.22386692
198	0x3ece833b	0.40334496
199	0xbc0bc6ff	-0.008531331
200	0x3db7788b	0.089585386
201	0x3e28fcb1	0.16502644
202	0xbef86ae7	-0.4851906
203	0xbeae4356	-0.34035748
204	0x3d507558	0.050893158
205	0x3e18e511	0.14931132
206	0x3e76f6cd	0.24117585
207	0x3ec1a4d9	0.3782108
208	0xb9b63185	-0.0003475064
209	0x3de27b8c	0.11058721
210	0xbed94aa6	-0.42439765
211	0x3df8deb5	0.12151853
212	0xbebad2ec	-0.36489046
213	0xbeb6572a	-0.35613376
214	0x3e563998	0.20920408
215	0x3e7444c4	0.23854357
216	0x3e5f354b	0.21797673
217	0x3e52f351	0.2060063
218	0x3dfd0764	0.12354925
219	0xbdf50f58	-0.11965817
220	0x3dff5b94	0.12468639
221	0x3e8739d4	0.26411307
222	0x3cc395a0	0.023875058
223	0x3d8e9e3f	0.06963777
224	0xbf05b128	-0.52223444
225	0xbe95ebb6	-0.29281396
226	0x3b1f4c86	0.0024307086
227	0x3eb2b425	0.34903064
228	0x3e9a898b	0.30183062
229	0x3dcb75b4	0.099345595
230	0xbd3cec6b	-0.046123903
231	0x3e7336ce	0.23751375
232	0x38c151c5	9.218188e-05
233	0xbe97ca02	-0.29646307
234	0xbf019227	-0.50613636
235	0x3eb36e2f	0.35045
236	0xbd602f47	-0.054732587
237	0x3edb8035	0.42871252
238	0x3eb15737	0.34636852
239	0x3bfbb56a	0.0076815384
240	0xbdecee90	-0.1156894
241	0xbdb36ca1	-0.08760954
242	0xbebb9269	-0.3663514
243	0x3ecb299b	0.3968018
244	0x3e4597eb	0.19296233
245	0x3ed39ae5	0.41329113
246	0x3e5e07fc	0.21682733
247	0x3dbf3854	0.093369156
248	0xbda72dbb	-0.08163019
249	0xbe4d0f62	-0.200254
250	0xbe9352da	-0.28774148
251	0x3dc98c4b	0.09841212
252	0x3d9bafc7	0.07601886
253	0xbe238232	-0.15967634
254	0x3ecc8d7d	0.39951697
255	0xbe494902	-0.19656757

net.1.freq_scale.weight f4 [256, 128]
0	0xbba049ae	-0.004891596
1	0xbd4f77fd	-0.05065154
2	0x3d7f18cd	0.06227951
3	0x3d0e3fab	0.034728687
4	0x3d2271de	0.039659373
5	0xbd5b491b	-0.053536516
6	0x3d9421a0	0.07232976
7	0x3d2347a3	0.03986324
8	0xbc380943	-0.011232677
9	0x3d4b8447	0.049686696
10	0x3bc74379	0.0060810414
11	0x3d8570a4	0.06515625
12	0x3c984c26	0.018590998
13	0xbd1b1d42	-0.0378697
14	0x3dc89931	0.09794844
15	0xb86fc373	-5.7164067e-05
16	0xbd7671dd	-0.060167182
17	0x3c870cf0	0.016485661
18	0xbc8b22f0	-0.016984433
19	0x3db0079a	0.085952
20	0x3de3eac2	0.11128761
21	0xbd591820	-0.053001523
22	0xbd0433bf	-0.03227591
23	0xbd6dac36	-0.05802556
24	0x3d9f2285	0.07770256
25	0x3cfdab87	0.03096558
26	0xbcdfe2ed	-0.027329886
27	0x3dcf7334	0.10129395
28	0xbd904e2d	-0.07046161
29	0xbd5561ba	-0.052095152
30	0x3d85aa7e	0.065266594
31	0x3c57fdac	0.013183039
32	0x3d0d99ec	0.03457062
33	0xbc4dd3f1	-0.012562738
34	0x3d5d9c08	0.05410388
35	0xbb80defc	-0.003932832
36	0x3c5ae1e2	0.013359519
37	0x3b70099b	0.003662682
38	0xbd18c075	-0.037292916
39	0x3d9f7081	0.0778513
40	0x3dd4bff7	0.10388177
41	0xbddc0854	-0.10743776
42	0x3d86ba14	0.0657846
43	0xbd2a9560	-0.04164636
44	0x3d377149	0.04478577
45	0xbd52025a	-0.051271774
46	0x3d329f51	0.043608967
47	0xbd4e7234	-0.05040188
48	0x3ceed0a1	0.029152216
49	0x3d819b7a	0.06328483
50	0xbd7bb232	-0.061449237
51	0xbd355ede	-0.044279926
52	0xbd2832d0	-0.041064084
53	0x3dcf86b8	0.101331174
54	0x3dae4ceb	0.08510765
55	0xbd40a3ae	-0.047031097
56	0xbd461088	-0.04835561
57	0xbd82050a	-0.063486174
58	0x3d9144d7	0.07093208
59	0x3d67d7e0	0.05660236
60	0x3cc27319	0.023736523
61	0x3c8e482a	0.017368395
62	0xbd23ef8b	-0.040023368
63	0x3b5d4112	0.0033760709
64	0xbd34bd31	-0.04412574
65	0xbd8ae6a6	-0.06782274
66	0xbd69d860	-0.057091117
67	0xbb658421	-0.0035021382
68	0xbafa19b1	-0.0019081143
69	0x3d920020	0.0712893
70	0xbddcd8ba	-0.10783525
71	0x3da0b111	0.07846273
72	0xbd4a8d53	-0.049451184
73	0x3cab2c4a	0.020895142
74	0xbcbcf143	-0.023064261
75	0x3d6215e4	0.055196658
76	0xbd4005a1	-0.04688037
77	0x3bcaa97c	0.006184755
78	0xbcde6d05	-0.027151594
79	0x3de02c2c	0.10945925
80	0x3d736b21	0.059428338
81	0x3ce43d98	0.027861401
82	0x3c202f9d	0.009776977
83	0x3b6dcdf2	0.0036286083
84	0xbd4b9f07	-0.049712207
85	0xbd99fccf	-0.075189225
86	0x3dd7d790	0.10539162
87	0x3d830f3e	0.063993916
88	0xbc7798cf	-0.015112116
89	0xbd54a082	-0.051910885
90	0x3cf153dc	0.029458933
91	0x3cefd931	0.02927837
92	0x3d5c9571	0.053853456
93	0x3dab6ead	0.08370719
94	0x3dac8b94	0.0842506
95	0xbd9de989	-0.07710559
96	0x3d7b7116	0.061387144
97	0xbc91c028	-0.017791823
98	0xbd0af66b	-0.03392641
99	0x3d0e87f9	0.034797642
100	0x3c9e84bb	0.0193504
101	0xbc9c4037	-0.019073589
102	0xbd6c22e7	-0.057650473
103	0xbdc27d4c	-0.09496555
104	0x3c6f7a3b	0.014616544
105	0x3c887ee8	0.016662076
106	0xbd391e2c	-0.04519479
107	0x3cdd7e05	0.02703763
108	0x3d0ea325	0.034823555
109	0x3d49315b	0.049119335
110	0xbbd11cce	-0.0063816076
111	0xbd839fc9	-0.06426961
112	0xbd01bf47	-0.031676557
113	0x3cceac8a	0.025228757
114	0x3d7c3368	0.061572462
115	0x3d6a891d	0.057259668
116	0x3c32913e	0.010898886
117	0x3d067fac	0.0328366
118	0xbd9682fb	-0.07349201
119	0x3d0b520c	0.034013793
120	0xbcbacfe7	-0.022804214
121	0xbc3486d1	-0.011018471
122	0xbd636961	-0.05552042
123	0xbd376d81	-0.044782165
124	0x3c992147	0.018692626
125	0x3cab49cc	0.020909213
126	0xbd5cf660	-0.0539459
127	0xbd61ca2a	-0.05512444
128	0x3cd27c74	0.02569411
129	0xbd998cc9	-0.07497556
130	0x3cffee9e	0.031241711
131	0x3c90ddaa	0.017683823
132	0x3d013cfa	0.031552292
133	0x3d04bb4b	0.03240518
134	0x3d74321c	0.0596181
135	0xbd8dae3c	-0.06917998
136	0x3d7ee407	0.062229183
137	0xbd4df0cb	-0.050278466
138	0xbcaf9b46	-0.021436345
139	0x3d434479	0.047672722
140	0xbcfb992a	-0.030712683
141	0x3ccacb2f	0.024755089
142	0xbdaba480	-0.08380985
143	0xbdca2d4f	-0.09871923
144	0x3ca98512	0.020693336
145	0xbdb17ffc	-0.08666989
146	0x3d588536	0.052861415
147	0xbccf88cd	-0.025333786
148	0x3dde9a74	0.10869303
149	0xbd0df25b	-0.034654956
150	0x3d843f37	0.0645737
151	0x3c9b356a	0.018946368
152	0x3b1a84f9	0.0023577793
153	0xbdb3919c	-0.08768007
154	0xbda703b2	-0.08155002
155	0xbcce29ba	-0.025166381
156	0x3d9009dd	0.07033131
157	0x3c18a59e	0.00931683
158	0x3da7b571	0.08188904
159	0x3d69f292	0.0571161
160	0x3dbbc77e	0.091689095
161	0xbd5aaf48	-0.053389817
162	0x3b25c7dd	0.002529613
163	0xbb8dbdc6	-0.0043256013
164	0x3d2de65f	0.042456027
165	0xbcb50c99	-0.022100734
166	0x3c905dc5	0.017622838
167	0x3c6ee996	0.014582058
168	0xbd52a989	-0.051431213
169	0xbd03b809	-0.03215793
170	0x3d8d3cf3	0.06896391
171	0x3da31768	0.07963449
172	0x3dc43329	0.095800705
173	0x3db2b74e	0.08726369
174	0x3c0049a6	0.007830059
175	0xbd3cbdd4	-0.04607947
176	0xbd16c252	-0.036806412
177	0x3daec4ee	0.08533655
178	0xbd57e36a	-0.052707113
179	0x3ce21a2b	0.027600368
180	0x3d2a0373	0.041507196
181	0x3de4bc0b	0.11168679
182	0xbcc04293	-0.023469245
183	0xbd0f42f5	-0.034975965
184	0xbd2cb04c	-0.042160317
185	0xbd14403b	-0.036194067
186	0x3c835f64	0.016036697
187	0x3d09e419	0.033664797
188	0xbd4eda5c	-0.050501212
189	0xbdaeb809	-0.08531196
190	0xbcf32b4d	-0.029683733
191	0x3dc296b3	0.095014
192	0x3cdc035f	0.026857076
193	0xbd07d7de	-0.03316485
194	0xbd4f79b6	-0.050653182
195	0x3da63b97	0.081168346
196	0xbd3d7c03	-0.046260845
197	0x3d9a4dc3	0.07534363
198	0xbd8b8e78	-0.06814283
199	0xbd540a27	-0.051767495
200	0x3d4020c5	0.04690625
201	0x3d505c4c	0.05086927
202	0x3c4a8f66	0.01236329
203	0xbd46ffc2	-0.048583753
204	0x3d281b3e	0.041041605
205	0xbd3b0771	-0.045661394
206	0x3d57600f	0.052581843
207	0xbbc35254	-0.005960742
208	0xbd249a3d	-0.040186156
209	0xbda411d8	-0.08011216
210	0x3dbd4449	0.0924154
211	0xbd65a82b	-0.05606858
212	0xbd4a3f38	-0.049376696
213	0xbd9f7d7e	-0.077876076
214	0x3c2cf35e	0.01055607
215	0xbc175046	-0.009235447
216	0xbdf50714	-0.11964241
217	0xbd63d6f5	-0.05562492
218	0xbce22831	-0.027607055
219	0x3d19b6da	0.037527896
220	0xbdfe9035	-0.12429849
221	0x397842b8	0.00023675978
222	0xbd8f2663	-0.069897436
223	0x3d815333	0.06314697
224	0xbd90edb6	-0.0707659
225	0x3da5492d	0.08070598
226	0x3d5ea3b7	0.05435535
227	0xbd6225e0	-0.0552119
228	0xbcf5299c	-0.029927067
229	0xbd8d788e	-0.069077596
230	0x3cf32bf3	0.029684043
231	0xbceef5b4	-0.029169895
232	0xbd99a0e3	-0.0750139
233	0xbdcd1d31	-0.100153334
234	0xbc6f8ed6	-0.014621457
235	0x3d91dfd4	0.0712277
236	0x3d05c103	0.032654773
237	0xbd9843b0	-0.07434785
238	0xbc8d08b3	-0.017216062
239	0x3da05c1e	0.0783007
240	0xbcb7ea3a	-0.022450555
241	0x3b8d806b	0.004318287
242	0x3dd0b578	0.101908624
243	0x3d1ddf6a	0.038543142
244	0x3d395ecf	0.045256432
245	0xbcadd1bd	-0.021218175
246	0x3d3b6423	0.045749795
247	0x3d70e1c9	0.058809076
248	0x3da2e6bb	0.079541646
249	0x3c34e11d	0.011039999
250	0xbcccc069	-0.024994092
251	0x3bca57a5	0.006174999
252	0x3d8e8806	0.06959538
253	0x3dae65ca	0.085155085
254	0xbd32f799	-0.04369316
255	0x3c807df3	0.015685057

net.1.freq_scale.bias f4 [256]
0	0x3d98f427	0.07468443
1	0xbc0cbd45	-0.008590047
2	0x3b84910c	0.0040456112
3	0xbe02c280	-0.12769508
4	0x3cbd56d3	0.02311269
5	0xbd25585a	-0.04036746
6	0xbd8f144f	-0.069862954
7	0x3bdc1ef1	0.0067175557
8	0xbd9e7a4b	-0.07738169
9	0xbc7cece8	-0.015437342
10	0x3d939998	0.0720703
11	0x3c872be3	0.016500419
12	0x3c311219	0.0108075375
13	0xbd34b627	-0.044119027
14	0xbd77885a	-0.06043277
15	0xbd725983	-0.059167396
16	0x3d1023a9	0.03519026
17	0xbcc77bdc	-0.024351053
18	0xbd8560dc	-0.06512615
19	0xbd37b1f3	-0.04484744
20	0x3d7df550	0.062001526
21	0x3d8d6396	0.0690376
22	0xbd69196d	-0.056909014
23	0x3d5c5761	0.05379427
24	0x3d71ceca	0.0590351
25	0x3c7f7e59	0.0155940885
26	0xbc073578	-0.008252494
27	0xbda5ecbf	-0.08101796
28	0xbdcea158	-0.10089368
29	0x3df0db07	0.11760526
30	0xbd0800d6	-0.033203922
31	0xbd991f16	-0.07476632
32	0x3baf0ba1	0.0053419624
33	0x3d028ead	0.031874347
34	0x3d950c48	0.07277733
35	0xbde92943	-0.11384823
36	0xbc78c8e0	-0.015184611
37	0xbdc18ab2	-0.09450282
38	0xbbe0781b	-0.006850255
39	0x3db6e2ad	0.08929954
40	0xbce6aeb7	-0.028159482
41	0xbd46f4e2	-0.048573382
42	0xbd13e043	-0.036102545
43	0x3d1d401f	0.03839123
44	0xbd9e91d4	-0.07742658
45	0xbd9d905b	-0.07693549
46	0x3ad06b9f	0.0015901214
47	0x3b27e945	0.0025621217
48	0x3d6ebbea	0.058284678
49	0xbb9801e4	-0.0046388973
50	0xbdda573b	-0.10661169
51	0x3da1b315	0.07895485
52	0xbdab297b	-0.08357521
53	0xbe1f69f3	-0.1556776
54	0x3de112fd	0.1098995
55	0xbe14c7fa	-0.1452941
56	0xbd8905a5	-0.0669053
57	0xbe0a9552	-0.13533524
58	0x3e05ff4a	0.13085666
59	0x3d7a3b0e	0.061091475
60	0x3cbbb2d2	0.022912417
61	0x3d1ce869	0.03830758
62	0xbdda7920	-0.10667634
63	0x3dda621f	0.10663246
64	0x3d26d2ac	0.040728256
65	0x3c39ed4c	0.01134808
66	0x3ca32bc6	0.019918334
67	0xbcd4aae1	-0.025960388
68	0x3d9881ae	0.074466094
69	0xbce85cf6	-0.02836464
70	0x3c7c7f61	0.015411229
71	0xbdee7b1b	-0.11644574
72	0x3d68e808	0.056861907
73	0x3d1672c9	0.03673056
74	0xbc810819	-0.015750932
75	0x3c63e38e	0.013909234
76	0xbd47a6fb	-0.04874323
77	0xbd7dc12a	-0.061951794
78	0x3d49dc39	0.049282286
79	0xbd41ffd4	-0.047363117
80	0x3c23eaac	0.010004681
81	0xbca4b06a	-0.020103652
82	0x3c809c3f	0.015699504
83	0x3c08b3b1	0.008343623
84	0xbd948b66	-0.07253151
85	0x3cd3eb04	0.0258689
86	0xbcac65bd	-0.021044606
87	0x3dadcd05	0.0848637
88	0xbd87be00	-0.066280365
89	0xbcabfe89	-0.020995395
90	0x3c7ddcc8	0.015494533
91	0x3db0c8ef	0.08632075
92	0xbca20c88	-0.019781366
93	0x3ce8a578	0.028399214
94	0xbdc0d18a	-0.094149664
95	0xbe0c0787	-0.13674746
96	0xbc6c8e23	-0.014438185
97	0x3cdc45a2	0.026888672
98	0xbd088576	-0.033330403
99	0xbd35deef	-0.04440206
100	0x3ba0f1d9	0.004911643
101	0x3dc3d1e3	0.09561517
102	0xbce47b2b	-0.027890762
103	0xbe071eec	-0.1319539
104	0x3d9730c5	0.07382349
105	0x3ccefa2d	0.025265777
106	0x3d7446de	0.059637897
107	0x3c4b3761	0.01240334
108	0xbd9ae9fb	-0.075641595
109	0x3d363f46	0.044493936
110	0x3df0bb8e	0.11754523
111	0xbdadc24d	-0.084843256
112	0xbd7e06c9	-0.06201819
113	0xbc844f4e	-0.016151097
114	0x3cead8bf	0.028667806
115	0xbd886e68	-0.06661683
116	0xbc0428da	-0.00806638
117	0xbcb8526f	-0.022500245
118	0xbd64267d	-0.055700768
119	0xbc32451e	-0.010880737
120	0x3d8b29d6	0.06795089
121	0xbdadd988	-0.084887564
122	0xbd8993f3	-0.06717672
123	0x3df974be	0.1218047
124	0x3de6f387	0.11276918
125	0x3da26328	0.07929069
126	0x3cb065d4	0.02153293
127	0xbd3df6c1	-0.0463779
128	0xbda967aa	-0.082717255
129	0x3db5b5be	0.08872555
130	0xbd4b6259	-0.04965434
131	0x3e0151ef	0.12628911
132	0x3cb7f214	0.022454299
133	0x3c03ff1a	0.008056426
134	0x3cdea557	0.02717845
135	0xbcb15418	-0.021646544
136	0x3c3804e9	0.011231639
137	0x3cd45652	0.025920067
138	0xbda0fa40	-0.078602314
139	0x3d76cf5c	0.060256347
140	0x3dd09c31	0.10186041
141	0x3c3c6c13	0.011500376
142	0xbd9e87f9	-0.077407785
143	0x3cf44367	0.029817296
144	0xbddba6cc	-0.10725173
145	0x3c5e429b	0.013565685
146	0x3d8e2840	0.06941271
147	0x3d4745de	0.048650615
148	0x3ceee7a9	0.029163199
149	0xbc5794b6	-0.013158014
150	0x3dc10ef3	0.094266795
151	0x3e02fa61	0.12790824
152	0x3bd46b51	0.0064825197
153	0xbd1e570f	-0.038657244
154	0x3e112917	0.14175831
155	0x3d2e1d02	0.042508133
156	0x3c916c8c	0.017751954
157	0x3dac3d2e	0.084101066
158	0x3c8a64bb	0.016893735
159	0xbd9a8b35	-0.07546083
160	0x3c760f35	0.015018274
161	0xbd58ccc3	-0.05292965
162	0xbbb630f6	-0.005560036
163	0x3bfa2ccc	0.0076347347
164	0x3db9e4df	0.09076857
165	0xbc71b8dd	-0.0147535475
166	0xbcafb89d	-0.021450335
167	0x3b8f36ce	0.004370547
168	0x3cc19d2e	0.02363452
169	0xbde264ec	-0.110544056
170	0xbc2f4b02	-0.010699036
171	0xbdfd8e12	-0.123806134
172	0x3c34bfe2	0.011032077
173	0xbc4653f7	-0.01210498
174	0xbbea9573	-0.007158929
175	0x3da04ece	0.07827531
176	0x3d9d2354	0.07672754
177	0xbcee09fd	-0.029057497
178	0xbe1e3be0	-0.15452528
179	0xbdf492ab	-0.11942037
180	0x3df299f9	0.11845774
181	0x3dc0dd65	0.09417228
182	0xbdae1318	-0.084997356
183	0xbdc44dfd	-0.095851876
184	0xbde86bd4	-0.113486916
185	0x3c8f13ac	0.017465435
186	0xbe090a57	-0.1338285
187	0xbd1e532c	-0.038653538
188	0xbd74d8d6	-0.059777103
189	0x3dda6d5b	0.10665389
190	0xbd550b2e	-0.052012615
191	0x3db45154	0.088045746
192	0x3c64cc98	0.013964795
193	0xbd25cdf9	-0.040479634
194	0x3dbe6b17	0.092977695
195	0x3cd1313c	0.025536172
196	0x3ca550c8	0.020180121
197	0xbe09addb	-0.13445227
198	0xbc44c7c6	-0.01201052
199	0xbb164a69	-0.0022932536
200	0xbdbc41a1	-0.09192205
201	0xbe0fa7a9	-0.14028801
202	0x3d874663	0.06605222
203	0xbd19499f	-0.037423726
204	0xbd8a5294	-0.06754032
205	0x3df42dd7	0.11922806
206	0xbc985056	-0.018592995
207	0xbe16ab47	-0.14713775
208	0xb760da90	-1.34023285e-05
209	0x3d03faad	0.032221485
210	0xbd9b88c0	-0.07594442
211	0x3b76535f	0.0037586314
212	0x3dc8c743	0.09803631
213	0x3d126708	0.03574279
214	0x3e0a53bd	0.13508506
215	0x3c305108	0.010761507
216	0x3da7b95a	0.0818965
217	0x3e0a559d	0.13509221
218	0xbde18632	-0.11011924
219	0xbddfa6eb	-0.10920509
220	0xbe04df49	-0.12975802
221	0x3e0c0c88	0.13676655
222	0x3deae9f4	0.11470404
223	0x3c7b2a2f	0.015329882
224	0xbd9332ab	-0.071873985
225	0x3d5368dc	0.051613674
226	0xbd3a60f7	-0.04550263
227	0xbd1182bd	-0.035525072
228	0x3e01d61a	0.1267933
229	0xbac4d89d	-0.0015018169
230	0xbd99a0b9	-0.075013585
231	0xbc355d75	-0.011069645
232	0x3df18f3b	0.11794897
233	0x3d4e32ba	0.050341345
234	0x3deb2385	0.11481384
235	0xbc13aa2a	-0.009012738
236	0xbd6a3d3c	-0.057187304
237	0xbcabc68e	-0.020968702
238	0x3de88f96	0.11355512
239	0xbd2f075c	-0.042731628
240	0xbe06253e	-0.13100144
241	0x3acf7506	0.0015827722
242	0xbdc1b8a1	-0.09459043
243	0x3c084b0b	0.008318673
244	0x3d35929f	0.044329282
245	0x3d4ac26e	0.04950183
246	0x3e0af430	0.13569713
247	0x3d9affc2	0.07568313
248	0xbd4811c7	-0.04884508
249	0x3dff55fc	0.12467572
250	0xbe10220e	-0.14075491
251	0xbe0e4622	-0.13893941
252	0x3c85c637	0.016329868
253	0x3df1d46b	0.11808094
254	0xbc0d9cdb	-0.008643354
255	0xbd938790	-0.07203591

net.2.freq_scale.weight f4 [256, 128]
0	0xbdd65c24	-0.10466793
1	0xbd1b21bd	-0.037873972
2	0xbc4acc4d	-0.012377811
3	0xbd98858d	-0.07447348
4	0xbdb3b703	-0.08775141
5	0x3d8f5423	0.0699847
6	0x3d8bc645	0.06824926
7	0x3d2af7f8	0.041740388
8	0xbd4ccb47	-0.049998548
9	0xbc31d5b8	-0.010854177
10	0xbce8ca09	-0.02841665
11	0xbe033e69	-0.12816776
12	0xbce95937	-0.028484924
13	0x3c50926d	0.012730223
14	0xbd16811e	-0.03674423
15	0xbd13c9fe	-0.036081307
16	0xbd4eaf79	-0.050460313
17	0xbc9c024b	-0.019044062
18	0xbd94d470	-0.07267082
19	0x3cb0f583	0.021601444
20	0xbdc72e3c	-0.097256154
21	0xbe24fb85	-0.16111572
22	0x3d2dac72	0.042400785
23	0xbd942efc	-0.07235524
24	0xbda3573b	-0.07975622
25	0xbd52cee7	-0.05146685
26	0xbccc59a6	-0.024945091
27	0xbd26c5bf	-0.04071593
28	0x3c82b5ef	0.015955893
29	0xbd061b7c	-0.032741055
30	0x3d6d8c54	0.057995155
31	0xbd019c60	-0.03164327
32	0xbdb91f1c	-0.09039137
33	0xbdb320ad	-0.08746467
34	0xbdeeb649	-0.11655862
35	0xbcde2472	-0.027116988
36	0x3c7b9b08	0.015356787
37	0x3d76b3e9	0.06023017
38	0x3d6eebf1	0.05833048
39	0x3cf29885	0.029613743
40	0xbdb1e19c	-0.0868561
41	0x3d362512	0.044468947
42	0x3d20aa62	0.03922499
43	0x3d99cc71	0.07509697
44	0xbe1daafd	-0.15397258
45	0xbbabeaf1	-0.005246513
46	0x3d45e9a4	0.04831852
47	0xbd6b6c2c	-0.057476208
48	0x3d1cb3a9	0.038257275
49	0xbc32f559	-0.010922753
50	0x3d8e33c0	0.06943464
51	0x3d4dd00e	0.050247245
52	0x3d474cd0	0.04865724
53	0xbd532684	-0.051550403
54	0x3da1df41	0.079039104
55	0xbd9198de	-0.07109235
56	0xbd89f543	-0.06736233
57	0x3d4babb1	0.049724285
58	0x3b64e958	0.0034929123
59	0xbd60ea8b	-0.054911178
60	0x3d0b68f3	0.034035634
61	0x3c672fc7	0.014110512
62	0x3d952def	0.07284152
63	0x3d40bfb7	0.047057834
64	0x3c1ad161	0.009449334
65	0xbe0d1218	-0.13776433
66	0xbc6b1463	-0.014348122
67	0xbdf47098	-0.11935538
68	0x3c82d1cf	0.015969185
69	0xbcd26600	-0.025683403
70	0x3d45b048	0.048263818
71	0x3d18bc7f	0.03728914
72	0xbce2ef0e	-0.02770188
73	0xbd85d98a	-0.06535633
74	0xbbe42666	-0.0069625853
75	0xbda92541	-0.08259059
76	0x3cb4454e	0.022005703
77	0xbceb4534	-0.028719522
78	0xbda750e7	-0.08169728
79	0xbd9fb995	-0.07799069
80	0xbd5884cf	-0.05286103
81	0x3c6c401f	0.014419585
82	0xbdc5901b	-0.096466266
83	0xbdbca003	-0.09210207
84	0xbd3f2893	-0.046669554
85	0xbda4bc06	-0.08043675
86	0xbca2ccfe	-0.019873139
87	0xbdbe733e	-0.092993245
88	0xbd049531	-0.032368843
89	0x3d1ad99e	0.037805192
90	0xbd960f13	-0.07327094
91	0xbd2668d5	-0.04062732
92	0x3c9b11b0	0.018929332
93	0x3d5e67b1	0.054298107
94	0xbd2aaf26	-0.04167094
95	0x3c9d3183	0.019188648
96	0xbdab8d7c	-0.083765954
97	0x3c8ff11a	0.01757102
98	0xbdf269e2	-0.11836602
99	0x3cd8954f	0.026438383
100	0x3cfa1f0c	0.030532382
101	0xbd2a33c8	-0.04155329
102	0x3d3b9deb	0.0458049
103	0xbd08406a	-0.033264555
104	0xbda9bb6c	-0.08287701
105	0x3c960ed0	0.01831761
106	0xbd23edeb	-0.040021818
107	0xbb472140	-0.0030384809
108	0xbd131b93	-0.03591497
109	0xbd195d82	-0.03744269
110	0xbd5077b1	-0.050895397
111	0x3d393802	0.04521943
112	0xbd440494	-0.04785593
113	0xbd0be476	-0.034153424
114	0xbd7e73ab	-0.06212203
115	0xbdd70157	-0.104983024
116	0xbe08e303	-0.13367848
117	0xbdab6166	-0.08368187
118	0x3d8da7bf	0.06916761
119	0xbd631982	-0.055444248
120	0x3c192562	0.009347292
121	0xbdcc07f8	-0.099624574
122	0xbc67015f	-0.014099448
123	0x3d5b1d05	0.053494472
124	0xbda9e85f	-0.082962744
125	0x3c93d36d	0.018045152
126	0xbdb4b363	-0.08823278
127	0x3d8bc751	0.06825126
128	0x3dba5eea	0.09100135
129	0xbd658db9	-0.05604336
130	0x3bc624ef	0.0060468833
131	0xbd18c2f0	-0.037295282
132	0xbd355b8b	-0.044276755
133	0xbbcd04d6	-0.00625668
134	0xbd9cd289	-0.07657344
135	0xbd248778	-0.040168256
136	0xbd74cf5e	-0.059768073
137	0x3d11272b	0.035437744
138	0xbd466a84	-0.048441425
139	0x3e07fe65	0.13280638
140	0x3dadee7b	0.08492752
141	0x3d2d062e	0.04224222
142	0x3c8c1d31	0.017103763
143	0xbca64468	-0.02029629
144	0x3c910c5d	0.01770609
145	0x3c3117de	0.010808913
146	0xbce99479	-0.02851318
147	0xbd1253e8	-0.03572455
148	0x3c48dbee	0.012259467
149	0xbd513222	-0.0510732
150	0x3d96a33a	0.07355352
151	0xbd0cbbb5	-0.0343587
152	0xbd7014bc	-0.058613524
153	0xbd67c9b9	-0.056588862
154	0x3c85d5e9	0.016337352
155	0x3d7934c9	0.060841355
156	0x3dea4a39	0.11439938
157	0x3c7aec42	0.015315117
158	0xbd1364bb	-0.035984736
159	0x3d5acb65	0.05341663
160	0xbd6b3a7f	-0.057428833
161	0x3d8f747f	0.07004642
162	0xbc090d48	-0.008364983
163	0x3da183e3	0.078864835
164	0x3d79683c	0.06089042
165	0x3c466001	0.01210785
166	0x3d13fc15	0.036129076
167	0x3db425e8	0.087962925
168	0x3d404533	0.046940994
169	0x3dce5e74	0.10076609
170	0xbd9c4c83	-0.07631781
171	0x3d74beca	0.059752263
172	0x3d92b116	0.07162683
173	0xbda21c3b	-0.07915541
174	0x3d651c06	0.05593493
175	0x3dccc524	0.09998539
176	0x3ddf16e5	0.10893039
177	0x3c56faad	0.013121289
178	0xbd2282ed	-0.03967564
179	0xbc81ae1b	-0.01583009
180	0x3cb85ebd	0.022506112
181	0x3d719fd7	0.058990326
182	0xbc91759a	-0.017756272
183	0x3d15d23b	0.036577445
184	0xbce259c0	-0.027630687
185	0x3c288394	0.010285277
186	0xbccad3d3	-0.024759209
187	0xbce679a9	-0.028134184
188	0xbcdf6277	-0.027268631
189	0x3d8d4a95	0.06898991
190	0xbd51ef4a	-0.051253594
191	0x3d048a8f	0.032358702
192	0x3bf2a4a0	0.0074048787
193	0xbb868266	-0.0041049
194	0x3dadf28e	0.08493529
195	0x3dec9a09	0.115528174
196	0xba9960c3	-0.0011701811
197	0xbd6ad9fb	-0.05733679
198	0xbd95c886	-0.073136374
199	0xbc70b64d	-0.014691901
200	0x3d6d4cbf	0.05793452
201	0xbd996060	-0.07489085
202	0x39d1c575	0.00040010703
203	0x3c4833e2	0.012219401
204	0x3b8c90c5	0.004289719
205	0x3d627393	0.055286
206	0xbd43a811	-0.047767702
207	0xbd25f4dd	-0.040516723
208	0x3d4abaf0	0.049494684
209	0xbda7037b	-0.08154961
210	0xbc55cf12	-0.013049858
211	0x3d18f867	0.03734627
212	0x3d083b4c	0.033259675
213	0xbd1ee5ef	-0.0387935
214	0x3d88c136	0.06677477
215	0xbc7def79	-0.015498989
216	0x3d3135f2	0.043264337
217	0xbd54583b	-0.051841956
218	0x3c6cbe89	0.014449724
219	0x3d1d268f	0.03836685
220	0xbc9dcf66	-0.019263934
221	0xbcde409f	-0.027130423
222	0xbc675ae9	-0.014120796
223	0xbd35d782	-0.044394977
224	0x3d14845d	0.036259044
225	0x3dd791ac	0.105258316
226	0x3d7cb228	0.06169334
227	0xbb9c8e41	-0.0047777
228	0x3dc11540	0.09427881
229	0x3d7d70f0	0.061875284
230	0xbd0823c1	-0.033237223
231	0xbbdd5047	-0.0067539546
232	0x3d390007	0.04516604
233	0xbcd4966e	-0.025950637
234	0x3d4326aa	0.047644295
235	0xbd8da919	-0.069170184
236	0xbd14be16	-0.036314093
237	0x3db1cc11	0.08681501
238	0x3d13b47d	0.0360608
239	0xbcd0e115	-0.025497952
240	0xbd85845c	-0.06519386
241	0xbae39e2c	-0.0017365864
242	0x3cfedd41	0.031111361
243	0x3d718076	0.0589604
244	0x3dca9086	0.09890847
245	0x3d9500a8	0.07275516
246	0x3db9bb17	0.09068888
247	0xbcd79f0a	-0.026320953
248	0x3d95d213	0.07315459
249	0x3dd6ae28	0.104824364
250	0x3d121e6b	0.03567354
251	0x3bb94158	0.0056535415
252	0x3cf0a937	0.029377563
253	0xbb2fc4df	-0.0026820225
254	0x3dd8ad16	0.105798885
255	0xbd5da72f	-0.054114517

net.2.freq_scale.bias f4 [256]
0	0xbcc1588d	-0.023601795
1	0x3c1a6b92	0.009425061
2	0x3e089d2c	0.13341206
3	0xbbcb926a	-0.0062125223
4	0x3d608d81	0.05482245
5	0x3db98841	0.090591915
6	0x3e0a75c5	0.13521488
7	0xbd440eda	-0.047865726
8	0xbc3bca88	-0.011461861
9	0x3ddc7edc	0.10766384
10	0xbd3c81ff	-0.04602241
11	0x3e013eb7	0.1262158
12	0x3da6d687	0.081463866
13	0x3dc1e410	0.094673276
14	0xbd284e89	-0.041090522
15	0x3db590fe	0.08865546
16	0xbc624894	-0.013811249
17	0xbdc7fe0f	-0.09765255
18	0xbc017d73	-0.007903445
19	0xbd9c9101	-0.07644845
20	0xbdd08760	-0.10182071
21	0x3e01762b	0.12642734
22	0x3b19763b	0.0023416418
23	0xbdf73f47	-0.12072616
24	0x3e1e6cf4	0.1547125
25	0xbddd21c1	-0.10797454
26	0xba494dac	-0.00076791155
27	0xbdbce54a	-0.09223421
28	0xbd9168cf	-0.07100069
29	0x3da1036c	0.07861981
30	0x3df7846a	0.12085803
31	0xbdd2b2ae	-0.10287987
32	0x3b062f06	0.0020474805
33	0x3dcb37d0	0.09922755
34	0xbd2f3be4	-0.042781726
35	0xbde0d141	-0.10977412
36	0x3d9ecc60	0.07753825
37	0xbd8fe0b8	-0.070252836
38	0xbd8bb8b7	-0.06822341
39	0x3e06dfae	0.13171265
40	0x3d5a945f	0.053364154
41	0xbdd0fee4	-0.102048665
42	0xbb1a2769	-0.0023522025
43	0x3bab5298	0.005228352
44	0xbaca8823	-0.0015451949
45	0x3d3c3c71	0.04595608
46	0x3c107c0c	0.008818638
47	0xbdb41959	-0.08793897
48	0xbbeabdf6	-0.0071637584
49	0xbd9445fc	-0.07239911
50	0xbc2d8b12	-0.010592239
51	0x3e1d44fa	0.15358344
52	0xbdd565c8	-0.10419804
53	0xbd23c2e5	-0.039980788
54	0xbd0057ba	-0.031333663
55	0x3e0e2e54	0.1388486
56	0x3c74c567	0.0149396425
57	0xbc07a8e8	-0.0082800165
58	0x3e0f0551	0.13966872
59	0x3d04215b	0.032258373
60	0xbda21eaf	-0.07916009
61	0x3dd44d6c	0.103663296
62	0x3d4d67c6	0.050147794
63	0xbda389d8	-0.07985276
64	0x3d85940a	0.06522377
65	0x3d5b493e	0.053536646
66	0x3c941fdc	0.018081598
67	0xbd247444	-0.040149942
68	0xbcad2d6a	-0.02113982
69	0xbdd09e7b	-0.10186478
70	0xbd6ba5cb	-0.05753116
71	0xbc410837	-0.011781744
72	0x3de9a7b9	0.11408944
73	0x3d82d112	0.06387533
74	0xbd51f7e0	-0.051261783
75	0x3d99b461	0.07505108
76	0xbd167501	-0.036732677
77	0xbde8b77d	-0.113631226
78	0x3bd5294c	0.006505167
79	0xbd270ac7	-0.040781762
80	0xbdb22bd7	-0.08699768
81	0xbdd4afab	-0.103850685
82	0xbd11cb98	-0.035594553
83	0x3d759915	0.059960444
84	0x3c93277d	0.017963165
85	0x3dc304bb	0.09522387
86	0x3e1e5921	0.15463687
87	0xbde124cc	-0.109933466
88	0xbc8d6f7b	-0.017265072
89	0x3d712fc4	0.058883443
90	0x3c378cdc	0.011203017
91	0xbda8a5df	-0.082347624
92	0xbdc534f1	-0.096292384
93	0xbdb27de7	-0.0871542
94	0xbd4cb47c	-0.04997681
95	0x3d17b3cb	0.0370367
96	0xbd748a06	-0.059701942
97	0xbc1692dc	-0.009190287
98	0x3b760620	0.0037540272
99	0xbd3cbe0f	-0.04607969
100	0xbd16c1a4	-0.036805764
101	0xbde82119	-0.11334438
102	0xbdada98c	-0.08479604
103	0x3dfe47c0	0.12416029
104	0xbca2c5f8	-0.01986979
105	0xbba056f9	-0.0048931804
106	0x3d3ef77a	0.04662273
107	0x3c90e67a	0.017688025
108	0x3e1c70bb	0.15277378
109	0xbd986914	-0.07441917
110	0x3cc3a2ab	0.023881277
111	0x3df9c4eb	0.12195762
112	0xbe2105e3	-0.15724902
113	0xbaff1997	-0.0019462582
114	0x3df7920f	0.12088405
115	0x3dfaaea4	0.12240341
116	0xbcf7464b	-0.030184885
117	0x3e24931f	0.16071747
118	0xbc3488a9	-0.01101891
119	0x3d00b8b8	0.03142616
120	0x3e028989	0.12747778
121	0xbd9a0203	-0.07519915
122	0xbd6b03f4	-0.057376817
123	0x3d9fb002	0.07797243
124	0xbdb56921	-0.088579424
125	0x39ddd6e3	0.00042312508
126	0xbd533a1f	-0.0515691
127	0xbc56025d	-0.013062087
128	0xbdf83a5d	-0.12120507
129	0x3cedd478	0.029031977
130	0x3d5f4218	0.05450639
131	0xbdc61300	-0.09671593
132	0xbdd85625	-0.10563306
133	0x3dda689d	0.10664485
134	0x3b8c2f32	0.004278087
135	0xbe04b4fb	-0.12959664
136	0xbd8b2fe4	-0.06796244
137	0x3c862bd9	0.01637833
138	0x3ad7c826	0.0016462847
139	0x3b5aa900	0.0033364892
140	0xbddb27d8	-0.10700959
141	0xbbcfec12	-0.0063452804
142	0xbd77405f	-0.060364123
143	0x3ddae387	0.10687929
144	0x3d88eeed	0.066861965
145	0x3dca1a81	0.098683365
146	0x3dbdc31c	0.0926573
147	0x3cd7f48e	0.02636173
148	0x3d29a48d	0.041416693
149	0x3e14507d	0.14483829
150	0x3da3f19c	0.08005068
151	0x3b386c33	0.0028140664
152	0xbdcc55df	-0.09977316
153	0x3db60920	0.08888459
154	0xbe08254b	-0.13295476
155	0x3c623b47	0.013808078
156	0xbd70930b	-0.05873398
157	0x3d0448e7	0.032296088
158	0xbe0ccbb7	-0.13749586
159	0x3dc5edf7	0.09664529
160	0x3da6fb1d	0.08153365
161	0x3d84a551	0.06476844
162	0x3daeb345	0.08530287
163	0x3e024c8f	0.12724517
164	0x3da55618	0.08073062
165	0xbd157442	-0.036487825
166	0x3d82f370	0.06394088
167	0xbd14a369	-0.036288653
168	0xbce9f965	-0.028561303
169	0xbb36fb67	-0.0027920844
170	0xbd315817	-0.0432969
171	0x3e013535	0.12617953
172	0x3d5a709d	0.053330053
173	0xbd7d9d25	-0.061917443
174	0x3dca3455	0.09873263
175	0xbdb68ba5	-0.08913354
176	0x3aa28ae4	0.0012401012
177	0x3dc5dc5c	0.09661171
178	0xbde831d8	-0.11337632
179	0xbd89daa3	-0.06731155
180	0xbdb2e819	-0.08735675
181	0xbd0e1ee8	-0.034697443
182	0xbb82f291	-0.0039962013
183	0x3d8b22bb	0.06793734
184	0xbc8a080c	-0.01684954
185	0x3ca6af18	0.020347163
186	0xbc68050c	-0.0141613595
187	0x3cc183fe	0.02362251
188	0xbdf010df	-0.11721968
189	0x3e00abc4	0.12565523
190	0x3d71662c	0.05893533
191	0x3dd672ae	0.10471092
192	0xbd5199c6	-0.05117204
193	0xbd3db26c	-0.046312734
194	0x3e1900d5	0.14941724
195	0xbc45800d	-0.0120544555
196	0xbc810fcc	-0.015754603
197	0x3d63167b	0.05544136
198	0x3e0dcc13	0.1384738
199	0xbe13713c	-0.14398664
200	0xbd0c726b	-0.034288805
201	0x3d27346b	0.040821474
202	0x3b4a8454	0.0030901628
203	0x3c839665	0.016062925
204	0xbdfb0d1f	-0.12258362
205	0xbe027557	-0.12740074
206	0x3df3ad36	0.11898272
207	0xbdd81e26	-0.10552625
208	0x3be6520c	0.0070288237
209	0x3d17b72c	0.03703992
210	0xbd551754	-0.0520242
211	0x3dd87185	0.10568527
212	0x3cfa3e69	0.030547338
213	0x3d9813cc	0.07425651
214	0xbba528d2	-0.0050402666
215	0x3d82fbfb	0.06395718
216	0xbe13ff09	-0.14452757
217	0x3d76f5cc	0.060293004
218	0x3dc48601	0.09595872
219	0x3dc0ac13	0.094078206
220	0xbc98fc1f	-0.018674908
221	0xbd8c1990	-0.06840813
222	0x3e0048ca	0.12527767
223	0x3d9cf83a	0.07664533
224	0x3d814317	0.063116245
225	0xbcd0b98a	-0.025479097
226	0x3ccd4e36	0.025061708
227	0xbd3160f5	-0.043305356
228	0xbd09b348	-0.03361824
229	0xbd95122f	-0.07278859
230	0x3dbc3ccd	0.09191284
231	0x3c602ee5	0.0136830555
232	0xbdbf9c61	-0.09355999
233	0xbded1b8a	-0.11577518
234	0xbd845493	-0.06461444
235	0x3d98f998	0.07469481
236	0x3d2772e3	0.04088105
237	0xbcebfc65	-0.028806875
238	0xbd06274a	-0.032752313
239	0xbe0d7e49	-0.13817705
240	0xbd218965	-0.03943767
241	0x3e0b144b	0.1358196
242	0x3df35c38	0.11882824
243	0xbcea804b	-0.028625628
244	0xbd664292	-0.05621583
245	0xbe1c477e	-0.15261647
246	0x3cdda8ff	0.027058123
247	0x3e01c9fc	0.12674707
248	0xbe22b22a	-0.15888277
249	0xbddd20f0	-0.10797298
250	0x3cd0059d	0.025393302
251	0x3ce5f9db	0.028073242
252	0xbd04a0df	-0.03237998
253	0xbd9ae85e	-0.07563852
254	0x3dc9cc72	0.09853448
255	0x3d208413	0.039188456

net.3.weight f4 [1, 128]
0	0x3b26fa8a	0.0025478923
1	0xbc540da3	-0.012942704
2	0x3cb969b5	0.022633413
3	0xbcf14965	-0.029453943
4	0x3a1caee4	0.00059769885
5	0xbd5a7956	-0.05333837
6	0xbbfed629	-0.0077769947
7	0x3b90ba78	0.00441676
8	0xba12ea7f	-0.00056044006
9	0xbc08c459	-0.008347594
10	0xbb491f49	-0.0030688813
11	0x3b6c2c3f	0.0036037115
12	0xbcb8e2be	-0.022569057
13	0xbc672255	-0.0141073065
14	0xbbb126bb	-0.0054062284
15	0x3c14264e	0.009042336
16	0x3be454da	0.006968123
17	0xbaf91dd4	-0.0019006082
18	0x3d403e2b	0.046934288
19	0xba37667e	-0.00069961685
20	0xbc4f9602	-0.012670042
21	0xbc7331ed	-0.014843446
22	0xbc183dd0	-0.009292081
23	0xbcf1e599	-0.029528426
24	0xbc1d2504	-0.009591345
25	0x3a2acf01	0.00065158313
26	0xbc3e3153	-0.0116084395
27	0xbb9be137	-0.0047570723
28	0x3c6f9496	0.014622828
29	0x3c7627b7	0.015024117
30	0x3c867f9f	0.016418276
31	0x3b5b59dc	0.0033470308
32	0x3b746d89	0.0037296733
33	0xbbf910c7	-0.007600877
34	0xbc25840e	-0.010102285
35	0xba99186e	-0.0011680254
36	0x3c4bb883	0.012434128
37	0xbc6165da	-0.013757193
38	0xbc60510e	-0.0136912
39	0x3ceef345	0.029168734
40	0x3c2cebd5	0.010554274
41	0x3c0468c4	0.008081619
42	0x3cef8686	0.02923895
43	0xbc0a25db	-0.008431877
44	0xbbe7afa7	-0.0070705
45	0x3d148017	0.03625497
46	0xbc179ff6	-0.009254446
47	0xbd01d619	-0.03169832
48	0xbb792802	-0.0038018231
49	0xbb37cc53	-0.002804537
50	0xbcd07a3a	-0.025448907
51	0xbb6f1833	-0.003648293
52	0x3a06efae	0.00051474094
53	0x3ac8cda3	0.0015320074
54	0xbbee0a56	-0.0072644157
55	0xbc2b5c1b	-0.010458971
56	0x3c13adad	0.0090135755
57	0x3bf1252b	0.007359167
58	0xbc16fbe5	-0.00921533
59	0x3a034b75	0.00050084974
60	0x3a563891	0.0008171881
61	0x3b319a6d	0.0027100102
62	0xbba17aca	-0.0049279677
63	0x3bab109a	0.005220485
64	0xbc9390f7	-0.01801346
65	0xbd86c577	-0.06580632
66	0xbca036f1	-0.019557448
67	0xba9e574c	-0.001208046
68	0xbb830f0f	-0.003999598
69	0xbc747a1d	-0.014921692
70	0xbc4e116a	-0.012577394
71	0xbc3356a5	-0.010945951
72	0x396ef65d	0.00022789226
73	0xbb954516	-0.004555355
74	0x3c0d4934	0.00862341
75	0xbbe3d740	-0.00695315
76	0x3ca1c166	0.01974554
77	0xbc43e030	-0.011955306
78	0xbc1f4528	-0.009721078
79	0x3c713c7a	0.014723891
80	0x3cb4b9ac	0.022061191
81	0xbc27e55f	-0.010247557
82	0x3ac0a3e1	0.0014697277
83	0xbb0097da	-0.001962176
84	0x3c946a19	0.018116998
85	0x3b3edabc	0.0029122075
86	0xbc4c03b2	-0.012452053
87	0x3bb091c0	0.0053884685
88	0xbb7fdf6d	-0.0039043084
89	0xbc5d7c3f	-0.013518392
90	0x3a74c5e6	0.00093373505
91	0xbc7cd2a8	-0.015431084
92	0x3c4d623e	0.01253563
93	0xbca30bdb	-0.019903114
94	0x3bf4d462	0.007471607
95	0x3bba5287	0.0056861076
96	0xbb167eb4	-0.0022963705
97	0x3c5667f3	0.013086307
98	0xbb957644	-0.0045612175
99	0x3d04ed25	0.03245272
100	0xb98cf877	-0.00026888002
101	0x3a099749	0.00052486785
102	0x3b85cfdc	0.0040836167
103	0xbbd813fa	-0.0065941783
104	0x3c1fc41b	0.009751345
105	0xbc843f66	-0.016143512
106	0xbc2f2a86	-0.010691291
107	0x3bc5673c	0.0060242694
108	0x3b5bc598	0.0033534523
109	0xbc022ba5	-0.007944976
110	0xba31845f	-0.0006771739
111	0xbb2c549c	-0.0026295548
112	0xbb096287	-0.0020963268
113	0x3b0e4d5e	0.0021713595
114	0x3c7a9e0f	0.015296473
115	0x3c068ea7	0.008212722
116	0xba3cd3ac	-0.00072031724
117	0x3b87a06b	0.0041389964
118	0xbc2afa89	-0.010435709
119	0xbc88d3ec	-0.016702615
120	0xbc1b5b6d	-0.009482247
121	0xbccf8e9f	-0.025336562
122	0x3bb84b3f	0.0056242044
123	0x3c201c63	0.009772393
124	0xbbf8b790	-0.0075902417
125	0x3c89875a	0.016788173
126	0x3bb0840c	0.005386835
127	0xbc1b1a63	-0.00946674
