path/to/dir/cond_wire/2026_02_04__10_32_32-no_wandb_id/2026_02_04__10_32_32-no_wandb_id-model.pt (torch, 274804 bytes, 7 tensors)

net.0.freq_scale.weight f4 [256, 5]
0	0xbe8e3084	-0.2777139
1	0x3ca96a55	0.020680586
2	0x3f1164e8	0.56794596
3	0xbe97dabf	-0.29659078
4	0x3d99c437	0.07508128
5	0x3deeef8a	0.11666782
6	0xbc0f9a26	-0.008764779
7	0xbee13211	-0.4398351
8	0x3d841d01	0.064508446
9	0x3ec28dc7	0.37998793
10	0xbe771766	-0.2413002
11	0x3e90ebee	0.28305
12	0xbd986070	-0.07440269
13	0xbd06b3f8	-0.032886475
14	0x3e74a9d4	0.2389291
15	0x3c4c4d53	0.012469607
16	0xbe9f2108	-0.31079888
17	0x3e900b38	0.2813356
18	0x3e8b018a	0.27149612
19	0x3e72fbca	0.23728862
20	0x3e90cdea	0.282821
21	0x3e85300a	0.26013213
22	0x3eb45a0d	0.35224953
23	0x3d963ff9	0.073364206
24	0x3e9b7529	0.30362824
25	0xbec4bcc5	-0.3842527
26	0xbd89205c	-0.06695625
27	0xbe51c0bb	-0.20483677
28	0xbe59d2c8	-0.21271813
29	0x3dee430b	0.11633881
30	0x3e9bbdf6	0.30418366
31	0xbe97913e	-0.29602998
32	0xbe12c21a	-0.14331856
33	0xbe143727	-0.14474164
34	0x3eb030a4	0.3441211
35	0xbeb8caef	-0.36092326
36	0x3ebb9955	0.3664042
37	0xbee41b2c	-0.4455198
38	0xbd885fac	-0.06658873
39	0xbd625c26	-0.05526366
40	0xbe26100b	-0.16217057
41	0x3e6bb043	0.23016457
42	0xbe3da112	-0.18518475
43	0xbe8c5731	-0.27410272
44	0xbe7ce7a1	-0.24697734
45	0x3d91810d	0.071046926
46	0x3dc08f0b	0.09402283
47	0xbeb8a7b7	-0.36065456
48	0x3d9c3454	0.07627168
49	0xbe9036df	-0.28166863
50	0xbd1f569d	-0.03890096
51	0x3e44db33	0.19224243
52	0xbe35dd30	-0.17760158
53	0xbe034e2b	-0.12822787
54	0xbc7786d0	-0.015107825
55	0x3de8ccf9	0.113672204
56	0xbe8bb4b5	-0.27286306
57	0xbdb49889	-0.08818156
58	0x3e96411f	0.29346558
59	0xbb7fdcb1	-0.0039041454
60	0x3e98ebf0	0.29867506
61	0xbeca7119	-0.39539412
62	0xbf0e0329	-0.5547357
63	0xbe4ff272	-0.2030733
64	0x3e76bb66	0.24094924
65	0x3e871fa5	0.2639133
66	0xbe95bddc	-0.29246414
67	0x3ea11016	0.31457585
68	0xbda462f0	-0.08026683
69	0x3e04b5f0	0.12960029
70	0x3ebcae47	0.36851713
71	0xbed50f34	-0.41613162
72	0xbc26f6f3	-0.010190713
73	0x3e897b6c	0.26851976
74	0x3d1945af	0.03741997
75	0xbe78581a	-0.24252358
76	0xbd69e3bb	-0.057101946
77	0xbe74c9eb	-0.2390515
78	0x3eb17a71	0.34663728
79	0x3ecc8a1a	0.39949113
80	0xbe1803dc	-0.14845222
81	0xbec7fc92	-0.39059883
82	0xbe986edf	-0.29772088
83	0xbe7cba07	-0.24680339
84	0x3ec302b8	0.38088012
85	0x3ed987e0	0.42486477
86	0x3e537b90	0.20652604
87	0x3de49bff	0.111625664
88	0xbedcc15c	-0.43116271
89	0x3d03978a	0.03212694
90	0xbe06800b	-0.13134782
91	0xbd61fffe	-0.055175774
92	0xbebd1b31	-0.36934808
93	0xbd3eefaa	-0.04661528
94	0x3e815c64	0.252658
95	0x3ef45e8c	0.47728384
96	0x3ec5c65b	0.38627896
97	0xbe60ccc1	-0.21953107
98	0x3e951a28	0.29121518
99	0x3e94f28e	0.29091305
100	0x3e21d199	0.15802611
101	0x3edaa311	0.42702535
102	0x3d98203e	0.07428025
103	0xbd5c2b72	-0.05375237
104	0xbe817e86	-0.25291842
105	0xbdb9ba3a	-0.09068723
106	0x3dfa991d	0.12236235
107	0xbef196a5	-0.47185245
108	0x3dbd3220	0.09238076
109	0xbdf76968	-0.120806515
110	0xbeb33d58	-0.3500774
111	0xbde76264	-0.112980634
112	0xbe959951	-0.29218534
113	0x3ecc63db	0.39919934
114	0xbe5b8938	-0.21439064
115	0x3ed7e189	0.42164257
116	0x3e574f30	0.21026301
117	0x3f1e58aa	0.6185404
118	0xbae4244e	-0.0017405839
119	0xbc6fd3b8	-0.01463788
120	0xbebc2497	-0.36746666
121	0x3e303004	0.17205817
122	0x3eee0748	0.4648993
123	0xbd294dee	-0.041334085
124	0xbc695488	-0.014241345
125	0xbd230bbd	-0.039806116
126	0x3e468588	0.19386876
127	0xbee6133d	-0.44936553
128	0xbc8a7efb	-0.016906252
129	0x3dabecdc	0.08394787
130	0x3e4171b8	0.18891037
131	0x3eb707b6	0.3574807
132	0xbe899a55	-0.26875558
133	0x3db6dee1	0.089292295
134	0x3dc4d042	0.096100345
135	0xbe1094f7	-0.14119326
136	0xbd817c88	-0.063225806
137	0xbdda77ea	-0.10667403
138	0xbeb49409	-0.35269192
139	0xbeb85fca	-0.3601058
140	0x3ca55e54	0.02018658
141	0x3e8c2adb	0.27376446
142	0x3f17df24	0.5932486
143	0x3d809052	0.06277527
144	0xbe9ced0d	-0.30649605
145	0xbe4b0dff	-0.19829558
146	0x3dbb1517	0.09134882
147	0x3e1ab34f	0.15107463
148	0x3d8e7e7c	0.06957719
149	0xbe31ff8b	-0.17382638
150	0x3d93f581	0.072245605
151	0x3ecf58f7	0.40497562
152	0xbec28017	-0.3798835
153	0xbe01f0a1	-0.12689449
154	0xbe892677	-0.2678716
155	0xbe3a9fd2	-0.18225029
156	0x3ec6c436	0.38821572
157	0x3e9637cb	0.29339442
158	0xbcd9e37f	-0.026597736
159	0xbc7655d0	-0.015035108
160	0x3ea46577	0.32108662
161	0x3df17a60	0.11790919
162	0xbe4f6bc6	-0.20255956
163	0x3e090cc2	0.13383773
164	0xbd84a482	-0.0647669
165	0x3d73275d	0.05936371
166	0xbe9126d7	-0.28349945
167	0xbe9da952	-0.30793244
168	0xbeb28c5c	-0.3487271
169	0x3e84cad6	0.25936002
170	0xbe275470	-0.16340804
171	0x3b806ef1	0.0039194752
172	0xbe8b7fc2	-0.2724591
173	0x3d2a4935	0.041573722
174	0xbe5e08ae	-0.21682999
175	0x3e5889d5	0.21146329
176	0x3eeb79d5	0.45991388
177	0xbe4b8e44	-0.19878489
178	0xbec2706d	-0.379764
179	0x3d1a8a87	0.037729766
180	0x3eb55306	0.35414904
181	0x3ed8a5a2	0.42313868
182	0xbecd3f44	-0.4008733
183	0x3ec6e859	0.38849142
184	0xbda00b72	-0.07814683
185	0xbe51d31f	-0.20490693
186	0x3cc525c9	0.024065869
187	0xbe7a6501	-0.24452592
188	0x3cb8cc27	0.022558285
189	0xbd2dc261	-0.042421702
190	0xbeb8d3a7	-0.36098978
191	0xbe8d544c	-0.27603376
192	0x3d8e49d6	0.06947677
193	0xbd4591f5	-0.0482349
194	0xbc82beeb	-0.015960177
195	0x3da291ea	0.07937987
196	0x3dabdc8a	0.08391674
197	0xbe827e85	-0.25487152
198	0xbe0fceb8	-0.140437
199	0xbeab6f01	-0.33483127
200	0xbcb754f1	-0.02237937
201	0xbda83dbf	-0.08214902
202	0x3e541537	0.20711218
203	0x3df91980	0.12163067
204	0xbe334666	-0.17507324
205	0x3e84bf80	0.25927353
206	0xbd88d5d9	-0.06681413
207	0x398673b9	0.00025644692
208	0xbe907c6e	-0.28219932
209	0x3e8714b1	0.26382974
210	0xbda45c76	-0.08025448
211	0x3e6f2306	0.23353204
212	0xbf0d93a2	-0.55303395
213	0x3ecf2424	0.4045726
214	0x3ec8857f	0.3916435
215	0xbea1e5aa	-0.31620532
216	0x3ee3792b	0.4442838
217	0x3eb7791a	0.3583458
218	0x3d947cc4	0.0725036
219	0x3e8170ab	0.2528127
220	0xbe22d99b	-0.15903322
221	0x3e71465d	0.23561998
222	0xbf0d224c	-0.5513046
223	0xbed96db3	-0.42466506
224	0x3eca4746	0.39507502
225	0xbec4b0ef	-0.3841624
226	0xbeab413a	-0.334482
227	0x3dfacf13	0.122465275
228	0x3c27a8e1	0.010233135
229	0x3e49810e	0.19678137
230	0xbda74a4f	-0.0816847
231	0x3eaadf52	0.33373505
232	0x3e213b26	0.1574522
233	0x3cff3b79	0.031156288
234	0xbe67966c	-0.22615975
235	0x3ecdfe43	0.4023305
236	0xbde7870e	-0.113050565
237	0x3e53f537	0.20699011
238	0xbe79a3d4	-0.24378902
239	0xbd9a5393	-0.07535472
240	0x3e8ec044	0.27881062
241	0x3e9c09ef	0.3047633
242	0xbee4c361	-0.44680312
243	0xbc4803f2	-0.012207972
244	0xbe23af7e	-0.15984914
245	0xbe808366	-0.2510025
246	0xbca22b51	-0.019796045
247	0x3d801348	0.062536776
248	0xbe01147d	-0.12605472
249	0xbd01ec81	-0.03171969
250	0xbeae6fba	-0.34069616
251	0x3d6fe4d1	0.058567826
252	0x3e343d55	0.17601521
253	0x3eb7eafa	0.3592146
254	0x3ed45a1e	0.41475004
255	0xbee8e5b6	-0.45487756

net.0.freq_scale.bias f4 [256]
0	0xbe877ceb	-0.26462492
1	0xbe515bde	-0.20445201
2	0x3e18fae3	0.14939456
3	0xbec4d2fb	-0.38442215
4	0x3ec22de9	0.37925652
5	0xbed66bc5	-0.41879097
6	0x3df89c80	0.12139225
7	0x3db379c6	0.08763461
8	0xbd96b6cc	-0.073590845
9	0x3ed7a96a	0.4212144
10	0xbdd47908	-0.103746474
11	0xbece9102	-0.40345007
12	0xbe8c9ac7	-0.27461836
13	0x3e17a8c0	0.14810467
14	0x3e92244a	0.2854331
15	0x3ec92535	0.392862
16	0x3e8b17c5	0.27166572
17	0xbc8e7864	-0.017391391
18	0xbdd14715	-0.10218636
19	0xbe3b26e4	-0.18276554
20	0xbe9e9457	-0.3097255
21	0xbe7f377c	-0.2492351
22	0x3db7daa3	0.089772485
23	0xbe77dc27	-0.24205075
24	0xbdfb71ce	-0.12277566
25	0xbdb04fac	-0.08608946
26	0xbe104152	-0.14087418
27	0x3e072094	0.13196021
28	0x3e8d24e4	0.27567208
29	0xbe107b8a	-0.14109626
30	0xbe97ceed	-0.2965006
31	0x3e2156ba	0.1575574
32	0x3dad8286	0.08472161
33	0x3ed10ecd	0.40831605
34	0x3dd52655	0.10407702
35	0xbbeaeb5e	-0.0071691712
36	0xbec64ee8	-0.38732076
37	0xbcdcb866	-0.026943397
38	0xbec266a7	-0.37968943
39	0xbedce649	-0.43144444
40	0xbec92165	-0.3928329
41	0x3e83c4ec	0.25736177
42	0xbe990297	-0.29884788
43	0x3e622803	0.22085576
44	0x3dac51cd	0.0841404
45	0x3e4ef59f	0.20210885
46	0x3e81a94b	0.25324473
47	0xbe5f657d	-0.21816058
48	0xbd997623	-0.07493236
49	0xbc90449d	-0.017610842
50	0xbdf8ea6d	-0.12154088
51	0x3ead68be	0.33868974
52	0x3dc91023	0.09817531
53	0x3ddaab4e	0.10677205
54	0xbe692ebb	-0.22771733
55	0x3e9e0e1f	0.3087015
56	0xbdcd47ef	-0.10023486
57	0x3df4366b	0.11924442
58	0xbed60cdf	-0.41806695
59	0x3edd89cd	0.43269196
60	0x3e966214	0.29371703
61	0xbd278bf5	-0.040904958
62	0x3d717e91	0.058958594
63	0xbe592519	-0.21205558
64	0x3cbfed5a	0.023428608
65	0x3e3f8c10	0.18705773
66	0x3e42dd46	0.19029722
67	0x3dd3639e	0.10321735
68	0xbe4b4d06	-0.19853601
69	0xbe9a8623	-0.30180463
70	0xbe80c847	-0.251528
71	0x3d0ae99c	0.033914194
72	0x3e374993	0.1789916
73	0xbea5771c	-0.32317436
74	0xbd9b8002	-0.07592775
75	0xbe64c465	-0.22340544
76	0x3e65a20f	0.22425102
77	0x3ea6b3fa	0.32559186
78	0x3e032562	0.12807229
79	0xbd2e7d4d	-0.042599965
80	0xbe10b2c3	-0.14130692
81	0x3e85e60b	0.2615207
82	0x3ead3f1a	0.33837205
83	0xbdb1b0bb	-0.08676287
84	0x3e124bfb	0.14286797
85	0xbec3f6c9	-0.3827422
86	0xbea35446	-0.31900233
87	0x3d939df0	0.072078586
88	0x3d5b44b4	0.053532317
89	0x3ec759b4	0.38935626
90	0xbdaf9536	-0.085733816
91	0x3d574293	0.052553724
92	0x3df6b0cb	0.12045439
93	0xbed02e1b	-0.40660176
94	0xbe4e9c38	-0.2017678
95	0xbd8ff54d	-0.07029209
96	0xbec72b0c	-0.3890003
97	0x3e035b04	0.12827688
98	0xbe867296	-0.26259297
99	0xbebb2195	-0.3654906
100	0xbc5fc844	-0.013658587
101	0x3ecad059	0.39612082
102	0xbe74fda4	-0.23924881
103	0xbdb2a433	-0.08722725
104	0x3cb61d33	0.02223072
105	0x3d1f47db	0.038886886
106	0x3ec8711c	0.39148796
107	0x3e4c83d4	0.19972163
108	0xbe5b8d0a	-0.21440521
109	0xbdb390e4	-0.0876787
110	0x3da07bd2	0.07836117
111	0x3d34ee12	0.044172354
112	0x3c230961	0.009950967
113	0x3db48784	0.0881491
114	0xbedb8ca2	-0.42880732
115	0xbebe11d1	-0.37122968
116	0xbee0ea15	-0.4392859
117	0x3e96a079	0.29419306
118	0xbe5d617c	-0.21619219
119	0xbe6d76d6	-0.23189864
120	0x3eb1798d	0.34663048
121	0xbea8a7f5	-0.3294064
122	0xbd761387	-0.060077216
123	0x3ed75782	0.4205895
124	0xbe9e75aa	-0.30949146
125	0xbeb6108c	-0.355595
126	0xbee11e67	-0.43968508
127	0x3ea8767d	0.329029
128	0x3da69a46	0.08134894
129	0xbe8c0a61	-0.27351668
130	0xbee82659	-0.45341757
131	0x3e172ad0	0.14762425
132	0x3ede0258	0.43361163
133	0xbedb1968	-0.4279282
134	0x3ed54b81	0.41659167
135	0x3e148be1	0.14506485
136	0x3df9e1e4	0.12201288
137	0xbeabbb42	-0.33541304
138	0x3d8c96f2	0.06864728
139	0x3daed1bf	0.085361
140	0x3d60e222	0.054903157
141	0x3ed0e786	0.40801638
142	0x3de22770	0.11042678
143	0x3e4accff	0.19804762
144	0x3eb195fe	0.34684747
145	0x3ea1c851	0.31598142
146	0x3eb60a2e	0.3555464
147	0xbe3170bc	-0.17328161
148	0xbe066281	-0.13123514
149	0x3eac1ebb	0.33617195
150	0x3eb48d35	0.35263982
151	0x3df1240a	0.11774452
152	0xbe9c8379	-0.30569056
153	0x3c8f5978	0.017498717
154	0x3e760ffc	0.24029535
155	0xbd971247	-0.07376533
156	0xbe76bc7f	-0.24095343
157	0xbec22581	-0.37919238
158	0xbeaf57ec	-0.34246767
159	0xbea3f04b	-0.32019266
160	0xbe9b203b	-0.30298027
161	0x3e924a8a	0.28572494
162	0x3ea8ecfc	0.32993305
163	0xbdd5798a	-0.10423572
164	0xbe74cb7b	-0.23905747
165	0x3ee7b528	0.452554
166	0xbec3ec58	-0.38266253
167	0xbe88a775	-0.2669026
168	0x3e24164e	0.16024134
169	0x3d9ac326	0.07556753
170	0xbeae77f4	-0.34075892
171	0x3df4c481	0.11951543
172	0x3e807872	0.25091892
173	0xbeba81de	-0.36427206
174	0xbb9e2cea	-0.0048271315
175	0xbe6410e5	-0.2227207
176	0xb87482a6	-5.829581e-05
177	0x3e8f8fb5	0.28039327
178	0x36fbd140	7.504743e-06
179	0x3e1638ab	0.14670055
180	0x3ec73f36	0.38915414
181	0x3e304b6c	0.17216271
182	0xbde029b4	-0.10945454
183	0xbe906d47	-0.28208372
184	0x3eecc3bd	0.46243086
185	0x3df8e823	0.121536516
186	0x3ea1e334	0.31618655
187	0x3eadaa5d	0.3391904
188	0x3e6198a3	0.22030883
189	0x3e2bf1b2	0.16791418
190	0x3d377eb1	0.044798557
191	0xbedce11c	-0.43140495
192	0x3d912a51	0.07088149
193	0xbecc6d17	-0.3992698
194	0x3ed14547	0.40873167
195	0x3e6d3a16	0.2316669
196	0xbe1c259c	-0.15248722
197	0x3e883d79	0.266094
198	0xbc704d27	-0.014666832
199	0x3ed79c57	0.42111465
200	0xbe819e3e	-0.25316042
201	0x3d2fa780	0.04288435
202	0x3e6e31a0	0.23261118
203	0xbe282bfe	-0.16423032
204	0xbe3a8bd7	-0.18217407
205	0xbe236c52	-0.1595929
206	0xbe58ff67	-0.21191178
207	0xbe08f686	-0.13375291
208	0x3ea916ba	0.33025151
209	0xbe9dacae	-0.30795807
210	0xbeb45e4d	-0.35228196
211	0xbce98c04	-0.028509147
212	0xbe32762a	-0.17427889
213	0xbe7f8c53	-0.24955873
214	0xbdf8abe5	-0.12142161
215	0xbe84ec79	-0.25961664
216	0xbb29e86a	-0.0025925883
217	0xbd00ef94	-0.03147848
218	0xbecce80c	-0.40020788
219	0xbbec6975	-0.00721472
220	0x3e870797	0.26372978
221	0xbecf829b	-0.40529332
222	0x3d34b76f	0.04412025
223	0x3eb014ce	0.34390873
224	0xbe286e51	-0.16448332
225	0x3eb5694b	0.35431895
226	0xbe4e37b5	-0.20138438
227	0xbe7b8215	-0.24561341
228	0x3ce346a5	0.027743647
229	0x3e2ef4f7	0.17085634
230	0x3e8511ba	0.25990087
231	0xbdbfb17b	-0.093600236
232	0xbc92da6d	-0.01792642
233	0x3ebc69f3	0.36799583
234	0xbe3f0f40	-0.18658161
235	0x3d50fe5a	0.05102382
236	0x3e2bf2c3	0.16791825
237	0x3e1135ee	0.14180729
238	0xbeb3bab5	-0.35103384
239	0xbd2feb98	-0.04294929
240	0x3e9e2876	0.30890244
241	0x3dd52667	0.10407715
242	0xbe3bec9c	-0.18351978
243	0xbdaef545	-0.08542875
244	0x3b05a5dd	0.0020393052
245	0x3d8e9095	0.069611706
246	0x3ee4ab19	0.44661787
247	0x3e2c4c05	0.16825874
248	0x3dcf54dd	0.10123608
249	0xbeadab45	-0.3391973
250	0x3ea49088	0.3214152
251	0xbad78e36	-0.001644558
252	0x3e80d048	0.25158906
253	0x3ebb7f31	0.36620477
254	0x3e9dfa41	0.3085499
255	0x3e05daf8	0.13071811

net.1.freq_scale.weight f4 [256, 128]
0	0x3aa893ea	0.0012861465
1	0xbd4dffd3	-0.0502928
2	0xbd41468e	-0.047186427
3	0xbd98fda9	-0.07470257
4	0xbd94dd85	-0.07268814
5	0x3d7725ba	0.060338713
6	0x3cf20546	0.02954353
7	0x3c5a7bd9	0.013335192
8	0xbbb6ab3f	-0.0055746133
9	0xbcd603de	-0.02612489
10	0x3bf67f0b	0.007522469
11	0xbb9b8a8b	-0.00474674
12	0xbd970422	-0.07373835
13	0xbcc9ff39	-0.024657832
14	0xbd70ac3d	-0.05875801
15	0xbd5500ab	-0.05200259
16	0xbd5bb1f2	-0.0536365
17	0x3d3bc6d2	0.045843907
18	0xbdc3397a	-0.09532447
19	0xbcc1bece	-0.023650553
20	0xbd977a35	-0.07396356
21	0x3b384412	0.0028116745
22	0x3d419d70	0.047269285
23	0x3c9d476b	0.019199094
24	0xbcd76688	-0.026294008
25	0xbcc41b66	-0.023938846
26	0x3cb23a2b	0.021756252
27	0x3c92ff2e	0.017943945
28	0x3db0d512	0.0863439
29	0x3ce8f1a5	0.028435538
30	0xbd46d943	-0.04854704
31	0xbcddc270	-0.027070254
32	0x3b1cc4a9	0.002392093
33	0x3db479e7	0.088123135
34	0xbdc83923	-0.09776523
35	0xbd2dea1b	-0.04245959
36	0xbce3cc9c	-0.027807526
37	0x3d825a3f	0.06364869
38	0xbd760d81	-0.060071472
39	0x3caa9448	0.02082266
40	0x3d919cdd	0.071099974
41	0x3cdcad35	0.02693806
42	0xbd04d5d5	-0.03243049
43	0xbda03589	-0.07822711
44	0xbcb20130	-0.021729082
45	0x3a964416	0.0011464383
46	0x3c37e42b	0.011223833
47	0xbcc2a186	-0.023758661
48	0xbd0fc4a9	-0.03509966
49	0x3cb63d7a	0.022246111
50	0xbd3707ad	-0.044685055
51	0x3d463a94	0.04839571
52	0xbdaae12b	-0.08343729
53	0x3d64cfd5	0.055862267
54	0xbd91c282	-0.071171775
55	0xbd8f1566	-0.06986503
56	0x3d045410	0.03230673
57	0xbcc9e1b1	-0.02464375
58	0x3da5fea6	0.08105211
59	0x3d1c778f	0.038199957
60	0xbd8791de	-0.06619619
61	0x3c7086c7	0.014680571
62	0x39a1f8cc	0.0003089368
63	0xbd0b62da	-0.03402982
64	0xbd2ca78a	-0.042151965
65	0x3d369728	0.044577748
66	0xbd8d4889	-0.068986006
67	0x3d8783f5	0.06616966
68	0xbd53c351	-0.05169994
69	0x3cea4846	0.028598916
70	0x3ccd8b86	0.025090944
71	0x3a6a359e	0.0008934381
72	0xbcbce24c	-0.023057126
73	0x3cbbe3ae	0.022935715
74	0xbc02457d	-0.007951138
75	0x3b984be0	0.004647717
76	0xbda9373a	-0.08262487
77	0x3cfb8f7f	0.030708073
78	0x3c4eb01b	0.012615229
79	0xbd8bcf11	-0.06826604
80	0xbdaabfff	-0.083374016
81	0x3d392465	0.045200724
82	0xbd0c39e0	-0.03423488
83	0xbd7a2bb9	-0.061076853
84	0x3d1f16b6	0.03884002
85	0x3d906a86	0.07051568
86	0x3d893aec	0.067006916
87	0xbd86cd27	-0.065820985
88	0x3c101c2f	0.008795782
89	0x3d2c3cb8	0.042050093
90	0x3da3332a	0.07968743
91	0x3dc0271c	0.093824595
92	0x3d7d9616	0.06191071
93	0x3d66d476	0.056354962
94	0x3d3bf3f9	0.045886967
95	0x3cfdfbf7	0.031003935
96	0x3db354c6	0.087564036
97	0xbd349f44	-0.0440972
98	0x3ab12d42	0.0013517516
99	0xbcdd5c3d	-0.027021522
100	0xbd429eed	-0.047514845
101	0xbb993d42	-0.004676492
102	0x3d4a469d	0.04938375
103	0xbaf6c169	-0.0018825951
104	0xbc9f31e3	-0.019432968
105	0xbd643ef4	-0.0557241
106	0x3d870b4f	0.06593954
107	0x3d6e5b34	0.058192447
108	0x3d2928e3	0.04129876
109	0xbd11eb78	-0.03562495
110	0x3da2bddb	0.07946368
111	0x3d90a793	0.07063212
112	0xbd9167dc	-0.07099888
113	0x3db1d004	0.08682254
114	0x3d0fe2d9	0.03512845
115	0x3dc5e0c3	0.096620105
116	0x3db0eeab	0.08639272
117	0x3c3ce1c0	0.011528432
118	0xbd8283b0	-0.06372774
119	0xbbff9e8d	-0.007800883
120	0x3da8af16	0.0823652
121	0xbd1ce058	-0.03829989
122	0xbd987f3d	-0.07446144
123	0xbc7e23f8	-0.015511505
124	0x3c435c9c	0.011923935
125	0xba695019	-0.000890018
126	0xbc876ba6	-0.016530823
127	0x3d878624	0.06617382
128	0x3d2d813d	0.04235958
129	0x3dc94883	0.09828284
130	0x3d6dc36d	0.0580477
131	0x3ceaab6d	0.028646195
132	0xbca8b502	-0.020594124
133	0xbd7ef412	-0.062244482
134	0xbce56c2b	-0.02800568
135	0x3cb284a6	0.021791767
136	0xbd8c10f6	-0.068391725
137	0x3d85b499	0.06528587
138	0xbd905862	-0.07048108
139	0xbc1a71a7	-0.009426511
140	0xbd587b37	-0.05285188
141	0x3d382814	0.044960096
142	0x3a88b3cc	0.001042956
143	0xbce35d07	-0.02775432
144	0x3d5ddf32	0.054167934
145	0xbd02c42f	-0.031925377
146	0xbd8cff65	-0.0688465
147	0x3c94e045	0.018173346
148	0x3d423bd2	0.04742033
149	0xbd7356b4	-0.05940886
150	0x3dc3daeb	0.0956324
151	0xbd40aa0b	-0.047037166
152	0xbcdf1819	-0.02723317
153	0x3db4530b	0.08804902
154	0xbd1eb651	-0.03874809
155	0x3d64b40c	0.05583577
156	0x3c9860e7	0.018600894
157	0xbc9c6c4c	-0.019094609
158	0xbdbde6fb	-0.09272572
159	0x3c9fa7cf	0.019489197
160	0xbd5c8104	-0.053833976
161	0x3aa5bca2	0.0012644718
162	0x3d6a7f85	0.05725052
163	0xbdbb2662	-0.0913818
164	0x3d2e7b38	0.04259798
165	0x3d79bd35	0.060971458
166	0x3b2e3c16	0.0026586107
167	0x3da4a723	0.08039691
168	0x3d623bde	0.055232875
169	0x3c7fa05d	0.015602198
170	0xbc5a5c63	-0.013327691
171	0xbcaa44eb	-0.020784816
172	0x3d8aae84	0.067715675
173	0x3dbf8f02	0.093534485
174	0xbc89a318	-0.016801402
175	0x3d416c3f	0.047222372
176	0xbbdd9767	-0.0067624333
177	0xbcba30bb	-0.022728315
178	0x3d721687	0.059103515
179	0xbd5e4a25	-0.05426993
180	0x3d7415a9	0.05959097
181	0x3a8580bc	0.001018546
182	0x3d2f5161	0.04280222
183	0xbcbe70ce	-0.023247149
184	0x3c88e966	0.016712856
185	0xbd4f66cb	-0.05063514
186	0xbb044e7f	-0.002018839
187	0xbd7f675f	-0.06235444
188	0x3d6c1745	0.05763938
189	0x3d6aec31	0.057354156
190	0x3d63e515	0.05563839
191	0x3d4a919c	0.04945527
192	0x3c2d6257	0.010582528
193	0xbc952059	-0.018203901
194	0x3d3a5806	0.045494102
195	0x3b8b1815	0.004244814
196	0x3c54a4cb	0.012978743
197	0xbdc3ff92	-0.095702305
198	0x3d17afe3	0.037032973
199	0xbd243884	-0.04009296
200	0x3dd57273	0.1042222
201	0xbc881f1c	-0.016616397
202	0xbcb7d839	-0.02244197
203	0x3da6e462	0.08149029
204	0x3d99ae18	0.07503909
205	0xbd8d30c5	-0.06894068
206	0x3cd05f3b	0.025436034
207	0x3d48ee99	0.04905567
208	0xbd2c9cde	-0.042141788
209	0x3cdf2980	0.027241468
210	0xbd1c844a	-0.0382121
211	0xbca0b7df	-0.019618927
212	0x3ce29538	0.027659044
213	0xbcfb7370	-0.030694693
214	0xbb054175	-0.0020333205
215	0xbdbfcf39	-0.093656965
216	0xbc9eafc4	-0.019370921
217	0x3c5ec543	0.013596836
218	0x3d3bdce8	0.04586497
219	0x3d6addf7	0.05734059
220	0xbcdd568d	-0.02701881
221	0x3ce46b1a	0.027883101
222	0x3d896dbe	0.06710385
223	0x3ce0acb0	0.027426094
224	0xbd1cee03	-0.038312923
225	0x3d9d5478	0.07682127
226	0x3d4157a5	0.047202725
227	0x3af449b2	0.0018637686
228	0xbd7353df	-0.059406158
229	0x3d5368e3	0.0516137
230	0xbd574521	-0.05255616
231	0x3d07575c	0.033042297
232	0x3cd3c667	0.025851442
233	0x3b831365	0.0040001147
234	0xbdd40e92	-0.103543416
235	0x3dd14ee5	0.10220126
236	0x3dd80725	0.10548238
237	0xbd698406	-0.057010673
238	0x3d883335	0.06650392
239	0x3d87b30e	0.06625949
240	0xbd82cca7	-0.063866906
241	0xbbd4c2ad	-0.0064929337
242	0xbd2d9bed	-0.04238503
243	0xbd5abaca	-0.053400792
244	0xbd923ab8	-0.07140106
245	0xbd8037ac	-0.062606186
246	0xbd85972f	-0.065229766
247	0x3db7e521	0.0897925
248	0xbc2142ad	-0.009842557
249	0xbd18f861	-0.037346248
250	0xbd0b1af8	-0.033961266
251	0xbc46ff66	-0.012145853
252	0x3d0a9ba8	0.03383985
253	0xbd51e8e5	-0.051247496
254	0x3dcb3e48	0.099239886
255	0xbd23493e	-0.03986477

net.1.freq_scale.bias f4 [256]
0	0xbc68b3d0	-0.014203027
1	0x3d2f6b5f	0.042827006
2	0xbd8a5fd9	-0.06756563
3	0x3d80119e	0.0625336
4	0x3c79ada0	0.015239149
5	0xbd282a43	-0.04105593
6	0xbca1f0d5	-0.019768158
7	0xbd20055a	-0.039067604
8	0x3ca44b2a	0.020055372
9	0xbd68c252	-0.056825943
10	0x3d853bfc	0.06505582
11	0x3cef53c9	0.029214757
12	0xbd95e705	-0.07319454
13	0x3d92fa07	0.07176595
14	0xbba47bb0	-0.0050196275
15	0x3d41963e	0.047262423
16	0x3d22fade	0.039790027
17	0x3d5950b0	0.053055465
18	0xbc995f64	-0.018722244
19	0xbd8298cf	-0.06376802
20	0x3d2f4eb4	0.042799667
21	0x3da8d71a	0.08244152
22	0x3d3a914b	0.04554872
23	0x3d8f1043	0.069855236
24	0x3d9b4516	0.075815365
25	0xbd80c7b4	-0.0628809
26	0xbd1fd930	-0.039025486
27	0xbd59b4f3	-0.053151082
28	0xbbb7925b	-0.0056021637
29	0x3cd587d7	0.02606575
30	0xbd998164	-0.074953824
31	0x3b2e8cdb	0.002663425
32	0x3d04fbfa	0.032466866
33	0xbdaef470	-0.085427165
34	0x3d93bcaa	0.07213719
35	0x3d9cf40f	0.07663738
36	0x3caa3ea6	0.020781826
37	0x3d225874	0.039635137
38	0x3d0454d3	0.032307457
39	0xbd0d0987	-0.034432914
40	0xbda6218d	-0.08111868
41	0x3d9e9a6f	0.077442996
42	0xbda61e66	-0.08111267
43	0xbd5226dc	-0.05130659
44	0xbd531981	-0.051537994
45	0xbce6efff	-0.02819061
46	0xbcf8f43a	-0.030389894
47	0x3dbad144	0.091219455
48	0xbd39e009	-0.045379672
49	0xbd047f6e	-0.03234809
50	0x3dcae299	0.09906501
51	0x3c4165ad	0.011804027
52	0xbd825ae7	-0.063649945
53	0xbd5182c6	-0.051150106
54	0x3dab5536	0.08365862
55	0xbb5af707	-0.00334114
56	0x3d94d93c	0.07267997
57	0xbccfc83a	-0.02536403
58	0x3d05cb59	0.03266463
59	0xbbd75916	-0.006571899
60	0xbd70720c	-0.058702514
61	0xbd9ea98a	-0.07747181
62	0x3c3d671c	0.011560228
63	0x3d8dbe88	0.069211066
64	0x3d24d3af	0.04024094
65	0xbdbb8c7a	-0.09157653
66	0x3c968af1	0.0183768
67	0xbccce930	-0.025013536
68	0x3c69794a	0.014250109
69	0x3d8bbd20	0.06823182
70	0x3d6c5e0e	0.057706885
71	0xbd0b5b09	-0.034022365
72	0xbd9064c7	-0.07050472
73	0x3c3c5404	0.01149464
74	0xbd51eac7	-0.05124929
75	0x3d309797	0.043113317
76	0xbd261e77	-0.040556397
77	0xbd246b1d	-0.040141214
78	0xbd53f07e	-0.051743023
79	0x3d9248ef	0.07142817
80	0x3d6805d0	0.05664617
81	0x3d8d48ad	0.068986274
82	0x3d4677c4	0.04845406
83	0xbd247222	-0.040147908
84	0xbdcc93c2	-0.0998912
85	0xbd296997	-0.041360464
86	0x3d803796	0.06260602
87	0xbdaa8873	-0.08326807
88	0xbd843803	-0.06455996
89	0xbcf62004	-0.030044563
90	0xbc77a377	-0.015114657
91	0xbda1cb50	-0.07900107
92	0xbd9e9ca0	-0.077447176
93	0x3c1cdfd0	0.009574845
94	0xbc4abcc1	-0.012374104
95	0x3d7edef0	0.06222433
96	0x3d6786f9	0.056525204
97	0x3d921a6d	0.071339466
98	0x3d50568f	0.0508638
99	0xbcee3316	-0.029077094
100	0xbd8d952a	-0.069132164
101	0x3d185cdf	0.037197944
102	0x3c053c83	0.008132103
103	0x3c177e31	0.009246395
104	0x3d6b0d0e	0.057385497
105	0x3c470dcf	0.012149288
106	0x3d2bf4cd	0.041981507
107	0xbb99601e	-0.0046806475
108	0x3d78473d	0.060614813
109	0xbd7322f4	-0.059359506
110	0xbd3150e5	-0.043290038
111	0x3d57a20c	0.052644774
112	0xbd92c3ab	-0.07166227
113	0x3d47e98a	0.048806705
114	0xbd3abe04	-0.04559137
115	0xbcd45aa3	-0.025922125
116	0xbd3eca14	-0.046579435
117	0x3d0c8ad6	0.03431209
118	0x3d4fabb6	0.050700866
119	0x3c5c5114	0.013447065
120	0xbc6b902c	-0.014377635
121	0xbd4aadf0	-0.049482286
122	0xbdb6b1e4	-0.08920649
123	0x3da4fe52	0.0805632
124	0x3da8d524	0.08243778
125	0xbb97c84d	-0.004632032
126	0x3da9818d	0.08276663
127	0xbd060eec	-0.032729074
128	0x3dad95ac	0.08475813
129	0x3cb8e3d4	0.022569574
130	0x3da3448d	0.079720594
131	0xbd3684bd	-0.044560183
132	0x3da013c3	0.07816269
133	0x3d84e2b2	0.06488551
134	0x3da6a4ba	0.08136888
135	0xbcc41779	-0.023936974
136	0x3d440c3b	0.047863226
137	0xbcee67ff	-0.029102324
138	0x3d8cc3f2	0.06873311
139	0xbd5464b0	-0.051853836
140	0x3ccd5d02	0.025068764
141	0x3d3187ef	0.043342527
142	0xbcf440f4	-0.029816128
143	0x3cfab9ab	0.030606112
144	0xbda12aa7	-0.078694634
145	0x3d737426	0.05943694
146	0xbb9fbf53	-0.0048751025
147	0x3d74901e	0.059707753
148	0x3d8a1394	0.067420155
149	0xbda2e32e	-0.07953487
150	0x3d5bace0	0.053631663
151	0xbd1acc3d	-0.037792433
152	0x3dbb7cd2	0.09154667
153	0x3dbbbb3b	0.09166571
154	0xbd6d379b	-0.057914358
155	0xb9e7a879	-0.00044185275
156	0x3d437bea	0.047725596
157	0x3dadbed5	0.08483664
158	0x3d69a759	0.05704436
159	0x3c3f2f46	0.011668986
160	0xbd9bebe2	-0.076133505
161	0x3cd02a16	0.025410693
162	0xbd83a00c	-0.06427011
163	0x3c73373c	0.014844712
164	0x3d8d3638	0.06895107
165	0xbd5ef1f4	-0.054429963
166	0xbcc79b6b	-0.024366101
167	0xbd9ea2ff	-0.07745933
168	0x3d20be4f	0.039243992
169	0xbd09ec39	-0.033672545
170	0x3cee8481	0.029115917
171	0x3db4b088	0.08822733
172	0x3cdcfe1b	0.026976636
173	0xbcb072e0	-0.021539152
174	0xbd157544	-0.036488786
175	0xbd8ec7be	-0.069716915
176	0xbd6500f3	-0.05590911
177	0x3c9529ad	0.01820835
178	0xbc8830c7	-0.016624821
179	0xbd98496f	-0.07435881
180	0xbc7d2c56	-0.015452465
181	0x3c1caf88	0.009563334
182	0x3d4ff20b	0.05076794
183	0x3bd1be05	0.006400826
184	0xbc39de0b	-0.011344443
185	0x3d3bd1ea	0.045854487
186	0x3cdd4dea	0.027014691
187	0xbcb5d559	-0.022196459
188	0xbce5c334	-0.028047182
189	0x3c7908a2	0.015199812
190	0xbdbaf41f	-0.09128594
191	0x3d9b798b	0.07591542
192	0x3d9845c0	0.07435179
193	0xbd851d17	-0.06499689
194	0xbd3a11a7	-0.04542699
195	0x3d921b19	0.07134075
196	0x3d540cfe	0.051770203
197	0xbd6f4c31	-0.05842227
198	0xbd6b386a	-0.057426848
199	0x3d669aff	0.05630016
200	0x3d320528	0.04346195
201	0x3d10fd59	0.03539786
202	0x3d600268	0.054689795
203	0xbd0404b6	-0.032231055
204	0x3cb443c4	0.02200497
205	0x3da30c9b	0.07961389
206	0x3cf120c2	0.029434565
207	0x3d1ae577	0.03781649
208	0x3d44881b	0.047981363
209	0xbd98f8ce	-0.07469331
210	0xbd6b480a	-0.05744175
211	0xbd7cfb95	-0.061763365
212	0x3d8cca96	0.06874578
213	0x3ce3b807	0.027797712
214	0xbcff5f51	-0.03117338
215	0xbc2ea999	-0.010660552
216	0x3dac24d7	0.08405464
217	0x3cd52fc9	0.026023762
218	0x3d4bc176	0.049745046
219	0xbc8287b3	-0.015933847
220	0x3c8f20e7	0.017471744
221	0xbb93f88e	-0.004515714
222	0xbdadc87b	-0.08485504
223	0x3d4b63cd	0.049655724
224	0x3c99a015	0.01875309
225	0x3ca8a93a	0.020588506
226	0xbd916e2e	-0.07101093
227	0xbd4b1d16	-0.049588285
228	0x3b0f64f2	0.0021880236
229	0x3dbd0d90	0.092311025
230	0xbd0ba73a	-0.034095027
231	0xbd149cc7	-0.036282327
232	0x3d0d7371	0.03453392
233	0xbd019c58	-0.03164324
234	0xbd8dddb0	-0.06927049
235	0xbc50c355	-0.012741883
236	0x3d8f7593	0.070048474
237	0xbd37078f	-0.044684943
238	0x3d198b0d	0.037486125
239	0xbd62ff15	-0.055419046
240	0x3d4c240a	0.049839057
241	0xbd62355b	-0.055226665
242	0xbd3c1fe5	-0.045928854
243	0xbd7d5c42	-0.061855562
244	0xbb569e37	-0.0032748112
245	0xbd324984	-0.04352714
246	0xbd512a9d	-0.05106603
247	0xbcbe9ea6	-0.023269009
248	0x3c82f9bc	0.015988223
249	0xbd5a59b1	-0.053308193
250	0xbd47e81e	-0.04880535
251	0xbcccdca1	-0.025007548
252	0x3d077b81	0.033076767
253	0xbdc084f0	-0.09400356
254	0x3a5eae8f	0.0008494639
255	0xbced4bb1	-0.028966757

net.2.freq_scale.weight f4 [256, 128]
0	0xbd3a786b	-0.045524996
1	0xbb134216	-0.002246981
2	0x3da56813	0.08076491
3	0x3daa37ad	0.083114006
4	0xbd7b941e	-0.061420552
5	0x3d3e11cd	0.046403695
6	0x3d180e58	0.037123054
7	0x3d402ec7	0.04691961
8	0xbd5fb1c0	-0.054612875
9	0xbd4a45d2	-0.049382992
10	0xbd67221f	-0.056429025
11	0x3d923528	0.07139045
12	0xbd6e513c	-0.05818294
13	0x3d726189	0.059175048
14	0xbb9e7263	-0.0048354133
15	0x3d7049d9	0.058664177
16	0x3dbb83a1	0.091559656
17	0x3d395cc1	0.045254473
18	0x3da96865	0.08271865
19	0x3c6c31a1	0.014416129
20	0xbd19d5d1	-0.037557427
21	0x3db7caee	0.08974253
22	0xbd22e628	-0.039770275
23	0xbd1a0027	-0.0375978
24	0x3c82f472	0.015985701
25	0x3bdb4af1	0.0066922833
26	0xbc0dea6d	-0.0086618485
27	0xbd079fbe	-0.033111326
28	0xbd84c6c5	-0.06483225
29	0xbd8b78f2	-0.06810178
30	0x3dbd8ed2	0.092557564
31	0x3d3cbbf3	0.04607768
32	0xbcbec2ac	-0.023286186
33	0xbd3429e8	-0.043985277
34	0x3d348f49	0.04408196
35	0xbbdacce4	-0.006677257
36	0x3d9beb90	0.07613289
37	0x3d27c77c	0.040961727
38	0xbd00bb01	-0.03142834
39	0x3d94bb51	0.0726229
40	0x3d58a75b	0.052893978
41	0xbbf01d92	-0.007327744
42	0xbd368a7c	-0.044565663
43	0x3db54335	0.08850709
44	0x3c050f26	0.008121287
45	0x3bdb0683	0.006684126
46	0x3d0b4484	0.03400089
47	0x3b59db86	0.0033242418
48	0xbd48d655	-0.049032528
49	0xbdb116f6	-0.086469576
50	0x3d55ba59	0.052179668
51	0x3c005c90	0.007834569
52	0x3c76730c	0.015042078
53	0x3d757e86	0.059935115
54	0xbd90e6ca	-0.070752695
55	0x3c442269	0.011971095
56	0x3d5ca9dd	0.05387293
57	0xbd301cc6	-0.04299619
58	0x3d39ca33	0.045358848
59	0x3c8d76d4	0.017268576
60	0x3d25bd53	0.040463757
61	0xbdb34e01	-0.087551124
62	0x3d5b3882	0.053520687
63	0xbb851b0e	-0.004062063
64	0x3bc37804	0.0059652347
65	0x3d344609	0.044012103
66	0x3d789e2e	0.060697727
67	0xbd9b4d66	-0.07583122
68	0x3db0d506	0.08634381
69	0x3d9c966a	0.07645877
70	0x3a856143	0.0010176081
71	0x3d02b832	0.031913944
72	0x3d2ed973	0.042687844
73	0x3da947e9	0.08265669
74	0x3d9e5676	0.07731335
75	0xbd4857ce	-0.048911862
76	0x3d96479c	0.07337877
77	0xbd6573ce	-0.056018643
78	0xbd337648	-0.043813974
79	0x3d5606c7	0.052252557
80	0xbd8923a9	-0.06696255
81	0xbb458886	-0.0030141189
82	0x3d12b385	0.035815734
83	0x3d3def6b	0.046370905
84	0xbcb5dfd3	-0.022201454
85	0xbd3be8dd	-0.045876373
86	0xbd5db119	-0.05412397
87	0x3d806b2e	0.06270443
88	0xbd1c9feb	-0.038238447
89	0xbd85b7cc	-0.06529197
90	0x3d5b093e	0.05347561
91	0x3da1ca5b	0.07899924
92	0x3d408720	0.047003865
93	0x3db9c930	0.090715766
94	0x3dada13b	0.08478018
95	0xbce3221b	-0.027726224
96	0x3d6fe0fc	0.05856417
97	0x3cd5f792	0.026119027
98	0x3d9c62f3	0.076360606
99	0xbc23d240	-0.009998858
100	0xbd759b0e	-0.059962325
101	0x3da6201a	0.08111592
102	0xbc3cba7f	-0.0115190735
103	0x3d19a016	0.037506185
104	0x3d1526c1	0.03641391
105	0xbba49ea0	-0.0050237924
106	0x3d813088	0.06308085
107	0xbd0a87f7	-0.033821072
108	0x3d9a7874	0.07542506
109	0x3ce607b3	0.028079843
110	0xbd4028ff	-0.046914097
111	0x3d4123d1	0.047153298
112	0xbcf12c0d	-0.02943995
113	0x3d1b8a3a	0.03797362
114	0x3cd5575e	0.026042636
115	0x3d86d58e	0.06583701
116	0x3d9a0870	0.075211406
117	0x3dbc7063	0.092011236
118	0xbd5de187	-0.054170158
119	0x3d90cfbf	0.070708744
120	0x3d3a4cd0	0.04548341
121	0xbaabd512	-0.0013109765
122	0x3d9b493f	0.0758233
123	0xbd1be0da	-0.038056232
124	0xbcf4f561	-0.029902162
125	0xbd4b1a52	-0.049585648
126	0x3dc214bf	0.09476613
127	0x3c41d7ed	0.011831266
128	0x3d6270b3	0.05528326
129	0xbdd5a6f4	-0.104322344
130	0xbc4754b0	-0.012166187
131	0xbcca0c99	-0.02466421
132	0xbcb8c3cb	-0.022554299
133	0xbd1cf525	-0.038319726
134	0xbdce49a9	-0.10072643
135	0xbd5f1a10	-0.054468215
136	0xbd2ed01d	-0.04267894
137	0xbd9c90e1	-0.07644821
138	0x3c2c26b0	0.010507271
139	0x3d1c5b67	0.038173106
140	0xbce5a614	-0.028033294
141	0xbd4a01db	-0.049318176
142	0x3d319151	0.043351475
143	0xbbe56fe4	-0.007001864
144	0xbc9b2566	-0.018938731
145	0x3d583669	0.052786265
146	0xbcc3ae74	-0.023886897
147	0xbdc5de61	-0.09661556
148	0xbdaec740	-0.08534098
149	0xbd1abd58	-0.03777823
150	0xbc98abf3	-0.01863668
151	0xbcb5ac6c	-0.022176944
152	0xbd9595aa	-0.07303937
153	0xbc33efea	-0.010982493
154	0xbcb38553	-0.02191416
155	0xbd4b154d	-0.04958086
156	0x3cef6cb4	0.029226638
157	0xbc3484d2	-0.011017995
158	0xbd9c7e28	-0.0764125
159	0x3d80ab31	0.06282652
160	0xbd8fc761	-0.070204504
161	0x3d76a46b	0.060215395
162	0x3d8810e3	0.06643846
163	0xbdaa7a3f	-0.08324098
164	0xbb5e6260	-0.0033933148
165	0x3c72c92b	0.01481847
166	0x3bbd02d6	0.0057681603
167	0xbdb7af21	-0.0896895
168	0xbdbc1cac	-0.09185156
169	0xbc65393a	-0.013990695
170	0x3d885afd	0.0665798
171	0xbdc69da4	-0.09698036
172	0x3aef1495	0.0018240387
173	0xbd9d31b5	-0.076754965
174	0xbdc18477	-0.09449094
175	0x3d0e7f86	0.034789585
176	0x3d4a8210	0.049440444
177	0xbb86292a	-0.0040942626
178	0xbca18186	-0.019715082
179	0xbda6c7e9	-0.081435986
180	0xbd899102	-0.06717111
181	0x3bd96896	0.006634782
182	0xbda534ee	-0.08066736
183	0xbb4670d7	-0.003027966
184	0xbc07ac67	-0.00828085
185	0xbdad099c	-0.084490985
186	0xbc0f8abf	-0.008761107
187	0xbd8d631c	-0.06903669
188	0x3d35fc90	0.044430315
189	0xbd7c2d79	-0.061566804
190	0x3d22819f	0.039674398
191	0xbd8dc7fc	-0.069229096
192	0xbc0736a9	-0.008252778
193	0x3d458fa3	0.048232686
194	0xbdaac615	-0.083385624
195	0xbcdf9176	-0.02729104
196	0xbd9c1745	-0.07621626
197	0xbd3c24d9	-0.04593358
198	0x3cbb1637	0.022837741
199	0xbd14f990	-0.036370814
200	0xbdcc3f7e	-0.09973048
201	0xbd744a07	-0.05964091
202	0xbd79299a	-0.06083069
203	0xbc7de8ac	-0.015497368
204	0x3c2f9161	0.010715813
205	0xbc1392da	-0.00900718
206	0xbd179191	-0.037004057
207	0xbd3f86b4	-0.046759322
208	0xbdb01036	-0.08596842
209	0xbc5bf4fe	-0.01342511
210	0xbdad004b	-0.084473215
211	0xbd8cc701	-0.068738945
212	0x3d786151	0.060639683
213	0xbda1ba6e	-0.07896887
214	0x3d1e47d0	0.038642704
215	0xbcecec6e	-0.028921332
216	0xbd72638d	-0.05917697
217	0xbddde51e	-0.10834716
218	0x3d831e12	0.0640222
219	0xbdc632ab	-0.09677633
220	0x3da58096	0.080811664
221	0xbd9dcbb0	-0.07704866
222	0xbd9fa8fc	-0.07795903
223	0xbc075d5b	-0.008262004
224	0xbdcd5de1	-0.100276716
225	0x3b1dd277	0.0024081746
226	0xbd7b0c2f	-0.061290916
227	0x3d2f3f79	0.04278514
228	0xbd420f38	-0.047377795
229	0x3d8a2ea5	0.06747178
230	0x3d544d55	0.051831562
231	0x3cc79ca8	0.024366692
232	0x3cee6f68	0.029105857
233	0x3ceba507	0.028765215
234	0x3bcf6220	0.006328836
235	0x3c527e80	0.012847543
236	0xbd0248fc	-0.031807885
237	0xbdc2ca85	-0.09511284
238	0x3d1c71e1	0.03819454
239	0x3ce4a351	0.027909907
240	0x3d7fb791	0.062430922
241	0xbd257381	-0.040393356
242	0xbc7e5f43	-0.015525642
243	0x3c16a411	0.00919439
244	0xbd1896bf	-0.037253138
245	0xbd82f15d	-0.06393693
246	0xbba18995	-0.004929731
247	0xbc3b9b6a	-0.011450628
248	0xbdc34567	-0.09534722
249	0xbc5682f1	-0.013092742
250	0x3ccb11a1	0.02478868
251	0xbdd31be6	-0.103080556
252	0x3c5db806	0.013532644
253	0xbda301d4	-0.07959333
254	0x3a7dfe12	0.00096890435
255	0xbd457b7b	-0.048213463

net.2.freq_scale.bias f4 [256]
0	0x3c869efb	0.01643323
1	0xbd513837	-0.051079
2	0xbd204a78	-0.03913352
3	0x3d0a46ba	0.033758856
4	0xbc6c305c	-0.014415827
5	0xbd540e82	-0.05177165
6	0xbc242609	-0.010018834
7	0xbd947937	-0.072496824
8	0xbcbba3eb	-0.02290531
9	0x3d7c0c72	0.061535306
10	0x3d8c1d77	0.068415575
11	0x3d29c409	0.04144672
12	0x3d533d6f	0.05157226
13	0x3d691e8f	0.05691391
14	0x3de8b918	0.11363429
15	0x3ccb8b44	0.02484668
16	0x3db4e790	0.088332295
17	0x3d0b08a3	0.033943783
18	0xbc3b57ec	-0.011434536
19	0x3d4347a4	0.047675744
20	0x3d916b68	0.07100564
21	0x3d4e134a	0.050311364
22	0xbdb4a150	-0.088198304
23	0x3ce6d39d	0.028177077
24	0xbba85ec0	-0.005138248
25	0x3b200a58	0.0024420228
26	0xbd9212d1	-0.07132495
27	0x3d94c3dc	0.0726392
28	0xbd4597bc	-0.04824041
29	0xbd56890e	-0.0523768
30	0x3d8a7add	0.067617156
31	0x3d0da3d9	0.034580085
32	0xbcefa395	-0.029252807
33	0x3cef2d14	0.0291963
34	0xbbead9a3	-0.0071670576
35	0xbb346bec	-0.0027530147
36	0xbd85e601	-0.065380104
37	0x3d937dfb	0.07201763
38	0x3bf37b93	0.0074305027
39	0xbd11ca66	-0.035593413
40	0xbdaacb89	-0.083396025
41	0x3d771934	0.06032677
42	0x3d2e5f16	0.04257115
43	0x3d722078	0.059112996
44	0xbcaadac5	-0.02085627
45	0xbd61b303	-0.05510236
46	0x3d5bbcfb	0.053647023
47	0xbd50bbc0	-0.050960302
48	0x3d6f0090	0.058350146
49	0xbcf604ba	-0.03003155
50	0x3d58a767	0.052894022
51	0x3bdb0027	0.006683368
52	0xbd249989	-0.040185485
53	0x3ceca1cb	0.028885743
54	0x3d554815	0.052070696
55	0xbc383fe6	-0.011245703
56	0x3d192f44	0.03739859
57	0x3dbdfcef	0.09276759
58	0xbabc5ae5	-0.001437035
59	0x3d5a2c47	0.053264882
60	0xbd5025a8	-0.05081716
61	0x3cddd126	0.027077269
62	0x3dc3faa1	0.09569288
63	0x3da13c37	0.07872813
64	0xbdd7ba82	-0.105336204
65	0xbd827e3c	-0.063717335
66	0xbd135668	-0.035971075
67	0x3d84eb2b	0.06490167
68	0xbd16871e	-0.03674995
69	0x3d43c1a1	0.04779208
70	0x3c2b19a7	0.010443128
71	0x3daebe8f	0.0853244
72	0xbd694509	-0.056950603
73	0xbd53aa9c	-0.051676378
74	0xbba569b0	-0.0050479993
75	0x3ac3cba3	0.0014938008
76	0x3cb52634	0.022112943
77	0xbd1677c0	-0.036735296
78	0x3d0ed598	0.034871668
79	0x3d3d5e61	0.046232585
80	0xbbab1059	-0.0052204547
81	0xbcab3553	-0.02089945
82	0x3da9489b	0.082658015
83	0xbb82554e	-0.0039774543
84	0xbc0261ad	-0.007957858
85	0x3dbfb1e7	0.09360104
86	0xbd367f13	-0.04455478
87	0xbd3fcaf6	-0.046824418
88	0x3b3993ee	0.0028316933
89	0xbdd3050a	-0.103036955
90	0xbc5cdb5b	-0.013480033
91	0xbc9a0b4b	-0.018804213
92	0x3d3fccb1	0.04682607
93	0xbbb6e991	-0.0055820425
94	0xbd922dcc	-0.07137641
95	0x3d1d3e88	0.038389713
96	0xbd2acc89	-0.041698966
97	0x3ccd5edc	0.025069647
98	0x3b5ac9a2	0.0033384343
99	0xbcc73d48	-0.024321213
100	0xbd73a5ac	-0.05948417
101	0xbd680c0a	-0.056652106
102	0xba1f93b8	-0.00060873805
103	0x3d045cf1	0.0323152
104	0x3d996439	0.07489819
105	0x3d54e37a	0.05197475
106	0x3d6235a2	0.05522693
107	0x3d15066a	0.03638307
108	0x3bae6b3c	0.005322842
109	0x3cc339f7	0.02383135
110	0xbd21d951	-0.03951389
111	0xbdfe3efd	-0.12414358
112	0x3d0507b2	0.032478042
113	0x3dc1a88e	0.094559774
114	0xbbc3d46d	-0.005976251
115	0x3d8c66b9	0.0685553
116	0x3c3e5449	0.011616775
117	0x3d123932	0.035699077
118	0x3d9f452b	0.077768646
119	0xbc7c5bd5	-0.015402754
120	0xbd8c51e0	-0.06851554
121	0xbdb3d4c6	-0.08780818
122	0x3d92cd65	0.07168082
123	0x3db861fa	0.090030625
124	0xbdb4cf07	-0.0882855
125	0x3d0b2e01	0.03397942
126	0xbd1961d9	-0.03744683
127	0xbc91f6e1	-0.017817916
128	0xbc24a1ff	-0.0100483885
129	0x3d2d384e	0.042290024
130	0x3c791b33	0.015204239
131	0xbd915f05	-0.07098202
132	0x3d2bc7f8	0.041938752
133	0x3d841d3d	0.06450889
134	0xbdab7471	-0.08371819
135	0xbdc712cc	-0.09720382
136	0xbdcbcf0c	-0.099516004
137	0x3c5af0f9	0.013363116
138	0x3dcdd233	0.10049858
139	0xbd32ded6	-0.043669544
140	0x3b808318	0.0039218776
141	0xbd9babdd	-0.0760114
142	0xbdabb4f7	-0.08384126
143	0x3d9410e9	0.07229788
144	0xbd7202d4	-0.05908473
145	0x3d18a5c3	0.037267458
146	0xbc77b4b1	-0.015118764
147	0xbd86171a	-0.06547375
148	0xbb9e975b	-0.0048398203
149	0xb9874358	-0.00025799382
150	0xbdb2750a	-0.0871373
151	0xbd80d4be	-0.06290577
152	0xbc04f2a1	-0.008114488
153	0x3d0d1da4	0.034452096
154	0xbcd2687d	-0.02568459
155	0xbc770108	-0.015075929
156	0xbd7b1dd8	-0.061307758
157	0x3c712669	0.01471863
158	0xbd22586a	-0.0396351
159	0xbd902c7a	-0.07039733
160	0x3c903723	0.017604416
161	0x3d7c35a1	0.061574582
162	0xbcbb62f4	-0.022874333
163	0xbd3494aa	-0.04408709
164	0x3c9318c9	0.017956154
165	0x3b0cd1c8	0.0021487344
166	0xbc95348b	-0.018213531
167	0x3cc0757d	0.023493523
168	0xbc816888	-0.015796915
169	0xbcfded18	-0.030996844
170	0x3dcda5a2	0.100413576
171	0x3d08f3b2	0.03343553
172	0x3d29d9f1	0.04146761
173	0xbcc255a9	-0.023722487
174	0x3d11be45	0.035581846
175	0xbb2322cc	-0.0024892567
176	0xbd4711cf	-0.048600968
177	0x3da831c7	0.08212619
178	0xbd7b4c4c	-0.06135206
179	0x3bad947a	0.005297241
180	0x3d6171dc	0.055040225
181	0xbce5fea6	-0.028075527
182	0xbd53afc0	-0.05168128
183	0xbd8659cc	-0.06560096
184	0x3dc907be	0.0981593
185	0xbcfbacc7	-0.030722035
186	0xbc6646b8	-0.014054947
187	0x3d40ed29	0.047101174
188	0x3c34f6c6	0.0110451635
189	0x3c295a22	0.010336431
190	0x3cbde089	0.023178356
191	0x3c3a3889	0.011366018
192	0x3b834c30	0.004006885
193	0x3da99fa0	0.08282399
194	0x3d5e1df3	0.05422778
195	0xbdc9c40f	-0.09851848
196	0x3d71c20b	0.059022944
197	0xbc5c646f	-0.01345168
198	0xbdb0b03b	-0.08627363
199	0xbd478267	-0.048708346
200	0x3c99c553	0.01877085
201	0xbd3e2f04	-0.046431556
202	0xbdc77a08	-0.097400725
203	0x3d73c348	0.059512407
204	0x3d6ff948	0.058587343
205	0xbd5c3612	-0.053762503
206	0x3b9df249	0.0048201424
207	0xbce9fa02	-0.028561596
208	0x3d1a2ca0	0.037640214
209	0x3c1f013b	0.009704883
210	0xbca5e2f4	-0.020249821
211	0xbd7b1fbe	-0.06130957
212	0x3d8b6c6f	0.068077914
213	0x3ce07195	0.02739791
214	0x3c9d809f	0.01922637
215	0x3d54af4f	0.051925
216	0xbd2c3c29	-0.04204956
217	0x3c534dbe	0.012896953
218	0xbd730576	-0.05933138
219	0xbda3176d	-0.079634525
220	0xbd89d7ec	-0.06730637
221	0x3c4e6a42	0.012598576
222	0x3bd9b4e3	0.006643878
223	0xbd93cd22	-0.0721686
224	0x3d8609bc	0.065448254
225	0xbd776c5a	-0.060406066
226	0x3d8c7dd8	0.0685994
227	0xbc5eb2d9	-0.013592445
228	0xbc33b21e	-0.010967759
229	0xbdb71302	-0.08939172
230	0xbd56cf4d	-0.05244379
231	0xbc8572e9	-0.016290145
232	0xbdb0306b	-0.08602985
233	0x3d1889fc	0.037240967
234	0xbd967c3d	-0.07347915
235	0x3d102372	0.035190053
236	0xbd6d8902	-0.05799199
237	0xbdb7fcb5	-0.08983747
238	0xbc9f9db8	-0.019484386
239	0xbc8d9739	-0.017284023
240	0xbd18b02a	-0.03727738
241	0x3d293d23	0.04131807
242	0xbcaa30e2	-0.020775262
243	0xbc60ed46	-0.013728445
244	0xbd6cbdd9	-0.05779824
245	0xbd298428	-0.0413858
246	0x3d7bb2ff	0.06145
247	0xbd9a1cb0	-0.07525003
248	0xbc91fa95	-0.017819682
249	0x3ca94663	0.020663446
250	0xbd815590	-0.06315148
251	0xbd12f6a0	-0.03587973
252	0xbd788f3b	-0.06068347
253	0xbd9b45ee	-0.075816974
254	0x3d9d055a	0.07667036
255	0x3c31f5ce	0.010861827

net.3.weight f4 [1, 128]
0	0xbd057c09	-0.032588992
1	0x3b88d345	0.004175576
2	0xbd6d4a50	-0.057932198
3	0xbccf1974	-0.025280692
4	0x3d302a9b	0.04300938
5	0x3aa2756b	0.0012394612
6	0xbd2f9bef	-0.04287332
7	0xbd8aa9cf	-0.0677067
8	0xbbdfe088	-0.006832186
9	0x3d81e1b8	0.063418806
10	0x3d2fe088	0.04293874
11	0xbc970380	-0.018434286
12	0xbb5f5b27	-0.003408143
13	0x3d1a92e4	0.037737742
14	0x3bda5f2b	0.006664177
15	0xbd20728e	-0.039171748
16	0x3ce94904	0.0284772
17	0x3a1ff52d	0.00061019027
18	0xbd594a8b	-0.053049605
19	0xbd56f5d9	-0.052480552
20	0xbcfe9d34	-0.03108082
21	0xbd8b8f47	-0.06814437
22	0xbd75f293	-0.06004579
23	0x3c5fe4db	0.013665403
24	0xbb2c9f41	-0.002634004
25	0xbd3d5783	-0.046226036
26	0xbd3d72d0	-0.04625207
27	0x3d0e3192	0.034715243
28	0x3c223726	0.009900844
29	0x3d7356f9	0.059409115
30	0x3c61e589	0.013787636
31	0x3ca409cb	0.0200242
32	0x3c0dce22	0.008655103
33	0x3c2a12ee	0.01038049
34	0x3d577934	0.052605823
35	0xbcf0b348	-0.029382363
36	0xbd503241	-0.050829176
37	0xba347e94	-0.00068853167
38	0xbd199475	-0.037495095
39	0x3b9d1928	0.0047942586
40	0xbb00b628	-0.0019639824
41	0x3cd81633	0.026377773
42	0xbcb49088	-0.022041574
43	0xbd026ed8	-0.03184399
44	0xbb020d39	-0.0019844307
45	0xbad11fc8	-0.0015954906
46	0x3b26d9c2	0.0025459384
47	0xbb40ab17	-0.0029398852
48	0x3cefcdea	0.029272992
49	0xbd08b8a3	-0.03337921
50	0x3d690ea1	0.056898717
51	0x3d58407b	0.05279587
52	0x3d764069	0.06012002
53	0x3b95bea5	0.0045698457
54	0xba5f135b	-0.0008509659
55	0xbd485adf	-0.048914786
56	0xbd18e84e	-0.037330918
57	0x3d488a14	0.048959807
58	0x3c1134d4	0.008862693
59	0x3c3e04a7	0.011597789
60	0x3c98288d	0.018574024
61	0x3c4c7b10	0.012480512
62	0xb98e0ea1	-0.0002709525
63	0x3d4c4767	0.049872782
64	0xbd6eeec1	-0.058333162
65	0x3d48b772	0.049003072
66	0xbd93c83c	-0.07215926
67	0xbcec5beb	-0.028852424
68	0xbd85411c	-0.06506559
69	0xbd6f5e43	-0.058439504
70	0xbd453bf0	-0.048152864
71	0xbc75f771	-0.015012608
72	0xbb374cd7	-0.0027969384
73	0xb953458f	-0.0002014844
74	0xbcea0896	-0.028568547
75	0x3d8bda54	0.06828752
76	0xbb31b299	-0.002711451
77	0x3b844dfc	0.004037617
78	0x3c821db1	0.015883299
79	0xbc0bc982	-0.00853193
80	0x3cd8bef7	0.026458247
81	0xbbcf409a	-0.00632484
82	0x3d18a443	0.037266027
83	0x3d725f2f	0.059172805
84	0x3d4d234f	0.0500825
85	0x3cfb9733	0.030711746
86	0xbd1df01b	-0.03855906
87	0xbcc82668	-0.024432376
88	0x3c14d59e	0.009084133
89	0xbd59810d	-0.053101588
90	0x3c61fcbd	0.013793168
91	0xbd3602b3	-0.044436168
92	0xbd023d0e	-0.031796508
93	0xbc36d146	-0.011158293
94	0x3d86287e	0.06550692
95	0xbb923c79	-0.0044627753
96	0xbd88567b	-0.0665712
97	0x3d4fd94e	0.050744347
98	0x3d294663	0.04132689
99	0xbd7a53f2	-0.061115213
100	0xbc982550	-0.01857248
101	0x3cdf4956	0.027256649
102	0x3d31caea	0.043406405
103	0x3d374a9f	0.0447489
104	0x3ccab7aa	0.024745781
105	0x3b4aeb9e	0.0030963193
106	0x3d83b7c0	0.06431532
107	0xbd71c7db	-0.059028488
108	0x3c00ca36	0.007860711
109	0xbd5495ba	-0.051900603
110	0xbc831b0c	-0.016004108
111	0xbbdd80dd	-0.0067597465
112	0x3c042e4d	0.00806768
113	0xbd8fd391	-0.07022775
114	0xbd5b2fe0	-0.053512454
115	0xbd50a14c	-0.050935075
116	0x3bf93488	0.007605139
117	0x3c96eff5	0.018424967
118	0x3b155870	0.0022788309
119	0x39330148	0.00017071248
120	0x3ca3123c	0.019906156
121	0x3cf1c20a	0.02951147
122	0xbd85a89e	-0.06526302
123	0x3bcdcb98	0.006280374
124	0xbcc3a7ce	-0.023883726
125	0x3b8849d3	0.004159191
126	0xbcfd0ee0	-0.030890882
127	0x3d2655df	0.040609237
