path/to/dir/cond_wire/2026_01_28__15_28_49-no_wandb_id/2026_01_28__15_28_49-no_wandb_id-model.pt (torch, 72884 bytes, 7 tensors)

net.0.freq_scale.weight f4 [128, 3]
0.4612852 0.30893737 0.28279716 0.06921322 0.15321127 0.4482348 0.24925707 -0.48894027
-0.44413278 -0.012255033 0.3343488 0.30949646 0.5065909 0.23288359 -0.5143687 -0.31485072
0.34559128 0.022453383 0.17822678 0.18052322 -0.22472991 -0.11345996 0.27449557 -0.57965857
0.41163054 0.1061498 0.50871694 -0.10205857 -0.021811271 0.17576031 -0.2965983 0.19375652
-0.08295126 0.021283608 -0.38653138 -0.5130846 0.47085252 -0.55290484 0.48718244 0.40693027
0.35439673 0.31153965 0.111366734 0.31980345 -0.13914503 -0.1985173 0.2787504 0.50530374
-0.23238818 0.28280586 -0.23738778 -0.48102382 0.10577369 -0.36616117 0.37609747 0.37535295
0.16973113 -0.40519115 0.48641825 -0.087765634 -0.51883936 -0.5122054 0.16189149 0.10530534
-0.10477413 0.06790423 -0.13871096 0.08927419 0.0053181583 0.24148138 -0.5390543 0.54175234
-0.25092566 0.42474353 -0.48144773 -0.5304478 -0.41313183 0.3842086 0.1089499 0.033889476
-0.36780113 -0.09198916 0.29583636 0.2885435 0.48337647 -0.50208217 0.13342777 -0.22257869
-0.48191145 -0.14382522 0.10032561 -0.5642013 -0.16778457 0.52817106 -0.3798107 -0.17678764
-0.18058044 -0.5017294 -0.10317026 0.40098247 0.19114003 -0.5210464 -0.18392234 -0.44546396
0.05178522 -0.2860939 0.3685809 -0.46249336 0.39457867 0.41235322 -0.45794848 0.31620246
-0.14340203 0.14147027 0.41210157 -0.19560514 -0.034411766 -0.43299633 0.34607473 0.33522463
0.29345462 -0.095207796 0.30536547 -0.2981579 -0.50921756 -0.24639164 -0.43040374 0.30474392
-0.5182238 0.22720052 0.11103544 0.21720345 0.38391536 -0.042558648 -0.11914454 0.016578501
-0.5021367 -0.45641413 0.09812956 -0.47330007 -0.3463658 0.10843739 0.12112468 0.14030217
-0.34070086 0.3888691 0.2445315 0.39109576 -0.39742768 0.31642085 0.21829723 0.47640017
0.2749238 0.01635071 0.11257221 0.5663509 -0.10129085 0.41355368 -0.1581596 0.11871927
0.5161466 0.051066756 -0.4071396 -0.08264555 0.22265142 -0.1661324 -0.25047615 -0.33995333
0.07704417 0.3666222 0.19258022 0.47741178 0.045021497 0.29674357 -0.5097831 -0.16718303
-0.1496325 -0.057347238 -0.40163174 0.34657046 -0.29683232 0.37787706 0.23611188 0.099119425
-0.17007473 0.13159092 -0.2851409 -0.18710075 0.23053263 -0.2095114 -0.17426874 0.3861606
-0.3972527 0.4296878 0.12506302 0.40637553 -0.18495534 -0.0815264 -0.5160927 -0.22005893
0.32793498 -0.018624516 0.11217824 -0.5060431 -0.3498002 0.4848193 -0.28319275 -0.43455794
0.2942928 -0.48777628 -0.21302542 0.43977913 -0.0055357283 0.039654665 -0.10151633 0.38935325
-0.3337077 -0.2807377 0.21950158 -0.31971455 -0.012379989 -0.5406579 0.54778206 0.17912358
-0.12471248 0.36986956 0.35906222 -0.41905692 -0.39438114 -0.5042974 0.04355363 -0.4146739
0.5594853 0.3173729 -0.29882303 0.30843422 -0.46061224 0.05977768 -0.54875934 0.46609968
-0.5187616 0.15768208 0.17199083 -0.5684835 -0.16703932 -0.094380714 0.32315397 0.11948016
-0.24893904 -0.12038833 0.3955727 -0.41559818 -0.513356 0.31428513 0.26676303 0.24963446
00000000: 932d ec3e 0a2d 9e3e caca 903e a9bf 8d3d
00000010: 6ae3 1c3e 087f e53e 3f3d 7f3e 6156 fabe
00000020: 5f65 e3be 55c9 48bc c42f ab3e 5276 9e3e
00000030: f1af 013f 0979 6e3e abad 03bf 1d34 a1be
00000040: 57f1 b03e 28f0 b73c 1581 363e 14db 383e
00000050: 991f 66be b25d e8bd af8a 8c3e 8164 14bf
00000060: 3dc1 d23e 1165 d93d 463b 023f 1504 d1bd
00000070: 8dad b2bc 83fa 333e bbdb 97be 1c68 463e
00000080: 5ae2 a9bd f65a ae3c 71e7 c5be 8359 03bf
00000090: 9513 f13e 2c8b 0dbf fa6f f93e 2a59 d03e
000000a0: 7d73 b53e 2082 9f3e 3e14 e43d 47bd a33e
000000b0: 097c 0ebe 1e48 4bbe 5fb8 8e3e 965b 013f
000000c0: 2bf7 6dbe eecb 903e c815 73be c148 f6be
000000d0: e09f d83d 7a79 bbbe d98f c03e 432e c03e
000000e0: ffcd 2d3e 3775 cfbe d00b f93e 78be b3bd
000000f0: a8d2 04bf e51f 03bf e2c6 253e 53aa d73d
00000100: d293 d6bd 5f11 8b3d 3f0a 0ebe 63d5 b63d
00000110: f243 ae3b e546 773e 76ff 09bf 48b0 0a3f
00000120: 5479 80be fc77 d93e 5180 f6be 6dcb 07bf
00000130: 0486 d3be fdb6 c43e 2021 df3d b1cf 0a3d
00000140: 6e50 bcbe d064 bcbd dd77 973e f9bb 933e
00000150: 1f7d f73e 7588 00bf 4aa1 083e abeb 63be
00000160: 19bd f6be eb46 13be 8377 cd3d 7f6f 10bf
00000170: b8cf 2bbe 3836 073f 8c76 c2be d207 35be
00000180: 14ea 38be 5771 00bf ee4a d3bd 934d cd3e
00000190: 36ba 433e 4c63 05bf 2356 3cbe da13 e4be
000001a0: bd1c 543d e67a 92be a3b6 bc3e eecb ecbe
000001b0: 3706 ca3e f61f d33e 3978 eabe 4ae5 a13e
000001c0: fbd7 12be 95dd 103e fafe d23e b74c 48be
000001d0: 5af3 0cbd b2b1 ddbe b530 b13e 90a2 ab3e
000001e0: af3f 963e 4efc c2bd dd58 9c3e 27a8 98be
000001f0: 155c 02bf 174e 7cbe e15d dcbe 6507 9c3e
00000200: 51aa 04bf 41a7 683e 8c66 e33d 956a 5e3e
00000210: 8e90 c43e fa51 2ebd 0d02 f4bd a3cf 873c
00000220: 088c 00bf 1daf e9be 27f8 c83d 6354 f2be
00000230: dc56 b1be 6c14 de3d 3710 f83d 5fab 0f3e
00000240: 5870 aebe da19 c73e 7766 7a3e b43d c83e
00000250: a47b cbbe ea01 a23e 4f89 5f3e b9ea f33e
00000260: d0c2 8c3e edf1 853c 428c e63d 5ffc 103f
00000270: 9471 cfbd 4fbd d33e 97f4 21be 1723 f33d
00000280: 2f22 043f 602b 513d 9a74 d0be 1242 a9bd
00000290: bcfe 633e 9d1e 2abe 693e 80be 5d0e aebe
000002a0: 55c9 9d3d e8b5 bb3e c033 453e 516f f43e
000002b0: 7668 383d c6ee 973e 2581 02bf 0732 2bbe
000002c0: 4339 19be f0e4 6abd ada2 cdbe af71 b13e
000002d0: 68fa 97be 1a79 c13e 50c7 713e 20ff ca3d
000002e0: 1228 2ebe c5bf 063e fdfd 91be 5797 3fbe
000002f0: bf10 6c3e 288a 56be 8173 32be d8b6 c53e
00000300: b564 cbbe 0a00 dc3e 8510 003e 7410 d03e
00000310: ef64 3dbe 50f7 a6bd a71e 04bf 2157 61be
00000320: 18e7 a73e 7192 98bc b5bd e53d 0a8c 01bf
00000330: 0319 b3be 3c3a f83e a4fe 90be 617e debe
00000340: 8cad 963e d0bd f9be 5623 5abe bb2a e13e
00000350: 0e65 b5bb ee6c 223d cbe7 cfbd 4f59 c73e
00000360: bcdb aabe dabc 8fbe 06c5 603e a0b1 a3be
00000370: 70d5 4abc 8e68 0abf 723b 0c3f 2c6c 373e
00000380: 4269 ffbd 8b5f bd3e 01d7 b73e a18e d6be
00000390: 53ec c9be a219 01bf 4b65 323d 2350 d4be
000003a0: 6e3a 0f3f b37e a23e 55ff 98be 17eb 9d3e
000003b0: 5ed5 ebbe 71d9 743d 7e7b 0cbf 9ea4 ee3e
000003c0: 8fcd 04bf 6977 213e 5d1e 303e 2288 11bf
000003d0: 5b0c 2bbe ad4a c1bd 7074 a53e 04b2 f43d
000003e0: e0e9 7ebe 288e f6bd 8188 ca3e 49c9 d4be
000003f0: 4c6b 03bf fbe9 a03e 2a95 883e 2da0 7f3e

net.0.freq_scale.bias f4 [128]
-0.119502105 -0.16149619 -0.037506774 0.35278952 0.32743138 -0.41057804 -0.04895874 -0.23312591
-0.27411094 -0.2885564 -0.25845894 -0.51260066 0.57512575 0.048422165 0.4914584 -0.14077543
-0.10141445 0.11228125 0.55654454 0.07434692 -0.44372484 -0.5590538 -0.05418207 -0.31521297
-0.5440823 0.37688646 -0.16051194 -0.012709561 0.06689672 -0.3136101 0.4932004 0.37021607
0.07165733 -0.4329666 0.5162504 -0.4573506 -0.45027643 0.5048177 -0.001491045 -0.08740972
0.11418382 0.25113535 0.5060043 0.5359133 0.01867576 -0.057297148 0.5378562 -0.1773067
0.048734233 0.5332933 -0.54768634 -0.5014437 -0.35989192 -0.46429557 -0.3704816 -0.042612407
-0.39635962 -0.38668597 0.30393884 -0.1439015 0.5300233 0.18983006 -0.025945751 0.5383973
0.1364007 0.30413562 -0.56477696 0.4974606 0.065503225 0.5231028 0.2578202 -0.093552165
0.48522928 -0.21855815 -0.09165034 0.32029995 0.34682432 0.34427372 -0.39801386 0.0733972
-0.11369257 -0.22325543 0.40450057 -0.21374282 0.038325787 0.1486535 -0.3483361 -0.20131089
-0.21873577 0.5166818 -0.068063475 -0.44529918 0.09201749 0.46675476 -0.38077155 0.14320892
-0.45459417 -0.02467021 -0.56047964 -0.11905098 -0.25961405 0.18600379 0.09256387 -0.26291993
-0.23009904 -0.276753 0.37001324 0.1269607 0.07810399 0.1622118 -0.4210302 0.4907242
-0.51454973 0.2865942 -0.51721793 -0.3993535 -0.4133378 0.22490172 0.16836084 0.18524761
-0.08489303 0.34047073 0.32154283 -0.4523976 -0.003804684 0.438404 0.2665535 0.1765482
00000000: 85bd f4bd 425f 25be b4a0 19bd d4a0 b43e
00000010: 16a5 a73e 4937 d2be f688 48bd 8fb8 6ebe
00000020: 4558 8cbe aabd 93be bb54 84be cc39 03bf
00000030: 713b 133f 5256 463d 6fa0 fb3e 6f27 10be
00000040: 61b2 cfbd b6f3 e53d b479 0e3f 3343 983d
00000050: e72f e3be 261e 0fbf 05ee 5dbd 9863 a1be
00000060: fa48 0bbf 43f7 c03e 3e5d 24be c33b 50bc
00000070: 2601 893d 8191 a0be c384 fc3e f68c bd3e
00000080: 14c1 923d ccad ddbe fc28 043f dc29 eabe
00000090: a28a e6be bc3b 013f 2b6f c3ba de03 b3bd
000000a0: 35d9 e93d d094 803e 7f89 013f 9d31 093f
000000b0: e8fd 983c 6ab0 6abd f2b0 093f e38f 35be
000000c0: 8c9d 473d e985 083f 2c35 0cbf 9d5e 00bf
000000d0: c143 b8be 26b8 edbe c4af bdbe 598a 2ebd
000000e0: a6ef cabe b4fb c5be df9d 9b3e ea5a 13be
000000f0: 9baf 073f d062 423e 2f8c d4bc 68d4 093f
00000100: a0ac 0b3e aab7 9b3e 3995 10bf 28b3 fe3e
00000110: 8e26 863d 11ea 053f 0201 843e 4798 bfbd
00000120: f96f f83e b5cd 5fbe 2cb3 bbbd 5bfe a33e
00000130: f592 b13e a544 b03e 79c8 cbbe 4551 963d
00000140: a6d7 e8bd 129d 64be b31a cf3e 66df 5abe
00000150: 80fb 1c3d a038 183e 1c59 b2be 7124 4ebe
00000160: 45fc 5fbe 4245 043f dd64 8bbd 41fe e3be
00000170: aa73 bc3d 7bfa ee3e 7df4 c2be 5ca5 123e
00000180: 91c0 e8be 2e19 cabc 987b 0fbf 00d1 f3bd
00000190: 22ec 84be c777 3e3e 2092 bd3d 719d 86be
000001a0: 159f 6bbe 92b2 8dbe 6072 bd3e fc01 023e
000001b0: fcf4 9f3d da1a 263e 4591 d7be 3440 fb3e
000001c0: 88b9 03bf 7abc 923e 6568 04bf 1078 ccbe
000001d0: 03a1 d3be a34c 663e c966 2c3e 8db1 3d3e
000001e0: 66dc adbd 2e52 ae3e 43a1 a43e a9a0 e7be
000001f0: 0158 79bb 7d76 e03e b379 883e 0dc9 343e

net.1.freq_scale.weight f4 [128, 64]
0.031591754 -0.051212374 0.021054275 0.04814534 0.05755957 -0.1354946 0.09635912 0.10636665
0.040021073 0.12938695 0.078848116 0.08480668 0.045862164 -0.052674532 0.12267812 -0.010812062
-0.10946489 -0.02198001 0.02031608 0.07460898 0.06983158 -0.08594637 -0.039009996 -0.06391548
0.11557314 0.007965517 -0.019768609 0.07237473 -0.12626162 -0.052537765 0.055965424 -0.02941194
0.048620965 -0.057324566 0.16037259 -0.051007554 -0.00089641917 -0.05747858 -0.08969457 0.045755815
0.08303057 -0.13200971 0.07596892 -0.07737406 0.06266723 -0.0974512 0.05671297 -0.011529408
0.027082626 0.079798914 -0.04595449 -0.11917779 -0.1042684 0.13821025 0.102023244 -0.10303501
-0.105635695 -0.12199934 0.13528864 0.13051508 0.018968204 0.07091088 -0.108206786 -0.017336445
-0.07828918 -0.04588086 -0.10820005 -0.02123211 -0.03559997 0.07785087 -0.11731333 0.14052892
-0.10865394 0.08720055 -0.046671953 0.14588192 -0.049195357 -0.0011131105 -0.09295674 0.123711765
0.05563437 0.053888816 -0.006763748 0.070030876 -0.14074853 -0.09324038 0.1633239 0.14005677
0.013726279 -0.06525446 0.0174378 -0.017345622 0.04425112 0.097910814 0.09638155 -0.101595625
0.07700593 -0.059157662 -0.019504255 -0.0045162695 0.08291522 0.01626575 -0.08426269 -0.1210673
0.05527805 0.050007597 -0.09928355 0.031864427 0.021131877 0.06360535 -0.039097887 -0.12220348
-0.0782017 0.07890425 0.07376992 0.0766005 -0.05304931 0.10717255 -0.120351285 0.05541547
-0.057709925 -0.03773357 -0.056612626 -0.11587475 -0.0057685473 -0.03786259 -0.064832054 -0.057613134
0.066573724 -0.07379455 -0.012880617 -0.006350817 0.081407905 0.013839498 0.05291783 -0.060677774
0.14481041 -0.023130883 0.019593392 0.047117315 -0.096372075 0.03323306 -0.07566262 -0.12744722
0.01933953 -0.039505843 0.10543442 -0.0387141 0.1055814 -0.1464737 0.07435021 0.057953447
0.076093785 -0.1025919 -0.14081043 -0.03951996 0.096418336 0.020345064 0.092331685 0.07271303
0.12830186 -0.110955074 0.08208037 -0.06615894 0.06369307 -0.08191777 0.00073174183 0.026663294
-0.109387085 -0.020391703 0.067177415 0.08959045 0.09118496 0.09104557 -0.030072242 0.004754459
-0.05845573 0.13055433 -0.05679984 -0.008311372 0.020994706 0.12417767 -0.076701306 -0.1148923
-0.13593332 -0.07997501 0.051604524 0.11635917 -0.1094687 -0.09031022 -0.09314665 0.14854953
-0.002204988 0.0025627725 -0.11160871 0.062344544 -0.10926828 0.11583801 -0.06280978 -0.13780466
-0.0037601118 0.14745446 0.027974924 -0.04117999 -0.01635979 -0.040347084 0.01876627 -0.03652691
-0.046398044 -0.07184406 0.073031396 -0.07337592 -0.08258556 -0.06653039 -0.017754935 0.029386433
-0.16183017 -0.112859815 -0.03127463 0.0047284444 -0.106436715 -0.020369016 -0.11893296 0.101996824
-0.15373275 0.113273926 -0.06159463 -0.09373392 -0.021034325 -0.0615235 0.111828916 -0.0033400329
-0.0817991 -0.069451705 -0.03512993 0.12758216 0.02658921 -0.084367014 -0.0862289 0.103604555
-0.07114575 0.021456515 0.08012151 0.032303568 0.026016029 -0.021868374 0.11360186 0.13544403
0.09032691 0.014668386 0.030521454 -0.038959492 0.03887373 0.10870844 -0.032426752 0.0677239
00000000: 5b66 013d 11c4 51bd 047a ac3c 0c34 453d
00000010: 95c3 6b3d 19bf 0abe ee57 c53d c2d6 d93d
00000020: 23ed 233d 037e 043e 1f7b a13d 20af ad3d
00000030: f7d9 3b3d 40c1 57bd ab3e fb3d 1325 31bc
00000040: 212f e0bd 6c0f b4bc e86d a63c 98cc 983d
00000050: dc03 8f3d a704 b0bd f2c8 1fbd 1fe6 82bd
00000060: 9cb1 ec3d cd81 023c c7f1 a1bc 3439 943d
00000070: ba4a 01be d731 57bd 003c 653d 4ff1 f0bc
00000080: c726 473d 2acd 6abd b638 243e 4ced 50bd
00000090: acfd 6aba a96e 6bbd c9b1 b7bd 736a 3b3d
000000a0: ee0b aa3d 8e2d 07be 9895 9b3d 4b76 9ebd
000000b0: ad57 803d 7f94 c7bd dc4b 683d d8e5 3cbc
000000c0: 62dc dd3c 9d6d a33d c63a 3cbd 7c13 f4bd
000000d0: ac8a d5bd fd86 0d3e 90f1 d03d 0504 d3bd
000000e0: 8757 d8bd cada f9bd 1b89 0a3e bfa5 053e
000000f0: 3563 9b3c b939 913d 859b ddbd 2905 8ebc
00000100: 1456 a0bd 92ed 3bbd fd97 ddbd f6ee adbc
00000110: 46d1 11bd 4770 9f3d f941 f0bd d0e6 0f3e
00000120: f585 debd 3496 b23d 172b 3fbd 1262 153e
00000130: 1281 49bd cae5 91ba 1a60 bebd 985c fd3d
00000140: dde0 633d 85ba 5c3d 6ea2 ddbb 596c 8f3d
00000150: 6220 10be d0f4 bebd 613e 273e 0b6b 0f3e
00000160: 30e4 603c 21a4 85bd b8d9 8e3c 6818 8ebc
00000170: aa40 353d 7785 c83d b163 c53d 5e11 d0bd
00000180: 49b5 9d3d 4e4f 72bd 63c7 9fbc 37fd 93bb
00000190: 74cf a93d c03f 853c eb91 acbd 22f2 f7bd
000001a0: 3d6b 623d c4d4 4c3d 2d55 cbbd 4684 023d
000001b0: c21c ad3c 8643 823d 1b25 20bd d145 fabd
000001c0: 3628 a0bd 8d98 a13d af14 973d b9e0 9c3d
000001d0: 3c4a 59bd 487d db3d bc7a f6bd 55fb 623d
000001e0: 3e61 6cbd 848e 1abd a4e2 67bd be4f edbd
000001f0: 1506 bdbb ce15 1bbd abc6 84bd c0fb 6bbd
00000200: ce57 883d 9921 97bd 3909 53bc 841a d0bb
00000210: 30b9 a63d 10bf 623c 5ec0 583d 4289 78bd
00000220: 2e49 143e fa7c bdbc 5282 a03c 16fe 403d
00000230: b95e c5bd 641f 083d 01f5 9abd 8681 02be
00000240: ef6d 9e3c e1d0 21bd 00ee d73d ad92 1ebd
00000250: 103b d83d 34fd 15be ec44 983d 9860 6d3d
00000260: 0fd7 9b3d b41b d2bd 9c30 10be aedf 21bd
00000270: fa76 c53d b1aa a63c 6518 bd3d 92ea 943d
00000280: 9061 033e 6a3c e3bd c119 a83d 577e 87bd
00000290: 8371 823d 81c4 a7bd 5dd2 3f3a fb6c da3c
000002a0: 5606 e0bd 800c a7bc 5094 893d 337b b73d
000002b0: 2ebf ba3d 1a76 ba3d 105a f6bc 4bcb 9b3b
000002c0: 476f 6fbd 09b0 053e f3a6 68bd 6c2c 08bc
000002d0: 17fd ab3c dd50 fe3d 9315 9dbd a74c ebbd
000002e0: 1b32 0bbe f0c9 a3bd 445f 533d b74d ee3d
000002f0: 2031 e0bd 91f4 b8bd acc3 bebd 5e1d 183e
00000300: 8f81 10bb 30f4 273b 1b93 e4bd fe5c 7f3d
00000310: 0cc8 dfbd 7b3c ed3d 6aa2 80bd aa1c 0dbe
00000320: 356c 76bb 4dfe 163e ab2b e53c 59ac 28bd
00000330: f704 86bc fc42 25bd b8bb 993c 3e9d 15bd
00000340: e00b 3ebd fb22 93bd 7c91 953d 1d46 96bd
00000350: 9e22 a9bd 1641 88bd cc72 91bc d1bb f03c
00000360: cfb6 25be 0c23 e7bd d419 00bd 11f1 9a3b
00000370: 7efb d9bd ecdc a6bc 2093 f3bd b6e3 d03d
00000380: 1e6c 1dbe 29fc e73d a74a 7cbd 92f7 bfbd
00000390: 2d50 acbc 1100 7cbd 8f06 e53d 74e4 5abb
000003a0: 4986 a7bd b23c 8ebd 67e4 0fbd e6a4 023e
000003b0: 9dd1 d93c 9dc8 acbd c798 b0bd a02e d43d
000003c0: ddb4 91bd 93c5 af3c bf16 a43d bf50 043d
000003d0: 911f d53c 4e25 b3bc 18a8 e83d d7b1 0a3e
000003e0: 51fd b83d ac53 703c 2108 fa3c fd93 1fbd
000003f0: 0f3a 1f3d 88a2 de3d ead1 04bd d4b2 8a3d

net.1.freq_scale.bias f4 [128]
0.09258973 -0.09362803 0.025838047 -0.13537619 -0.05024891 -0.011526894 -0.015378748 -0.01738629
-0.099391654 -0.08814533 0.025775298 0.038100474 0.016451905 0.0094045 -0.08574711 0.007334559
0.011201459 -0.08837586 -0.009439526 -0.121186785 0.03248135 0.11141987 0.011201987 -0.007853448
0.00083730294 0.059929978 0.08574323 -0.066717274 -0.10521229 0.091952264 0.051242635 -0.13484067
-0.10964627 0.025775434 0.095609315 -0.14428945 -0.12815827 -0.049189143 -0.13188797 0.0020028125
-0.11264207 -0.10575215 0.026583783 -0.023920024 -0.14498238 -0.019768443 0.110077 -0.016198747
0.09161164 -0.03215644 -0.037766393 0.05829778 -0.012733013 -0.12911735 0.0940579 -0.11357755
-0.019945186 -0.10515867 0.13549142 0.087494 0.020097436 -0.07260319 -0.026185825 0.13048084
0.1690555 0.001611254 0.09857379 -0.021356663 0.042039447 0.050916206 -0.02653277 -0.087426424
0.06479892 -0.039242428 0.085338704 -0.018529264 -0.017159754 -0.040406186 0.116293445 0.004795614
0.0931324 0.04330018 0.011139284 -0.06758609 -0.03656933 0.030236028 -0.10149561 0.06162351
0.0014543596 -0.09032216 -0.0947867 0.060727537 -0.08508875 -0.050853003 -0.07801176 -0.13644831
-0.031561468 0.051980313 -0.05946288 0.021529196 0.053909667 0.051073715 0.09016974 -0.07577077
0.06025485 -0.036907423 0.0030510172 0.11668689 0.015252507 -0.038780462 0.078305446 -0.10308098
0.009284947 -0.014120894 0.03874877 -0.11585915 -0.014846965 -0.13764518 -0.0766628 -0.093671806
0.10322568 -0.032364704 -0.09116652 0.11811124 0.06789783 0.10338734 0.041445624 0.02381276
00000000: af9f bd3d 0dc0 bfbd 50aa d33c 0ea0 0abe
00000010: cdd1 4dbd 4cdb 3cbc 25f7 7bbc b16d 8ebc
00000020: da8d cbbd 8a85 b4bd b826 d33c 3e0f 1c3d
00000030: 25c6 863c 5515 1a3c 2e9c afbd be56 f03b
00000040: 5386 373c 67fe b4bd 3ea8 1abc c730 f8bd
00000050: 2a0b 053d 1a30 e43d 8a88 373c c0ab 00bc
00000060: 737e 5b3a 2379 753d 269a af3d 11a3 88bd
00000070: 8b79 d7bd 7851 bc3d cce3 513d ac13 0abe
00000080: 398e e0bd 0127 d33c d1ce c33d 9dc0 13be
00000090: ec3b 03be 8e7a 49bd a40d 07be 9e41 033b
000000a0: e3b0 e6bd 9594 d8bd 3cc6 d93c edf3 c3bc
000000b0: 4376 14be 6ef1 a1bc 0d70 e13d 3cb3 84bc
000000c0: e29e bb3d 79b6 03bd efb0 1abd a7c9 6e3d
000000d0: 219e 50bc 5737 04be 6ea1 c03d 599b e8bd
000000e0: 1664 a3bc 6e5d d7bd 43be 0a3e 0e30 b33d
000000f0: 61a3 a43c fbb0 94bd a883 d6bc c59c 053e
00000100: e31c 2d3e b630 d33a 0ee1 c93d 2bf4 aebc
00000110: 8e31 2c3d 838d 503d 405b d9bc a00c b3bd
00000120: 4cb5 843d abbc 20bd 0fc6 ae3d afca 97bc
00000130: 9d92 8cbc f580 25bd 422b ee3d 8724 9d3b
00000140: 33bc be3d 885b 313d 8b81 363c 936a 8abd
00000150: b9c9 15bd 8cb1 f73c eedc cfbd ef68 7c3d
00000160: 36a0 be3a d3fa b8bd 881f c2bd 70bd 783d
00000170: 0343 aebd 3d4b 50bd a1c4 9fbd 1bb9 0bbe
00000180: 9946 01bd 4fe9 543d 598f 73bd ff5d b03c
00000190: 62d0 5c3d ac32 513d eaaa b83d b52d 9bbd
000001a0: cacd 763d 3d2c 17bd 93f3 473b 89f9 ee3d
000001b0: a7e5 793c 43d8 1ebd 9b5e a03d 1f1c d3bd
000001c0: e41f 183c 525b 67bc 08b7 1e3d 9047 edbd
000001d0: af40 73bc dcf2 0cbe 6301 9dbd 01d7 bfbd
000001e0: fc67 d33d da90 04bd 83b5 babd 4ee4 f13d
000001f0: 040e 8b3d bebc d33d e3c2 293d fa12 c33c

net.2.freq_scale.weight f4 [128, 64]
-0.06848327 -0.00075053447 0.054152828 -0.08469782 -0.06845595 0.13178745 0.14281431 0.10849626
-0.030516924 0.07758288 -0.020572042 -0.113417946 0.02115976 0.06624118 0.034528654 -0.031324375
-0.032906312 0.035712548 -0.061099738 0.106007956 -0.0909943 -0.07680618 0.08204726 -0.06838537
-0.07423347 -0.0229105 -0.008583455 -0.0115073575 0.08990166 -0.011310269 0.109968044 0.03641693
-0.08929557 -0.07223098 -0.10358283 -0.0057703946 0.09989349 0.11149516 0.10818788 0.07492524
-0.069558375 0.11195561 0.09962077 0.13533244 -0.06868336 0.045907978 0.09887283 0.016501017
0.08853681 0.03166884 0.13277745 0.09329949 0.08795669 -0.052745212 0.11135127 -0.100529395
-0.041111942 0.08834104 0.041065842 0.011275458 0.13201123 0.05486167 0.14018127 0.10386026
0.04584633 -0.12746069 -0.008445407 -0.09010075 0.050823893 -0.022056825 0.083914965 0.1002687
-0.026086709 -0.07969412 0.007387036 -0.084611885 0.042444482 -0.016588852 -0.09928062 -0.088576056
-0.04875702 0.021251122 -0.10266961 -0.08562598 -0.046540946 -0.0736719 0.012589459 -0.06765999
-0.030406874 0.09400457 -0.093884006 -0.033089273 0.04356871 0.10639358 -0.028575234 0.05715742
-0.040354803 0.08675668 -0.10071188 0.04740263 0.080858305 -0.033354934 0.067364536 -0.023831712
-0.08299954 0.08004732 -0.028570868 -0.002623334 -0.030668028 -0.02382478 -0.074847855 0.09478642
-0.05488845 0.013089061 -0.044456866 -0.073486745 -0.107256725 -0.08089221 0.110276766 -0.07995797
0.10808656 -0.10216395 -0.007455828 0.088569745 -0.09784298 0.05967773 -0.016650341 0.10450198
0.078044035 -0.0948807 -0.043958433 -0.035193805 -0.067896545 -0.04612951 -0.10438014 -0.079885446
-0.07439673 0.0073479465 -0.05304105 0.13281918 0.052012622 0.031619236 0.032050677 -0.027149554
0.03793053 -0.03938859 -0.04706704 -0.05189731 0.008732571 -0.099864274 0.09491205 -0.0533274
-0.06382997 -0.08219693 0.037510972 0.08920277 0.1063812 0.028394928 -0.07534672 0.02050246
-0.069760405 0.09262844 -0.0595249 0.10598161 0.093713745 0.022008417 0.070006765 0.12207189
0.007840307 0.12342628 -0.09163816 0.09428763 0.092160314 -0.09893651 0.07811944 0.11681877
0.12835458 -0.02302725 -0.04928081 -0.047416043 0.040559683 0.092597984 -0.059517976 0.068916544
-0.03495517 0.0088053355 -0.019027613 -0.086187586 -0.106197886 0.10878307 -0.05587407 0.07617183
-0.01669693 -0.066952646 0.09730332 0.093896426 -0.01442077 -0.07792252 -0.097758256 -0.038558446
0.08472207 -0.11240269 -0.010769969 -0.06336715 0.010071858 0.063301556 -0.080096886 -0.07568713
0.06801762 -0.1237884 -0.023213945 0.015768288 0.037454553 -0.11477861 0.09750593 -0.09878601
0.05617719 -0.07503719 -0.0011461823 0.04186327 -0.036140084 -0.036617182 -0.0759707 -0.092330255
-0.02342612 0.08449867 0.015739804 -0.004427722 0.13085552 0.07918235 -0.043415505 -0.017503796
0.01965781 -0.045519978 0.04531147 -0.09636969 -0.0594409 0.09878573 0.050989255 -0.06765808
-0.08979534 -0.08939351 -0.0026094867 0.009206618 0.057247996 0.091860674 0.12548333 -0.10971562
0.037188735 0.12350608 0.037086062 -0.009869901 0.026017183 -0.024021553 0.06821664 -0.1034379
00000000: f540 8cbd 84bf 44ba 5bcf 5d3d 0d76 adbd
00000010: a232 8cbd 4af3 063e ea3d 123e 4a33 de3d
00000020: a1fe f9bc c6e3 9e3d b386 a8bc ab47 e8bd
00000030: 3c57 ad3c 75a9 873d eb6d 0d3d fd4d 00bd
00000040: c5c8 06bd 5247 123d b843 7abd b31a d93d
00000050: 385b babd 8f4c 9dbd 6508 a83d a10d 8cbd
00000060: b807 98bd cdae bbbc 9fa1 0cbc 5b89 3cbc
00000070: 5d1e b83d b54e 39bc ed36 e13d eb29 153d
00000080: 99e0 b6bd d6ed 93bd 3c23 d4bd 9415 bdbb
00000090: f594 cc3d 9357 e43d 9b91 dd3d 6772 993d
000000a0: 9f74 8ebd fc48 e53d f905 cc3d 9694 0a3e
000000b0: dda9 8cbd 010a 3c3d d77d ca3d 242d 873c
000000c0: c952 b53d 30b7 013d d0f6 073e ce13 bf3d
000000d0: a322 b43d 5d0b 58bd 220c e43d 5be2 cdbd
000000e0: ff64 28bd 26ec b43d a834 283d b3bc 383c
000000f0: f42d 073e a1b6 603d ae8b 0f3e b0b4 d43d
00000100: 5cc9 3b3d 0e85 02be 9b5e 0abc be86 b8bd
00000110: b72c 503d 84b0 b4bc 9cdb ab3d ad59 cd3d
00000120: cbb3 d5bc ac36 a3bd f30e f23b ff48 adbd
00000130: 44da 2d3d 58e5 87bc a353 cbbd 5d67 b5bd
00000140: 71b5 47bd d516 ae3c 7244 d2bd ac5c afbd
00000150: b8a1 3ebd 4be1 96bd 0544 4e3c 5291 8abd
00000160: d617 f9bc 7885 c03d 4246 c0bd 9e88 07bd
00000170: 1b75 323d e1e4 d93d 9c16 eabc e61d 6a3d
00000180: 144b 25bd 7cad b13d 0842 cebd 4329 423d
00000190: 0a99 a53d 2f9f 08bd 6bf6 893d b93a c3bc
000001a0: aafb a9bd d9ef a33d 740d eabc 3eec 2bbb
000001b0: 843b fbbc 2f2c c3bc d549 99bd 621f c23d
000001c0: b6d2 60bd 8073 563c 6718 36bd 3880 96bd
000001d0: 6aa9 dbbd d1aa a5bd c9d8 e13d 01c1 a3bd
000001e0: 7d5c dd3d 553b d1bd 0550 f4bb 0e64 b53d
000001f0: e661 c8bd a370 743d 4c66 88bc 2205 d63d
00000200: 8dd5 9f3d d050 c2bd c20d 34bd 6127 10bd
00000210: 580d 8bbd 4cf2 3cbd 41c5 d5bd fb9a a3bd
00000220: 505d 98bd 0bc7 f03b 9241 59bd c001 083e
00000230: 300b 553d 2c83 013d 9247 033d be68 debc
00000240: 0b5d 1b3d ee55 21bd 5ec9 40bd 4692 54bd
00000250: 0f13 0f3c a485 ccbd 4061 c23d d56d 5abd
00000260: 4ab9 82bd dd56 a8bd 1ba5 193d f1af b63d
00000270: 63de d93d 7b9c e83c 624f 9abd c6f4 a73c
00000280: 8bde 8ebd fbb3 bd3d 62d0 73bd e30c d93d
00000290: feec bf3d ff4a b43c b55f 8f3d d400 fa3d
000002a0: a274 003c ebc6 fc3d caac bbbd df19 c13d
000002b0: 8cbe bc3d 3a9f cabd 16fd 9f3d ae3e ef3d
000002c0: 626f 033e a5a3 bcbc adda 49bd 5337 42bd
000002d0: e921 263d 03a4 bd3d 1fc9 73bd 1e24 8d3d
000002e0: 272d 0fbd 4144 103c ccdf 9bbc 1e83 b0bd
000002f0: 477e d9bd a9c9 de3d 35dc 64bd faff 9b3d
00000300: 00c8 88bc 781e 89bd f746 c73d c54c c03d
00000310: 1845 6cbc d895 9fbd 7b35 c8bd 76ef 1dbd
00000320: c482 ad3d 6233 e6bd 8674 30bc a3c6 81bd
00000330: 6f04 253c 3fa4 813d d609 a4bd db01 9bbd
00000340: d24c 8b3d c684 fdbd 2c2b bebc 7f2c 813c
00000350: f269 193d 0c11 ebbd 30b1 c73d 5250 cabd
00000360: 0e1a 663d 19ad 99bd 7f3b 96ba d278 2b3d
00000370: a007 14bd e6fb 15bd 8796 9bbd a517 bdbd
00000380: 22e8 bfbc a40d ad3d c3f0 803c 6d16 91bb
00000390: fdfe 053e 5b2a a23d 75d4 31bd 1f64 8fbc
000003a0: 6a09 a13c 2873 3abd 8598 393d 795d c5bd
000003b0: 4d78 73bd 2c50 ca3d 1cda 503d 5290 8abd
000003c0: 9fe6 b7bd f213 b7bd ec03 2bbb 5bd7 163c
000003d0: e07c 6a3d 7321 bc3d b47e 003e 95b2 e0bd
000003e0: 3753 183d c1f0 fc3d 8ee7 173d 5eb5 21bc
000003f0: fd21 d53c d9c8 c4bc 2ab5 8b3d 40d7 d3bd

net.2.freq_scale.bias f4 [128]
0.05455672 -0.057177443 0.1387497 -0.0701744 -0.034937058 0.10265345 0.120567344 -0.027265105
0.0931345 -0.0022093942 -0.042385694 0.13005798 0.0005638854 0.053328898 -0.007446342 0.037880346
0.029373467 -0.045632154 -0.07809866 -0.043886848 -0.07003171 0.05782492 0.067090645 -0.072561875
0.10872195 -0.030835181 -0.0856681 -0.03323725 0.01210513 0.055048726 0.08413783 -0.084779486
0.06970783 0.07032945 0.018206028 -0.08222144 0.01932743 -0.017716866 -0.015453997 0.12185148
-0.007114927 -0.11082 0.096962 0.05120692 -0.09005936 -0.018042294 -0.08057926 -0.07936005
-0.1265832 -0.07057269 -0.120779105 0.11130101 -0.048408587 -0.03457075 0.026051974 0.11161889
0.06596923 0.0789371 0.13011572 -0.03650007 -0.042899657 0.066526964 -0.03372811 -0.086628444
-0.026872285 0.092532754 0.117762096 0.005745445 0.04973595 -0.01558495 0.018097611 0.02917571
0.03926074 -0.0047140257 0.05222611 0.10750228 -0.0481174 -0.08398272 0.059328347 -0.12048389
-0.032772213 -0.068724215 0.009969246 -0.053602397 -0.0102902865 0.071501024 0.10062139 -0.066712506
0.0241025 0.0058744904 -0.110600285 -0.0063239206 -0.07611689 -0.026006365 -0.041579656 0.11803303
0.016113672 -0.0522637 0.016524501 -0.094990544 -0.040985577 -0.042504665 -0.035558935 0.11820921
0.011341437 0.09502971 0.01096142 0.05583014 0.10920141 -0.022040043 0.08334536 0.07082151
-0.06405491 0.05738221 0.09839373 0.08494552 0.04982862 0.07543617 -0.06518787 0.08668973
0.03954526 -0.11132889 -0.119287506 0.021520747 -0.009877883 -0.06928204 0.0128734335 0.061504383
00000000: de76 5f3d e532 6abd 6714 0e3e 99b7 8fbd
00000010: 291a 0fbd f93b d23d 03ec f63d 125b dfbc
00000020: 4dbd be3d 7ccb 10bb 9f9c 2dbd eb2d 053e
00000030: b5d1 133a 676f 5a3d 7200 f4bb 6c28 1b3d
00000040: a0a0 f03c c8e8 3abd 31f2 9fbd b2c2 33bd
00000050: c96c 8fbd d3d9 6c3d d266 893d 529b 94bd
00000060: 9da9 de3d 109a fcbc c272 afbd c823 08bd
00000070: 9854 463c c67a 613d 7450 ac3d dea0 adbd
00000080: fbc2 8e3d e308 903d cf24 953c b763 a8bd
00000090: 8f54 9e3c f622 91bc c332 7dbc 458d f93d
000000a0: 5524 e9bb 99f5 e2bd 0394 c63d 59be 513d
000000b0: 0b71 b8bd 6fcd 93bc bd06 a5bd 8687 a2bd
000000c0: 079f 01be 6a88 90bd 095b f7bd c9f1 e33d
000000d0: 1548 46bd 0f9a 0dbd f36a d53c 7298 e43d
000000e0: e01a 873d c6a9 a13d 0e3d 053e 1981 15bd
000000f0: 8db7 2fbd 4a3f 883d 7d26 0abd 416a b1bd
00000100: 4423 dcbc d081 bd3d 412d f13d 4944 bc3b
00000110: ecb7 4b3d 0558 7fbc 7141 943c e601 ef3c
00000120: dfcf 203d 1d78 9abb 0ceb 553d 282a dc3d
00000130: c016 45bd 22ff abbd 4802 733d 42c0 f6bd
00000140: 283c 06bd 48bf 8cbd 0c56 233c 308e 5bbd
00000150: 9798 28bc 216f 923d 9612 ce3d 91a0 88bd
00000160: 9b72 c53c cc7e c03b 6782 e2bd e438 cfbb
00000170: 2ce3 9bbd 4d0b d5bc 6e4f 2abd 4dbb f13d
00000180: d200 843c 7612 56bd 645e 873c 678a c2bd
00000190: 7ee0 27bd 5f19 2ebd 3fa6 11bd ac17 f23d
000001a0: 6fd1 393c f09e c23d 8797 333c 25ae 643d
000001b0: fda4 df3d 528d b4bc f9b0 aa3d de0a 913d
000001c0: 382f 83bd 9c09 6b3d a782 c93d ebf7 ad3d
000001d0: 1819 4c3d 477e 9a3d 3881 85bd 638a b13d
000001e0: 36fa 213d 6700 e4bd 024d f4bd 474c b03c
000001f0: d8d6 21bc bee3 8dbd 18eb 523c 05ec 7b3d

net.3.weight f4 [1, 64]
-0.082706206 0.062295787 0.08384847 -0.10619525 0.018297493 -0.09623077 -0.065072276 -0.011395703
-0.042165972 -0.082089394 0.008410742 -0.036411252 -0.0818581 0.05951296 -0.008685493 -0.047074556
0.024473513 -0.07576905 0.096967496 -0.045290276 -0.089813925 0.0003193808 -0.036114115 -0.10168262
0.02556664 0.034604814 -0.06666003 -0.041143354 0.038450886 -0.047263082 0.090604275 0.078435525
-0.05042327 -0.04886599 0.07131662 -0.07569678 0.08270734 -0.020755254 3.9882783e-05 0.03658824
-0.07274548 -0.01863184 -0.018746434 -0.0033230141 0.09037803 0.07189114 0.080478325 -0.09271164
-0.027783785 -0.023903832 0.003122364 -0.08873035 -0.035579816 0.037541356 -0.004088043 -0.03976874
0.013690996 0.066960655 -0.07192094 0.0064491914 -0.010529407 0.05285324 -0.045732833 -0.024044
00000000: df61 a9bd de29 7f3d bfb8 ab3d e57c d9bd
00000010: a0e4 953c a314 c5bd 9d44 85bd 0bb5 3abc
00000020: 3ab6 2cbd 7c1e a8bd 35cd 093c f723 15bd
00000030: 38a5 a7bd ddc3 733d 994d 0ebc 40d1 40bd
00000040: ad7c c83c ce2c 9bbd e596 c63d 4c82 39bd
00000050: 5df0 b7bd 9172 a739 65ec 13bd fa3e d0bd
00000060: 2171 d13c c7bd 0d3d 0e85 88bd ef85 28bd
00000070: ad7e 1d3d ef96 41bd bc8e b93d cea2 a03d
00000080: a188 4ebd b427 48bd 730e 923d ea06 9bbd
00000090: 7762 a93d ec06 aabc d047 2738 8ddd 153d
000000a0: 95fb 94bd cda1 98bc 1f92 99bc edc6 59bb
000000b0: 1e18 b93d a93b 933d d2d1 a43d 9adf bdbd
000000c0: d29a e3bc f8d1 c3bc 93a0 4c3b 42b8 b5bd
000000d0: 24bc 11bd f7c4 193d fdf4 85bb 8ce4 22bd
000000e0: 3350 603c ab22 893d 494b 93bd bd53 d33b
000000f0: 8983 2cbc a47c 583d 5a52 3bbd ecf7 c4bc
