path/to/dir/cond_wire/2026_02_04__10_43_25-no_wandb_id/2026_02_04__10_43_25-no_wandb_id-model.pt (torch, 274804 bytes, 7 tensors)

net.0.freq_scale.weight f4 [256, 5]
-0.27958712 0.013232103 0.52230126 -0.29659078 0.07508128 0.122880146 0.002237392 -0.4211361
0.064508446 0.37998793 -0.24086246 0.28247935 -0.10294374 -0.032886475 0.2389291 0.009681454
-0.3127731 0.276001 0.27149612 0.23728862 0.28246182 0.25787008 0.34016472 0.073364206
0.30362824 -0.38500094 -0.066358104 -0.16533397 -0.21271813 0.11633881 0.30262357 -0.29399958
-0.17445871 -0.14474164 0.3441211 -0.36167294 0.37313214 -0.39809072 -0.06658873 -0.05526366
-0.16191386 0.2331684 -0.14311548 -0.27410272 -0.24697734 0.06887807 0.096098214 -0.32136542
0.07627168 -0.28166863 -0.038126033 0.1989 -0.13791147 -0.12822787 -0.015107825 0.11434594
-0.26776293 -0.054733563 0.29346558 -0.0039041454 0.29871154 -0.39378312 -0.5149583 -0.2030733
0.24094924 0.26437154 -0.29142198 0.27458265 -0.08026683 0.12960029 0.3708545 -0.4148999
0.02376736 0.26851976 0.03741997 -0.2425344 -0.05732581 -0.20607664 0.34663728 0.39949113
-0.14665571 -0.3888055 -0.2622377 -0.24680339 0.38088012 0.42400926 0.20807974 0.070325315
-0.43116271 0.03212694 -0.13140099 -0.05173691 -0.32462645 -0.04661528 0.252658 0.47395924
0.382312 -0.16308047 0.29121518 0.29091305 0.16231948 0.4218986 0.07409273 -0.05375237
-0.25291842 -0.09131724 0.12670884 -0.43540028 0.09238076 -0.120806515 -0.34848514 -0.1090085
-0.26015615 0.39919934 -0.21439064 0.42209232 0.20791817 0.5737347 -0.0017405839 -0.01463788
-0.3681437 0.16239789 0.4185566 -0.041334085 -0.014241345 -0.03934976 0.20133856 -0.40128842
-0.016906252 0.08394787 0.187857 0.35461378 -0.30219123 0.089292295 0.096100345 -0.14165212
-0.06854918 -0.115919515 -0.35269192 -0.3601058 0.020707013 0.2693154 0.5504433 0.06277527
-0.30649605 -0.19677748 0.08660096 0.12814817 0.06957719 -0.17382638 0.071797706 0.41316062
-0.35290897 -0.12689449 -0.2678716 -0.18194057 0.3909315 0.23520687 -0.026597736 -0.015035108
0.32272285 0.121688195 -0.15648057 0.13383773 -0.0647669 0.060597755 -0.2815076 -0.2740909
-0.3487271 0.25936002 -0.16282436 0.0043221223 -0.25245467 0.041573722 -0.21682999 0.21041347
0.45859522 -0.2170269 -0.379764 0.037729766 0.35303766 0.42409757 -0.35662478 0.38849142
-0.07814683 -0.20430201 0.029803403 -0.1997785 0.022558285 -0.042421702 -0.35989162 -0.27203417
0.096839584 -0.0482349 -0.015960177 0.0821631 0.08454904 -0.23336114 -0.140437 -0.33483127
-0.02054499 -0.084983155 0.2269986 0.12163067 -0.17507324 0.2589046 -0.06383593 -0.022345304
-0.28219932 0.26382974 -0.081227906 0.23520802 -0.5119336 0.4045726 0.3916435 -0.31629285
0.43787047 0.32398266 0.0725036 0.2528127 -0.15978357 0.24299723 -0.5076807 -0.42466506
0.39507502 -0.38302886 -0.33002746 0.10215275 0.010233135 0.19678137 -0.08203924 0.3366898
0.13896967 0.031156288 -0.22615975 0.40025455 -0.11490065 0.1591307 -0.24378902 -0.07535472
0.28091207 0.31021577 -0.4145784 -0.012207972 -0.15984914 -0.24788904 -0.020535259 0.050280806
-0.12605472 -0.03171969 -0.3404199 0.05946179 0.15104511 0.3592146 0.41475004 -0.45421916
00000000: 0b26 8fbe 76cb 583c 89b5 053f bfda 97be
00000010: 37c4 993d 96a8 fb3d 35a1 123b 279f d7be
00000020: 011d 843d c78d c23e a6a4 76be 22a1 903e
00000030: 2bd4 d2bd f8b3 06bd d4a9 743e f69e 1e3c
00000040: cc23 a0be 0150 8d3e 8a01 8b3e cafb 723e
00000050: d69e 903e 8c07 843e 122a ae3e f93f 963d
00000060: 2975 9b3e d81e c5be c2e6 87bd 4f4d 29be
00000070: c8d2 59be 0b43 ee3d 7af1 9a3e 1d87 96be
00000080: 4ea5 32be 2737 14be a430 b03e 322d b9be
00000090: 2d0b bf3e 8cd2 cbbe ac5f 88bd 265c 62bd
000000a0: bfcc 25be b2c3 6e3e dd8c 12be 3157 8cbe
000000b0: a1e7 7cbe f20f 8d3d 24cf c43d 028a a4be
000000c0: 5434 9c3d df36 90be 0b2a 1cbd 71ac 4b3e
000000d0: aa38 0dbe 2b4e 03be d086 77bc 342e ea3d
000000e0: 3918 89be 4d30 60bd 1f41 963e b1dc 7fbb
000000f0: b8f0 983e f19d c9be 4fd4 03bf 72f2 4fbe
00000100: 66bb 763e b55b 873e 4335 95be 1996 8c3e
00000110: f062 a4bd f0b5 043e a4e0 bd3e c26d d4be
00000120: c4b3 c23c 6c7b 893e af45 193d f05a 78be
00000130: 78ce 6abd c105 53be 717a b13e 1a8a cc3e
00000140: ea2c 16be 8411 c7be 0544 86be 07ba 7cbe
00000150: b802 c33e be17 d93e db12 553e b806 903d
00000160: 5cc1 dcbe 8a97 033d fb8d 06be 15ea 53bd
00000170: 7035 a6be aaef 3ebd 645c 813e c9aa f23e
00000180: 66be c33e 91fe 26be 281a 953e 8ef2 943e
00000190: 1437 263e 1803 d83e eebd 973d 722b 5cbd
000001a0: 867e 81be 8804 bbbd f6bf 013e c9ec debe
000001b0: 2032 bd3d 6869 f7bd a56c b2be d93f dfbd
000001c0: 3033 85be db63 cc3e 3889 5bbe 7c1c d83e
000001d0: 80e8 543e 47e0 123f 4e24 e4ba b8d3 6fbc
000001e0: 557d bcbe a24b 263e 0d4d d63e ee4d 29bd
000001f0: 8854 69bc 372d 21bd b22b 4e3e ad75 cdbe
00000200: fb7e 8abc dcec ab3d 965d 403e f08f b53e
00000210: cfb8 9abe e1de b63d 42d0 c43d 410d 11be
00000220: 8363 8cbd 3667 edbd 0994 b4be ca5f b8be
00000230: c1a1 a93c b5e3 893e dae9 0c3f 5290 803d
00000240: 0ded 9cbe 0980 49be d85b b13d 4639 033e
00000250: 7c7e 8e3d 8bff 31be ad0a 933d ca89 d33e
00000260: 7cb0 b4be a1f0 01be 7726 89be a14e 3abe
00000270: 2c28 c83e 12da 703e 7fe3 d9bc d055 76bc
00000280: ee3b a53e a937 f93d 713c 20be c20c 093e
00000290: 82a4 84bd 5a35 783d c421 90be a455 8cbe
000002a0: 5c8c b2be d6ca 843e 6ebb 26be 97a0 8d3b
000002b0: bd41 81be 3549 2a3d ae08 5ebe a176 573e
000002c0: fecc ea3e 4d3c 5ebe 6d70 c2be 878a 1a3d
000002d0: 5ac1 b43e 5123 d93e 8697 b6be 59e8 c63e
000002e0: 720b a0bd 8c34 51be 4426 f43c bc92 4cbe
000002f0: 27cc b83c 61c2 2dbd b743 b8be 1048 8bbe
00000300: d553 c63d f591 45bd ebbe 82bc 2145 a83d
00000310: 0c28 ad3d 39f6 6ebe b8ce 0fbe 016f abbe
00000320: f84d a8bc a60b aebd 5272 683e 8019 f93d
00000330: 6646 33be 258f 843e 69bc 82bd 800d b7bc
00000340: 6e7c 90be b114 873e d15a a6bd 5fda 703e
00000350: 150e 03bf 2424 cf3e 7f85 c83e 23f1 a1be
00000360: 8f30 e03e 0ee1 a53e c47c 943d ab70 813e
00000370: 4e9e 23be 44d4 783e 5df7 01bf b36d d9be
00000380: 4647 ca3e 5c1c c4be 5cf9 a8be 7635 d13d
00000390: e1a8 273c 0e81 493e 3004 a8bd 9b62 ac3e
000003a0: 114e 0e3e 793b ff3c 6c96 67be 2aee cc3e
000003b0: 0851 ebbd 29f3 223e d4a3 79be 9353 9abd
000003c0: b5d3 8f3e 9ad4 9e3e 9f43 d4be f203 48bc
000003d0: 7eaf 23be a0d6 7dbe 8f39 a8bc 3ff3 4d3d
000003e0: 7d14 01be 81ec 01bd 844b aebe 358e 733d
000003f0: 92ab 1a3e faea b73e 1e5a d43e 6a8f e8be

net.0.freq_scale.bias f4 [256]
-0.26487258 -0.20140591 0.14901967 -0.37780035 0.37706268 -0.4179951 0.12223092 0.0874198
-0.07295194 0.41999203 -0.104464866 -0.40230846 -0.2752272 0.15027535 0.2869192 0.390257
0.27218178 -0.017167501 -0.10285143 -0.18104587 -0.3184658 -0.24877329 0.0905007 -0.24100219
-0.12358858 -0.08610087 -0.13995966 0.14781365 0.27645448 -0.14578684 -0.29785421 0.15978935
0.0842132 0.4073094 0.10585119 -0.010620574 -0.38555858 -0.024787763 -0.37770358 -0.42955145
-0.39280313 0.25414938 -0.30051875 0.21983026 0.08363071 0.19967383 0.2519251 -0.21752381
-0.07432308 -0.015411031 -0.12266244 0.34031996 0.09992268 0.107370846 -0.22691545 0.31071755
-0.106588215 0.12176608 -0.41756907 0.43125108 0.2950144 -0.03926091 0.05811513 -0.21085162
0.017602276 0.18523291 0.18885016 0.108477734 -0.19839114 -0.30501625 -0.25116572 0.032619484
0.17585117 -0.32291663 -0.066335276 -0.21987109 0.22223161 0.32971343 0.12945022 -0.040106047
-0.1432456 0.26152608 0.34231356 -0.08615451 0.14584921 -0.3788726 -0.320387 0.07008895
0.0526243 0.38549265 -0.08560978 0.051276255 0.12439468 -0.4057709 -0.20252138 -0.06716251
-0.38705945 0.13400035 -0.2626804 -0.36339882 -0.016385606 0.3947146 -0.23815471 -0.087216154
0.020809596 0.036580596 0.38912734 0.19156119 -0.21265571 -0.08789697 0.07558508 0.04298761
0.0059434166 0.08828867 -0.4283372 -0.3690996 -0.43942115 0.30081016 -0.21389674 -0.2304854
0.34310955 -0.3304128 -0.058640335 0.42010835 -0.31104425 -0.35471013 -0.44033158 0.3318065
0.105760336 -0.2711351 -0.45189983 0.14167482 0.43195283 -0.42710954 0.41329393 0.16825797
0.12128922 -0.33580896 0.06714465 0.08388263 0.057868976 0.40685418 0.10736984 0.1960272
0.34782937 0.31496292 0.35646543 -0.17130734 -0.12339611 0.33933184 0.35637206 0.12039999
-0.3065012 0.038015004 0.23850203 -0.061347604 -0.24400336 -0.37478593 -0.3416453 -0.31916213
-0.30270895 0.28532442 0.32913247 -0.103268236 -0.23871094 0.45129982 -0.37886086 -0.2652446
0.15711366 0.0701821 -0.34107226 0.11912369 0.26053885 -0.3614468 -0.0029034694 -0.22183569
0.0003202328 0.27731502 -0.00036308757 0.14510193 0.38675284 0.17326744 -0.10927344 -0.28275985
0.45800987 0.11938917 0.3163461 0.33742386 0.22033402 0.16660598 0.045625392 -0.43044427
0.064683445 -0.39694494 0.40797195 0.22327395 -0.15150201 0.2631252 -0.016162725 0.42044565
-0.25180125 0.04058362 0.22657707 -0.16213982 -0.17947927 -0.15452637 -0.21292797 -0.1342459
0.3301367 -0.33405727 -0.3514449 -0.031839218 -0.17132816 -0.2438539 -0.11905078 -0.25954548
-0.0065908507 -0.028527355 -0.41178125 -0.0074393097 0.25990337 -0.40418705 0.038377024 0.33976704
-0.16456342 0.34714562 -0.2112416 -0.24176225 0.0238806 0.17183559 0.25897792 -0.08826188
-0.01691236 0.36673045 -0.18453416 0.043918036 0.16469412 0.16240259 -0.34799865 -0.04300378
0.30604073 0.114411324 -0.19017309 -0.08449979 0.0036829235 0.05317504 0.44334772 0.16758327
0.100677684 -0.3386865 0.32222635 -0.0025401746 0.25188452 0.36576512 0.31513786 0.13028155
00000000: 619d 87be 5a3d 4ebe 9d98 183e 0c6f c1be
00000010: 5c0e c13e 7403 d6be 3454 fa3d 2709 b33d
00000020: d467 95bd 3209 d73e adf1 d5bd 60fb cdbe
00000030: 94ea 8cbe c8e1 193e 13e7 923e c4cf c73e
00000040: 695b 8b3e dca2 8cbc c5a3 d2bd 1764 39be
00000050: f30d a3be 6dbe 7ebe 6e58 b93d 47c9 76be
00000060: 021c fdbd a755 b0bd 9651 0fbe 765c 173e
00000070: 718b 8d3e 2549 15be 5980 98be d29f 233e
00000080: f877 ac3d dc8a d03e 82c8 d83d ea01 2ebc
00000090: ef67 c5be b50f cbbc 5d62 c1be 2bee dbbe
000000a0: 7e1d c9be de1f 823e 98dd 99be 2f1b 613e
000000b0: 9446 ab3d 4c77 4c3e 54fc 803e 90be 5ebe
000000c0: b336 98bd 8d7e 7cbc 7236 fbbd 6b3e ae3e
000000d0: 43a4 cc3d 3fe5 db3d 865c 68be 5f16 9f3e
000000e0: ec4a dabd 7f60 f93d 9dcb d5be f1cc dc3e
000000f0: 210c 973e 0cd0 20bd 210a 6e3d 7de9 57be
00000100: a632 903c b2ad 3d3e f061 413e 9329 de3d
00000110: 0c27 4bbe 172b 9cbe cb98 80be 029c 053d
00000120: 5412 343e 5455 a5be cada 87bd e325 61be
00000130: af90 633e 33d0 a83e 998e 043e 3d46 24bd
00000140: f9ae 12be bfe6 853e b943 af3e c771 b0bd
00000150: 7f59 153e 97fb c1be c409 a4be cc8a 8f3d
00000160: 948c 573d 4b5f c53e 2e54 afbd 0d07 523d
00000170: a3c2 fe3d 34c1 cfbe c461 4fbe 7f8c 89bd
00000180: a82c c6be 6337 093e 0c7e 86be 690f babe
00000190: 1b3b 86bc 0818 ca3e d4de 73be 629e b2bd
000001a0: e378 aa3c 89d5 153d b33b c73e 9e28 443e
000001b0: 6bc2 59be 5403 b4bd 5acc 9a3d c713 303d
000001c0: fec0 c23b b1d0 b43d 034f dbbe 9ffa bcbe
000001d0: cffb e0be ca03 9a3e bf07 5bbe 5d04 6cbe
000001e0: 0eac af3e de2b a9be d930 70bd 7118 d73e
000001f0: 3141 9fbe 919c b5be 2473 e1be 8be2 a93e
00000200: e098 d83d 38d2 8abe 6a5f e7be 3413 113e
00000210: ec28 dd3e 1aae dabe 439b d33e d14b 2c3e
00000220: 7c66 f83d 27ef abbe 2283 893d a8ca ab3d
00000230: 0508 6d3d 314f d03e b8e4 db3d 5bbb 483e
00000240: b116 b23e d242 a13e a382 b63e 316b 2fbe
00000250: 1ab7 fcbd e7bc ad3e 6676 b63e 4594 f63d
00000260: baed 9cbe 9fb5 1b3d e039 743e a047 7bbd
00000270: 04dc 79be f1e3 bfbe 22ec aebe 3869 a3be
00000280: abfc 9abe 0b16 923e 0d84 a83e 4c7e d3bd
00000290: a470 74be c510 e73e 0dfa c1be 24ce 87be
000002a0: 67e2 203e a2bb 8f3d 06a1 aebe 1ff7 f33d
000002b0: 5965 853e 8e0f b9be 2248 3ebb e528 63be
000002c0: ebe4 a739 3cfc 8d3e ca5c beb9 9a95 143e
000002d0: 7804 c63e 056d 313e c1ca dfbd e6c5 90be
000002e0: 4580 ea3e 4f82 f43d 1ef8 a13e d2c2 ac3e
000002f0: 3e9f 613e c29a 2a3e b1e1 3a3d 3163 dcbe
00000300: c178 843d 5e3c cbbe b3e1 d03e eda1 643e
00000310: 5823 1bbe 59b8 863e b167 84bc a744 d73e
00000320: 18ec 80be 033b 263d d203 683e fb07 26be
00000330: 6ac9 37be 293c 1ebe ca09 5abe c277 09be
00000340: ad07 a93e 8e09 abbe 96f0 b3be d769 02bd
00000350: a670 2fbe d6b4 79be e5d0 f3bd 25e3 84be
00000360: 10f8 d7bb 33b2 e9bc fed4 d2be 74c5 f3bb
00000370: 0e12 853e 9bf1 cebe 3a31 1d3d f2f5 ad3e
00000380: 5083 28be 12bd b13e b84f 58be 8690 77be
00000390: 40a1 c33c abf5 2f3e c198 843e a5c2 b4bd
000003a0: ca8b 8abc 18c4 bb3e 86f6 3cbe 66e3 333d
000003b0: 93a5 283e dd4c 263e e12c b2be bb24 30bd
000003c0: 5fb1 9c3e 7c50 ea3d bcbc 42be 3a0e adbd
000003d0: 345d 713b 12ce 593d 79fe e23e f39a 2b3e
000003e0: 1a30 ce3d 5168 adbe dafa a43e 0f79 26bb
000003f0: 02f7 803e 9145 bb3e c059 a13e 8768 053e

net.1.freq_scale.weight f4 [256, 128]
0.0011896775 -0.04899358 -0.04572644 -0.075854145 -0.074011624 0.059406813 0.030646484 0.013729892
-0.0068085273 -0.026948415 0.008424879 -0.0058733393 -0.074829616 -0.023398973 -0.059556443 -0.053266853
-0.053821076 0.044383246 -0.094266444 -0.022189245 -0.07505614 0.0036910307 0.047335863 0.020350285
-0.02512415 -0.024197187 0.023161469 0.019095808 0.085410744 0.029541036 -0.04951537 -0.025607655
0.0021754897 0.08654612 -0.09663243 -0.04400075 -0.029359367 0.062317032 -0.061258815 0.020204542
0.0697261 0.027376406 -0.033626832 -0.077128 -0.021836678 0.0025090498 0.0115420455 -0.022506349
-0.03619036 0.020868935 -0.04335141 0.046936367 -0.081851445 0.057326198 -0.07008892 -0.0712489
0.032733586 -0.02344729 0.08031675 0.036667597 -0.06734815 0.013240339 -0.0009700168 -0.03258863
-0.04356496 0.046004966 -0.06754055 0.066928476 -0.050202947 0.02723959 0.025600405 -0.00041118925
-0.021594554 0.021400185 -0.008695973 0.0058101593 -0.08118673 0.029333495 0.014083105 -0.06947072
-0.081958935 0.04521069 -0.035645097 -0.061287403 0.04005684 0.06915709 0.06552039 -0.06665493
0.007498069 0.040743828 0.07953477 0.09253492 0.06322525 0.05521684 0.047412936 0.030322572
0.0861538 -0.04298462 0.0019083117 -0.02842281 -0.048961073 -0.00588073 0.050430726 -0.0021586947
-0.020832008 -0.0569433 0.06471485 0.059550557 0.042421795 -0.035450283 0.07905508 0.06916973
-0.07238712 0.08686899 0.034885813 0.09520145 0.086337365 0.01037768 -0.062380552 -0.006718271
0.08082323 -0.039773963 -0.07553538 -0.016598964 0.010523662 -0.0024071063 -0.015871624 0.06469463
0.042252447 0.09764458 0.057458952 0.029208884 -0.019900486 -0.06161698 -0.028147675 0.021051927
-0.06748717 0.06566678 -0.070571154 -0.00887686 -0.051802453 0.044412334 0.0012288343 -0.027229318
0.05408956 -0.0313083 -0.06938528 0.017509626 0.047944512 -0.059852548 0.09514857 -0.04783684
-0.02757781 0.088388674 -0.039888117 0.055300605 0.019314481 -0.019580368 -0.09232916 0.01867858
-0.053865474 0.0025776015 0.05655007 -0.09065159 0.043340158 0.061792366 0.0033827033 0.080820605
0.05634344 0.014575886 -0.01256004 -0.02106817 0.067595415 0.09281925 -0.016738605 0.0468128
-0.006335119 -0.022075215 0.05854481 -0.05355849 0.05848963 5.0155242e-05 0.042392585 -0.022571135
0.01674373 -0.05123056 -0.0018932368 -0.06115826 0.058068756 0.058040347 0.056176852 0.048859734
0.011274684 -0.018999279 0.04479531 0.0042309132 0.012112909 -0.09474866 0.037072178 -0.03937141
0.10344347 -0.015911134 -0.022165034 0.08096375 0.07429025 -0.068294816 0.024659464 0.049730524
-0.04310771 0.027105844 -0.037452232 -0.020288685 0.02705612 -0.030186221 -0.001169665 -0.093483396
-0.018552758 0.014469498 0.046065558 0.057796787 -0.027909871 0.028171109 0.066368066 0.028009553
-0.037239596 0.07638445 0.046542328 0.0026713961 -0.05874547 0.05206306 -0.052516904 0.03309052
0.026543165 0.004629819 -0.10303092 0.10135666 0.10490336 -0.056812 0.066515304 0.06706228
-0.06311013 -0.006391588 -0.042292763 -0.052648693 -0.07113805 -0.06206117 -0.06612292 0.08957282
-0.009085477 -0.036608353 -0.033166885 -0.011528757 0.0345376 -0.050508626 0.098613225 -0.039040074
00000000: f4ee 9b3a 7ead 48bd a64b 3bbd 6b59 9bbd
00000010: 6893 97bd 8f54 733d 560e fb3c 57f3 603c
00000020: 111a dfbb ecc2 dcbc 8108 0a3c 2475 c0bb
00000030: 4540 99bd 34af bfbc 75f1 73bd 582e 5abd
00000040: 7d73 5cbd 35cb 353d c40e c1bd 38c6 b5bc
00000050: 09b7 99bd 38e5 713b 40e3 413d a4b5 a63c
00000060: 29d1 cdbc 2e39 c6bc 1fbd bd3c d06e 9c3c
00000070: d4eb ae3d 0b00 f23c a1d0 4abd 25c7 d1bc
00000080: a992 0e3b 183f b13d 39e7 c5bd 213a 34bd
00000090: 0e83 f0bc 2540 7f3d 86ea 7abd ff83 a53c
000000a0: 8fcc 8e3d 7c44 e03c 4abc 09bd 49f5 9dbd
000000b0: d5e2 b2bc df6e 243b d91a 3d3c 3c5f b8bc
000000c0: 583c 14bd 54f5 aa3c 4091 31bd 5940 403d
000000d0: bba1 a7bd e0ce 6a3d c88a 8fbd f1ea 91bd
000000e0: a713 063d 8814 c0bc 1c7d a43d c330 163d
000000f0: d4ed 89bd 02ee 583c ba48 7eba a87b 05bd
00000100: 2c71 32bd b46f 3c3d b352 8abd cc11 893d
00000110: 9ba1 4dbd 9025 df3c f1b7 d13c e394 d7b9
00000120: 10e7 b0bc 714f af3c 8e79 0ebc 2663 be3b
00000130: 3a45 a6bd cc4c f03c d3bc 663c aa46 8ebd
00000140: 16da a7bd d82e 393d 9800 12bd 8008 7bbd
00000150: a412 243d 3ba2 8d3d 8e2f 863d 6182 88bd
00000160: 5db2 f53b 00e3 263d 20e3 a23d f382 bd3d
00000170: 3d7c 813d 0e2b 623d 1134 423d 0b67 f83c
00000180: 6771 b03d a410 30bd 5120 fa3a f4d6 e8bc
00000190: 688b 48bd 24b3 c0bb 7390 4e3d e378 0dbb
000001a0: e3a7 aabc 613d 69bd 3889 843d 49eb 733d
000001b0: 7ac2 2d3d 5134 11bd a1e7 a13d dca8 8d3d
000001c0: b33f 94bd 5ee8 b13d 6de4 0e3d faf8 c23d
000001d0: a5d1 b03d 2507 2a3c c082 7fbd f124 dcbb
000001e0: a686 a53d 06ea 22bd 4bb2 9abd 8dfa 87bc
000001f0: 706b 2c3c 8bc0 1dbb 3505 82bc 9e7e 843d
00000200: e710 2d3d e2f9 c73d 145a 6b3d 7847 ef3c
00000210: 5806 a3bc 1662 7cbd f495 e6bc 1775 ac3c
00000220: b736 8abd 4e7c 863d 9c87 90bd 4070 11bc
00000230: cf2e 54bd b5e9 353d d610 a13a 0510 dfbc
00000240: 048d 5d3d 223d 00bd df19 8ebd 5970 8f3c
00000250: 7761 443d f227 75bd 41dd c23d 90f0 43bd
00000260: dcea e1bc 1f05 b53d b961 23bd e382 623d
00000270: 6739 9e3c 0267 a0bc 1217 bdbd d203 993c
00000280: 0ba2 5cbd faec 283b 0ca1 673d 8aa7 b9bd
00000290: 7385 313d fe19 7d3d 58b0 5d3b 4685 a53d
000002a0: 61c8 663d b2cf 6e3c a0c8 4dbc 2897 acbc
000002b0: 776f 8a3d 0518 be3d 661f 89bc c7be 3f3d
000002c0: d496 cfbb 15d7 b4bc afcc 6f3d 2660 5bbd
000002d0: d392 6f3d c85d 5238 d9a3 2d3d 1ae7 b8bc
000002e0: 262a 893c 23d7 51bd 7c26 f8ba 1581 7abd
000002f0: 81d9 6d3d b7bb 6d3d b319 663d 2521 483d
00000300: 74b9 383c 60a4 9bbc 497b 373d 79a3 8a3b
00000310: 3975 463c 960b c2bd ffd8 173d ea43 21bd
00000320: 2cda d33d 1158 82bc 7293 b5bc 53d0 a53d
00000330: 7d25 983d 27de 8bbd a502 ca3c 3cb2 4b3d
00000340: b691 30bd 130d de3c 8367 19bd 7534 a6bc
00000350: cca4 dd3c 1849 f7bc 724f 99ba 3974 bfbd
00000360: f4fb 97bc 7911 6d3c 3daf 3c3d 53bc 6c3d
00000370: 3ea3 e4bc 19c7 e63c fbeb 873d 4a74 e53c
00000380: 8c88 18bd 736f 9c3d 2ba3 3e3d 9712 2f3b
00000390: 179f 70bd 1340 553d f71b 57bd ed89 073d
000003a0: 0d71 d93c bdb5 973b e001 d3bd 1594 cf3d
000003b0: 93d7 d63d b3b3 68bd 2d39 883d f357 893d
000003c0: e23f 81bd 8770 d1bb 2d3b 2dbd 28a6 57bd
000003d0: d3b0 91bd da33 7ebd 746b 87bd f471 b73d
000003e0: 41db 14bc a4f2 15bd 00da 07bd 1de3 3cbc
000003f0: 4c77 0d3d 22e2 4ebd bbf5 c93d 7ce8 1fbd

net.1.freq_scale.bias f4 [256]
-0.01566278 0.043568693 -0.0682684 0.060977083 0.015638499 -0.042399958 -0.020303395 -0.037396647
0.019350704 -0.054450788 0.06656311 0.028726969 -0.07279836 0.075117074 -0.005318121 0.04830016
0.041280948 0.05308787 -0.020079482 -0.06348292 0.04361553 0.082600035 0.045180358 0.06904379
0.07494891 -0.06237517 -0.039396748 -0.05534377 -0.0030722336 0.02663271 -0.074103095 0.0023530489
0.028979959 -0.08519484 0.07321584 0.07773142 0.020736758 0.041391596 0.030667553 -0.033587757
-0.08089786 0.075879775 -0.081124015 -0.051099498 -0.051506225 -0.029538995 -0.029363597 0.0896193
-0.043827195 -0.032498237 0.098537154 0.012133122 -0.06448458 -0.05123521 0.084110186 -0.0047189253
0.07074465 -0.026381742 0.032149497 -0.0068774624 -0.058810797 -0.07641051 0.012321817 0.07048582
0.038987923 -0.090300955 0.017865064 -0.025015218 0.014518724 0.068265595 0.057307724 -0.033624265
-0.069039054 0.009266871 -0.05011537 0.04199897 -0.04006906 -0.037905976 -0.052170243 0.07085678
0.05545396 0.066339895 0.049131986 -0.040499963 -0.09861957 -0.03675842 0.06377816 -0.08135353
-0.06345842 -0.028482301 -0.015088457 -0.07805197 -0.07686315 0.014476936 -0.010921032 0.0619911
0.056250848 0.07235541 0.048333406 -0.02892267 -0.06871409 0.039292548 0.009101434 0.0052542044
0.0568684 0.01218971 0.04073462 -0.005101101 0.061223853 -0.05823866 -0.043095652 0.054150127
-0.07042616 0.04839034 -0.04540279 -0.025982924 -0.044099983 0.034684908 0.050880246 0.013230492
-0.0146173285 -0.051148374 -0.089274794 0.07945577 0.08195156 -0.0044797137 0.082719184 -0.032088287
0.08372035 0.023248939 0.0785278 -0.04454866 0.0781236 0.06631288 0.07953032 -0.022249406
0.04885854 -0.031264905 0.06720343 -0.05144499 0.024275523 0.044684153 -0.029587977 0.03165315
-0.07400223 0.061751924 -0.003671897 0.059747785 0.06522258 -0.079436414 0.053488065 -0.037439216
0.08989942 0.09109749 -0.058917664 0.00047759124 0.042853437 0.08420475 0.058176085 0.011920501
-0.073610514 0.02507052 -0.06417325 0.009853054 0.0694233 -0.052937202 -0.025027504 -0.076708026
0.039982773 -0.03325882 0.028949605 0.0868201 0.027595447 -0.019617628 -0.037768897 -0.0687233
-0.059507143 0.0180893 -0.0155168045 -0.07480251 -0.0151622435 0.010881614 0.050795708 0.0078215925
-0.011458154 0.04418613 0.027693845 -0.022495171 -0.028459752 0.01579702 -0.09005967 0.07441754
0.07326754 -0.064651564 -0.046079185 0.07130431 0.051380225 -0.058169458 -0.057531375 0.056564372
0.040827677 0.03558009 0.05504354 -0.030554345 0.022046091 0.07927209 0.029649857 0.036834203
0.04692627 -0.071141504 -0.05773426 -0.060189955 0.07016772 0.02877945 -0.031082833 -0.008922725
0.08276006 0.028203845 0.050400328 -0.018168533 0.017697833 -0.0054922765 -0.083869144 0.049803335
0.018487837 0.021678133 -0.068726696 -0.049853567 0.0026763785 0.090651095 -0.033113483 -0.036730394
0.035322133 -0.031997062 -0.07157233 -0.012061025 0.07062531 -0.042160727 0.03754591 -0.05533499
0.051027797 -0.05474238 -0.046070077 -0.061878826 -0.0031079503 -0.042677347 -0.05132862 -0.024472667
0.015806586 -0.05427381 -0.048836663 -0.025600564 0.03254762 -0.09218609 0.0008175663 -0.030149095
00000000: 3b4f 80bc 1675 323d 4ed0 8bbd 1bc3 793d
00000010: 4f1c 803c 94ab 2dbd 4e53 a6bc 3a2d 19bd
00000020: 5e85 9e3c ca07 5fbd 3d52 883d d254 eb3c
00000030: 4e17 95bd fbd6 993d a243 aebb 63d6 453d
00000040: 3616 293d ab72 593d ba7d a4bc 5503 82bd
00000050: 33a6 323d 352a a93d 0a0f 393d d566 8d3d
00000060: d07e 993d 1b7d 7fbd 7c5e 21bd 26b0 62bd
00000070: 8757 49bb d72c da3c 5dc3 97bd 9c35 1a3b
00000080: 6167 ed3c a27a aebd 30f2 953d a731 9f3d
00000090: 22e0 a93c 3c8a 293d 853a fb3c 5193 09bd
000000a0: c7ad a5bd db66 9b3d 5924 a6bd b54d 51bd
000000b0: 31f8 52bd c3fb f1bc ed8b f0bc 538a b73d
000000c0: 2584 33bd df1c 05bd d9cd c93d 01ca 463c
000000d0: 7e10 84bd 03dc 51bd f641 ac3d 37a1 9abb
000000e0: 92e2 903d 861e d8bc 31af 033d 565c e1bb
000000f0: 97e3 70bd 1d7d 9cbd 72e1 493c df5a 903d
00000100: cdb1 1f3d b5ef b8bd c159 923c b7ec ccbc
00000110: f1df 6d3c d5ce 8b3d 81bb 6a3d 99b9 09bd
00000120: 5964 8dbd 13d4 173c c645 4dbd 1d07 2c3d
00000130: 741f 24bd 4c43 1bbd 77b0 55bd 5c1d 913d
00000140: b123 633d 36dd 873d 9f3e 493d 4ae3 25bd
00000150: 0ff9 c9bd ff8f 16bd 209e 823d ae9c a6bd
00000160: 7df6 81bd b753 e9bc 9335 77bc b6d9 9fbd
00000170: 6d6a 9dbd ac30 6d3c 21ee 32bc 61ea 7d3d
00000180: 4a67 663d 132f 943d 40f9 453d 3cef ecbc
00000190: f9b9 8cbd 39f1 203d 2e1e 153c 762b ac3b
000001a0: d7ee 683d 59b7 473c 58d9 263d 2327 a7bb
000001b0: ddc5 7a3d a98b 6ebd 1185 30bd 86cc 5d3d
000001c0: 973b 90bd f334 463d 47f8 39bd 24da d4bc
000001d0: 2fa2 34bd c311 0e3d ce67 503d b5c4 583c
000001e0: 857d 6fbc f580 51bd b4d5 b6bd b5b9 a23d
000001f0: 38d6 a73d 90ca 92bb ad68 a93d 026f 03bd
00000200: 9375 ab3d 8f74 be3c 2fd3 a03d a878 36bd
00000210: 44ff 9f3d 0ccf 873d cbe0 a23d 6344 b6bc
00000220: e41f 483d a10f 00bd f4a1 893d fbb7 52bd
00000230: 76dd c63c bb06 373d 7c62 f2bc bca6 013d
00000240: 7b8e 97bd 96ef 7c3d 36a4 70bb 18ba 743d
00000250: 6b93 853d 8faf a2bd 4d16 5b3d dd59 19bd
00000260: 301d b83d 5291 ba3d a653 71bd 3665 fa39
00000270: 1687 2f3d 8a73 ac3d 0c4a 6e3d 344e 433c
00000280: 1cc1 96bd b160 cd3c 446d 83bd b46e 213c
00000290: ce2d 8e3d aed4 58bd 7b06 cdbc 1919 9dbd
000002a0: fac4 233d 673a 08bd b927 ed3c bdce b13d
000002b0: d90f e23c 26b5 a0bc 8fb3 1abd cdbe 8cbd
000002c0: c3bd 73bd 0330 943c 323a 7ebc 0f32 99bd
000002d0: 0f6b 78bc cc48 323c 290f 503d 2326 003c
000002e0: fbba 3bbc 84fc 343d 34de e23c cb47 b8bc
000002f0: 6d24 e9bc c168 813c 3471 b8bd 3968 983d
00000300: 4b0d 963d 0a68 84bd 87bd 3cbd fe07 923d
00000310: 1274 523d 1943 6ebd 05a6 6bbd 0bb0 673d
00000320: ec3a 273d 6ebc 113d 5675 613d 1b4d fabc
00000330: 019a b43c 6859 a23d 42e4 f23c 76df 163d
00000340: c335 403d a3b2 91bd c27a 6cbd be89 76bd
00000350: 18b4 8f3d e2c2 eb3c 6da1 febc 9f30 12bc
00000360: 1b7e a93d c00b e73c 9370 4e3d 2dd6 94bc
00000370: 0cfb 903c 8ef8 b3bb 96c3 abbd 95fe 4b3d
00000380: ce73 973c 5796 b13c 95c0 8cbd 4133 4cbd
00000390: 2e66 2f3b 48a7 b93d 01a2 07bd 9c72 16bd
000003a0: f1ad 103d 5a0f 03bd 8494 92bd 9b9b 45bc
000003b0: 01a4 903d bab0 2cbd bdc9 193d f1a6 62bd
000003c0: 8602 513d 8c39 60bd fab3 3cbd a774 7dbd
000003d0: c1ae 4bbb 71ce 2ebd f63d 52bd e77a c8bc
000003e0: d07c 813c 374e 5ebd f408 48bd 46b8 d1bc
000003f0: a750 053d 10cc bcbd f251 563a 3cfb f6bc

net.2.freq_scale.weight f4 [256, 128]
-0.04438346 -0.0022226463 0.080334336 0.08197718 -0.06269532 0.04645553 0.03767264 0.046953753
-0.055329114 -0.05069174 -0.056501657 0.07007565 -0.05856757 0.057653844 -0.006360017 0.059129395
0.08990122 0.04484838 0.08269427 0.013259204 -0.037574153 0.088324584 -0.039777197 -0.038870435
0.015481289 0.0067176023 -0.009943949 -0.033593185 -0.06487011 -0.06818187 0.09246434 0.04609222
-0.024527071 -0.04412643 0.042817555 -0.0076406733 0.07596109 0.041373715 -0.032198746 0.07193601
0.05062058 -0.008832002 -0.044596877 0.08809656 0.006560226 0.006488004 0.033959497 0.0033466062
-0.049280472 -0.08649536 0.05218115 0.007747327 0.014851209 0.059955858 -0.07102346 0.011592306
0.05220081 -0.04289794 0.04534133 0.017184751 0.03937727 -0.08798453 0.053338174 -0.00402368
0.0059466115 0.041052423 0.060694773 -0.076163456 0.086152084 0.074835666 0.00015893669 0.030650485
0.04317501 0.08138348 0.07602134 -0.04889567 0.07173797 -0.060010795 -0.043840416 0.05226368
-0.06684648 -0.002950585 0.0347103 0.046282496 -0.022913009 -0.045711834 -0.055442173 0.062383745
-0.038365807 -0.06643264 0.05200957 0.0791158 0.046896216 0.08855139 0.08374029 -0.029601153
0.05716058 0.026943553 0.07624547 -0.012391415 -0.061453033 0.08110045 -0.01147908 0.03566454
0.035189033 -0.005175582 0.06290708 -0.033828028 0.07408965 0.02831352 -0.048539978 0.04580757
-0.029763613 0.037965853 0.025588943 0.06579427 0.07377035 0.09011268 -0.054231793 0.070700526
0.045472823 -0.002203392 0.07581259 -0.03831223 -0.029861934 -0.04913161 0.09476628 0.0105160065
0.055503067 -0.10431818 -0.012129906 -0.024228694 -0.0221219 -0.038317736 -0.10069826 -0.054466743
-0.04263722 -0.07617765 0.0105307195 0.03868352 -0.028027892 -0.048884615 0.043748915 -0.006849444
-0.018555265 0.052966148 -0.023834318 -0.09617858 -0.08402704 -0.037208933 -0.018636676 -0.01953603
-0.07286007 -0.010971229 -0.021489065 -0.04956352 0.02926124 -0.011016909 -0.07596584 0.062833264
-0.069751866 0.06025038 0.06699631 -0.07929895 -0.0033252663 0.01487186 0.0062653353 -0.08964048
-0.091013215 -0.01349717 0.06658045 -0.09684112 0.0024206247 -0.07673266 -0.09441652 0.03481462
0.049939707 -0.004034407 -0.0197068 -0.080875576 -0.06713403 0.0066376324 -0.08043276 -0.0030220519
-0.005320972 -0.08448778 -0.008760128 -0.06902135 0.044914383 -0.061521713 0.03967403 -0.069215864
-0.007846198 0.04866698 -0.083385564 -0.027284864 -0.07620375 -0.045529652 0.023014186 -0.035862654
-0.09970948 -0.059082307 -0.06033047 -0.015490046 0.011151272 -0.008644425 -0.037003398 -0.046746235
-0.085966036 -0.013292549 -0.082770094 -0.06873849 0.060679033 -0.0789495 0.03926403 -0.02892495
-0.059178904 -0.10793095 0.06438203 -0.09666523 0.08250868 -0.07644235 -0.077347875 -0.0043430026
-0.09987321 0.0031050902 -0.06128911 0.043067023 -0.0469372 0.06759227 0.051828593 0.02479627
0.029496135 0.02876936 0.0063408655 0.012849679 -0.030979803 -0.0948193 0.03863193 0.028331537
0.062578015 -0.0403928 -0.015517876 0.009208556 -0.036819298 -0.060701106 -0.0049273637 -0.011450082
-0.095344596 -0.013088466 0.024790626 -0.103076726 0.0135397315 -0.07956388 0.00096897635 -0.047771912
00000000: 6ecb 35bd d1a9 11bb 5486 a43d a7e3 a73d
00000010: 6766 80bd 2748 3e3d a04e 1a3d 9452 403d
00000020: c8a0 62bd 24a2 4fbd 486e 67bd d383 8f3d
00000030: 8ce4 6fbd 7026 6c3d b167 d0bb aa31 723d
00000040: 211e b83d efb2 373d 9d5b a93d 223d 593c
00000050: 5be7 19bd 85e3 b43d 6aed 22bd 9b36 1fbd
00000060: 3ba5 7d3c 551f dc3b f2eb 22bc 0299 09bd
00000070: 9fda 84bd f0a2 8bbd f25d bd3d 32cb 3c3d
00000080: ffec c8bc eabd 34bd 7661 2f3d 9d5e fabb
00000090: 7d91 9b3d 7c77 293d d5e2 03bd 3053 933d
000000a0: 8657 4f3d 1ab4 10bc 37ab 36bd f86b b43d
000000b0: 2af7 d63b 5299 d43b 1d19 0b3d bc52 5b3b
000000c0: 52da 49bd 7b24 b1bd e7bb 553d 4add fd3b
000000d0: 7c52 733c 4694 753d bf74 91bd a8ed 3d3c
000000e0: 84d0 553d c0b5 2fbd d5b7 393d 09c7 8c3c
000000f0: 0f4a 213d 3c31 b4bd 2179 5a3d 13d9 83bb
00000100: cbdb c23b 9626 283d 159b 783d 96fb 9bbd
00000110: 8170 b03d 7143 993d 3ea8 2639 ba16 fb3c
00000120: 47d8 303d 62ac a63d 14b1 9b3d d346 48bd
00000130: 5beb 923d e1cd 75bd 0292 33bd 7112 563d
00000140: cfe6 88bd 9a5e 41bb 632c 0e3d b792 3d3d
00000150: 10b4 bbbc 553c 3bbd 5517 63bd 1986 7f3d
00000160: 7725 1dbd d60d 88bd fd07 553d 7707 a23d
00000170: 3f16 403d 6e5a b53d 0780 ab3d 1e7e f2bc
00000180: 3621 6a3d bab8 dc3c 9626 9c3d 5d05 4bbc
00000190: 2db6 7bbd fe17 a63d c012 3cbc fb14 123d
000001a0: 6022 103d ee97 a9bb 6dd5 803d 428f 0abd
000001b0: 50bc 973d c1f1 e73c dbd1 46bd b8a0 3b3d
000001c0: d2d2 f3bc 1582 1b3d e79f d13c 25bf 863d
000001d0: e914 973d ff8c b83d 2822 5ebd 70cb 903d
000001e0: b641 3a3d c966 10bb a243 9b3d 49ed 1cbd
000001f0: 04a1 f4bc 3a3e 49bd d314 c23d 544b 2c3c
00000200: 2f57 633d c5a4 d5bd 83bc 46bc 417b c6bc
00000210: fd38 b5bc 0ff3 1cbd e43a cebd 8518 5fbd
00000220: 5ea4 2ebd 0703 9cbd 0a89 2c3c 9c72 1e3d
00000230: c09a e5bc 3c3b 48bd 1032 333d 4d71 e0bb
00000240: 3601 98bc 08f3 583d 3040 c3bc 46f9 c4bd
00000250: 5e16 acbd 6568 18bd f1ab 98bc 060a a0bc
00000260: a937 95bd abc0 33bc d609 b0bc 1e03 4bbd
00000270: 45b5 ef3c 4480 34bc fa93 9bbd baae 803d
00000280: 11da 8ebd 1ac9 763d 5d35 893d 7d67 a2bd
00000290: b6ec 59bb 1aa9 733c 714d cd3b 6e95 b7bd
000002a0: 2365 babd 3c23 5dbc 555b 883d a354 c6bd
000002b0: 58a3 1e3b 0326 9dbd 735d c1bd c699 0e3d
000002c0: 948d 4c3d 0f33 84bb 2870 a1bc 18a2 a5bd
000002d0: 917d 89bd 7f80 d93b eeb9 a4bd 9e0d 46bb
000002e0: 8c5b aebb ee07 adbd a486 0fbc 115b 8dbd
000002f0: 25f8 373d 31fe 7bbd 3c81 223d 0cc1 8dbd
00000300: 578d 00bc 0757 473d 0dc6 aabd 8284 dfbc
00000310: b610 9cbd 4d7d 3abd 3f88 bc3c b8e4 12bd
00000320: 7c34 ccbd 4a00 72bd 151d 77bd f6c9 7dbc
00000330: d3b3 363c 59a1 0dbc e090 17bd fb78 3fbd
00000340: f60e b0bd fec8 59bc 5e83 a9bd c4c6 8cbd
00000350: 948a 783d 47b0 a1bd 52d3 203d 04f4 ecbc
00000360: 9465 72bd e70a ddbd bada 833d 6cf8 c5bd
00000370: 50fa a83d cf8d 9cbd 9068 9ebd bf4f 8ebb
00000380: 538a ccbd c57e 4b3b 4a0a 7bbd 0c67 303d
00000390: 3941 40bd d16d 8a3d 384a 543d 8c21 cb3c
000003a0: e1a1 f13c b9ad eb3c 09c7 cf3b 7687 523c
000003b0: 5bc9 fdbc 9f30 c2bd 843c 1e3d 8a17 e83c
000003c0: e728 803d ec72 25bd b03e 7ebc 7cdf 163c
000003d0: d5cf 16bd b9a1 78bd b975 a1bb 2099 3bbc
000003e0: 0744 c3bd 0171 56bc b615 cb3c e419 d3bd
000003f0: c0d5 5d3c 63f2 a2bd e702 7e3a 7bac 43bd

net.2.freq_scale.bias f4 [256]
0.015204671 -0.050648905 -0.039744996 0.03326292 -0.014476331 -0.051522672 -0.009910155 -0.07262441
-0.02344676 0.0613741 0.06541273 0.03983593 0.05317581 0.05734429 0.11164189 0.026074111
0.07578119 0.034113146 -0.0069992896 0.04776073 0.07281459 0.050952718 -0.08880458 0.026815703
-0.00084612885 0.002375105 -0.07034838 0.07442215 -0.046971645 -0.050893907 0.065814346 0.03742751
-0.03257453 0.029150257 -0.0062232413 -0.003140569 -0.06288383 0.07180186 0.008009901 -0.034436557
-0.08286008 0.05689261 0.044775154 0.060683977 -0.020790188 -0.05534886 0.055573665 -0.051265698
0.053487066 -0.031940024 0.051200867 0.0066827964 -0.042522192 0.028817942 0.0476905 -0.010986707
0.037219197 0.08934477 -0.00025861306 0.053271133 -0.051245704 0.025026973 0.09569856 0.078367874
-0.104466036 -0.06385199 -0.033253696 0.065771826 -0.03579419 0.047261268 0.010436354 0.084441796
-0.05709467 -0.051326342 -0.0013154957 -0.00067368895 0.021903638 -0.036848255 0.028422238 0.046982497
-0.001437628 -0.020627894 0.08235581 -0.0038686714 -0.0077953385 0.09321434 -0.044610225 -0.04654603
0.008075567 -0.103079684 -0.0112715475 -0.018627068 0.047119085 0.006983319 -0.07150769 0.03854349
-0.041496135 0.02505639 0.0043612467 -0.024337841 -0.059854925 -0.056637622 -0.00062903616 0.03442026
0.07488986 0.052748382 0.054392405 0.03640261 9.2123955e-05 0.028141748 -0.039607305 -0.12432148
0.031074911 0.09511326 -0.006717832 0.06767394 0.0122480625 0.036322363 0.07662473 -0.013358442
-0.06860315 -0.08814781 0.070855275 0.08965988 -0.089393854 0.03549546 -0.037687734 -0.017974127
-0.010744429 0.04162886 0.017901113 -0.07140481 0.04032427 0.06515819 -0.08376699 -0.09690121
-0.10058669 0.0137388045 0.09845677 -0.043538637 0.001996139 -0.07489782 -0.08226542 0.07117679
-0.061587583 0.038327847 -0.014479845 -0.06522209 -0.0048101754 -0.0005756273 -0.087405466 -0.060498096
-0.011417543 0.034712955 -0.02461375 -0.012718635 -0.058336027 0.01290631 -0.038633093 -0.069655254
0.01925199 0.061625842 -0.024661426 -0.043933444 0.019592775 0.0011104075 -0.018233955 0.02437648
-0.015850084 -0.030505251 0.09997439 0.032602314 0.041403674 -0.02398279 0.033560265 -0.0025376854
-0.048765223 0.08214382 -0.063769 0.0052684266 0.05767783 -0.027748182 -0.050524753 -0.065524265
0.09835814 -0.033680122 -0.012913303 0.047376376 0.00907863 0.0104608685 0.023167934 0.0116549395
0.0031385177 0.08169086 0.055115037 -0.09915423 0.057528194 -0.014113077 -0.08619045 -0.04796184
0.018715056 -0.047073096 -0.09412468 0.06089777 0.05869207 -0.053370558 0.005534809 -0.027630812
0.037467904 0.00953545 -0.019249666 -0.060542 0.06689037 0.027962375 0.019218836 0.049515773
-0.037673123 0.012905153 -0.059365656 -0.07981546 -0.06751299 0.014143604 0.0056048916 -0.07189443
0.06530854 -0.062122505 0.06545314 -0.013574093 -0.0100585325 -0.08868079 -0.051855408 -0.01970939
-0.08602463 0.03651977 -0.07208111 0.034489837 -0.058612734 -0.088667616 -0.019548248 -0.017293358
-0.03615024 0.04182848 -0.019665364 -0.013036712 -0.056786455 -0.042161554 0.061034366 -0.07456264
-0.016229497 0.022497691 -0.06244118 -0.037882924 -0.059843052 -0.07367931 0.07682034 0.00971536
00000000: 031d 793c 3a75 4fbd a6cb 22bd b33e 083d
00000010: 222e 6dbc 7009 53bd 345e 22bc 1bbc 94bd
00000020: 6b13 c0bc 6963 7b3d 1cf7 853d 002b 233d
00000030: e1ce 593d d9e1 6a3d 81a4 e43d 6099 d53c
00000040: 2b33 9b3d 3aba 0b3d 4c5a e5bb c1a0 433d
00000050: d11f 953d ccb3 503d 2ddf b5bd 9bac db3c
00000060: bfce 5dba a6a7 1b3b d012 90bd a46a 983d
00000070: 5765 40bd 2176 50bd acc9 863d 974d 193d
00000080: df6c 05bd 85cc ee3c 55ec cbbb 01d2 4dbb
00000090: 3dc9 80bd db0c 933d f63b 033c 590d 0dbd
000000a0: 8cb2 a9bd 3a08 693d 2766 373d c38f 783d
000000b0: 2f50 aabc 7cb5 62bd 36a1 633d fbfb 51bd
000000c0: 4115 5b3d 8bd3 02bd 00b8 513d 5cfb da3b
000000d0: c02b 2ebd 9b13 ec3c 1d57 433d 9701 34bc
000000e0: 2873 183d 64fa b63d 7596 87b9 d532 5a3d
000000f0: 04e7 51bd 5e05 cd3c 9bfd c33d 567f a03d
00000100: 4af2 d5bd d5c4 82bd 0735 08bd 61b3 863d
00000110: ee9c 12bd 0895 413d 3efd 2a3c d2ef ac3d
00000120: 1adc 69bd 923b 52bd b66c acba 809a 30ba
00000130: 426f b33c 32ee 16bd c1d5 e83c b870 403d
00000140: ca6e bcba d4fb a8bc 2aaa a83d 8989 7dbb
00000150: 0a70 ffbb 29e7 be3d 36b9 36bd 0da7 3ebd
00000160: 624f 043c 711b d3bd 4cac 38bc cb97 98bc
00000170: f1ff 403d 53d4 e43b a072 92bd c7df 1d3d
00000180: daf7 29bd 0f43 cd3c cae8 8e3b 2760 c7bc
00000190: 702a 75bd dafc 67bd e7e5 24ba 42fc 0c3d
000001a0: db5f 993d b00e 583d 92ca 5e3d e71a 153d
000001b0: ac32 c138 8689 e63c 453b 22bd 439c febd
000001c0: d090 fe3c beca c23d 4221 dcbb a298 8a3d
000001d0: 19ac 483c c2c6 143d 6ded 9c3d 5edd 5abc
000001e0: cf7f 8cbd d786 b4bd 921c 913d 999f b73d
000001f0: 2014 b7bd b063 113d 745e 1abd 7a3e 93bc
00000200: 6709 30bc 0683 2a3d 5ba5 923c af3c 92bd
00000210: 102b 253d a871 853d 078e abbd 2474 c6bd
00000220: 6500 cebd b918 613c b4a3 c93d 9255 32bd
00000230: a8d1 023b 0764 99bd c67a a8bd 23c5 913d
00000240: 4343 7cbd a9fd 1c3d df3c 6dbc 2993 85bd
00000250: ad9e 9dbb b2e5 16ba a301 b3bd dacc 77bd
00000260: a510 3bbc 2c2f 0e3d c6a2 c9bc d261 50bc
00000270: c2f1 6ebd fd74 533c bc3d 1ebd 6aa7 8ebd
00000280: 59b6 9d3c 616b 7c3d c206 cabc 8ef3 33bd
00000290: 0781 a03c 188b 913a 605f 95bc 2fb1 c73c
000002a0: 09d8 81bc 26e6 f9bc 5fbf cc3d 018a 053d
000002b0: e696 293d 8e77 c4bc 7d76 093d 4c4f 26bb
000002c0: 0bbe 47bd 053b a83d 5299 82bd c4a2 ac3b
000002d0: 973f 6c3d 2850 e3bc 0bf3 4ebd 9631 86bd
000002e0: fe6f c93d 2bf4 09bd 5292 53bc bb0d 423d
000002f0: 89be 143c 1064 2b3c aeca bd3c 5cf4 3e3c
00000300: 97af 4d3b 8a4d a73d 4ec0 613d 5f11 cbbd
00000310: afa2 6b3d 893a 67bc 9e84 b0bd a273 44bd
00000320: 5150 993c b8cf 40bd 71c4 c0bd f16f 793d
00000330: 1967 703d 169b 5abd 585d b53b 035a e2bc
00000340: f277 193d 933a 1c3c 7ab1 9dbc e3fa 77bd
00000350: d1fd 883d 5a11 e53c d270 9d3c 0dd1 4a3d
00000360: 224f 1abd 2370 533c 6729 73bd 4a76 a3bd
00000370: 4044 8abd 93ba 673c 3da9 b73b 633d 93bd
00000380: 7cc0 853d 2b74 7ebd 4c0c 863d df65 5ebc
00000390: 8bcc 24bc 469e b5bd 5666 54bd 9675 a1bc
000003a0: ae2d b0bd c195 153d 439f 93bd 3745 0d3d
000003b0: e813 70bd 5e97 b5bd a623 a0bc cdaa 8dbc
000003c0: 4612 14bd 5754 2b3d 4219 a1bc ef97 55bc
000003d0: ea98 68bd 98b1 2cbd 2cff 793d 4cb4 98bd
000003e0: b9f3 84bc 144d b83c 53c2 7fbd 202b 1bbd
000003f0: fd1d 75bd 2ee5 96bd fb53 9d3d 2c2d 1f3c

net.3.weight f4 [1, 128]
-0.033231758 0.004415196 -0.05846607 -0.024834773 0.043454524 0.00035428134 -0.04283277 -0.067788534
-0.004374322 0.06375938 0.044966217 -0.018231077 -0.0048539923 0.038535718 0.0066851014 -0.038540557
0.030678587 0.0010540799 -0.052465826 -0.052605223 -0.030919395 -0.06840547 -0.059853505 0.022046428
-0.0033564712 -0.04639607 -0.04701085 0.037796568 0.012213288 0.06081954 0.014587291 0.021676628
0.012207881 0.010448659 0.05415595 -0.029225007 -0.04913979 -0.0009457266 -0.037438676 0.006071212
-0.0005534532 0.03214068 -0.022441275 -0.032575503 -0.0012210743 -0.00031198625 0.0038269705 -0.0014695805
0.04037638 -0.033051413 0.059083004 0.052801184 0.062331527 0.004583531 0.0018039375 -0.048984893
-0.03712969 0.052641593 0.010689715 0.011606383 0.019191317 0.015288511 -0.0001439843 0.050163653
-0.058783747 0.05022774 -0.07137785 -0.028082771 -0.06561835 -0.059014793 -0.04827861 -0.015824972
-0.0028328227 -0.00015474891 -0.033488777 0.06840713 -0.0021704503 0.004074133 0.021111894 -0.007452237
0.026533578 -0.006395136 0.038180765 0.06079267 0.050335184 0.03124644 -0.03856088 -0.030365286
0.015628792 -0.05309325 0.0137068 -0.044290673 -0.03159971 -0.007858521 0.06608871 -0.003272303
-0.06645029 0.052521773 0.044067144 -0.06109602 -0.017593421 0.0272964 0.043409977 0.04878411
0.024751136 0.004271749 0.06556282 -0.059471782 0.012375455 -0.052579187 -0.015914517 -0.0067349253
0.0096439505 -0.06980485 -0.05480501 -0.050232265 0.007831647 0.01868543 0.0032834767 0.0013519466
0.021871338 0.04204044 -0.06544474 0.006299814 -0.025014104 0.0055067083 -0.030485025 0.040866174
00000000: 061e 08bd 59ad 903b 1e7a 6fbd 4b72 cbbc
00000010: 5ffd 313d d6be b939 6a71 2fbd b7d4 8abd
00000020: 7956 8fbb 4794 823d 7f2e 383d 5759 95bc
00000030: 3d0e 9fbb a1d7 1d3d b20e db3b b4dc 1dbd
00000040: a951 fb3c 0d29 8a3a 68e6 56bd 9378 57bd
00000050: ac4a fdbc 2b18 8cbd f328 75bd b69a b43c
00000060: 3ef8 5bbb ce09 3ebd 738e 40bd 93d0 1a3d
00000070: 3e1a 483c e91d 793d 88ff 6e3c 2f93 b13c
00000080: 9003 483c da30 2b3c a1d2 5d3d 4869 efbc
00000090: ce46 49bd a3ea 77ba 4c59 19bd 04f1 c63b
000000a0: 9e15 11ba f2a5 033d c4d6 b7bc e46d 05bd
000000b0: 740c a0ba 1692 a3b9 e9cd 7a3b f09e c0ba
000000c0: b461 253d eb60 07bd 0501 723d 0e46 583d
000000d0: 584f 7f3d 7231 963b 1972 ec3a 62a4 48bd
000000e0: 4d15 18bd b69e 573d ea23 2f3c b328 3e3c
000000f0: 1c37 9d3c aa7c 7a3c 7efa 16b9 6778 4d3d
00000100: 3ac7 70bd 9abb 4d3d 8d2e 92bd d70d e6bc
00000110: ea62 86bd 7fb9 71bd cbbf 45bd 5fa3 81bc
00000120: e1a6 39bb 1844 22b9 872b 09bd 0a19 8c3d
00000130: 1d3e 0ebb 4e80 853b daf2 ac3c e531 f4bb
00000140: f25c d93c 4a8e d1bb 6f63 1c3d bc01 793d
00000150: 442c 4e3d 89f8 ff3c 03f2 1dbd 9fc0 f8bc
00000160: f407 803c 4f78 59bd 7c92 603c 236a 35bd
00000170: b36e 01bd 07c1 00bc 8559 873d 2274 56bb
00000180: 1717 88bd 1221 573d c07f 343d d23f 7abd
00000190: 1420 90bc b39c df3c a9ce 313d d9d1 473d
000001a0: e5c2 ca3c 07fa 8b3b cd45 863d af98 73bd
000001b0: 6cc2 4a3c 465d 57bd 295f 82bc a6b0 dcbb
000001c0: a901 1e3c d8f5 8ebd 387b 60bd 59c0 4dbd
000001d0: 4f50 003c 3012 993c 992f 573b cd33 b13a
000001e0: 852b b33c 9932 2c3d e407 86bd ac6e ce3b
000001f0: 61ea ccbc 9e71 b43b bbbb f9bc 4a63 273d
