path/to/dir/cond_wire/2026_02_04__10_49_25-m86jjm67/2026_02_04__10_49_25-m86jjm67-model.pt (torch, 274896 bytes, 7 tensors)

net.0.freq_scale.weight f4 [256, 5]
0	0x3eafd575	0.34342542
1	0x3e65cacc	0.22440642
2	0x3eb1e066	0.34741515
3	0x3d5de630	0.054174602
4	0x3dd1ecd9	0.10250253
5	0x3ea82c85	0.32846466
6	0x3e3f96ea	0.18709913
7	0xbea1638c	-0.3152126
8	0xbeb14a11	-0.3462682
9	0xbbf69d5e	-0.007526084
10	0x3e6b1f16	0.22961077
11	0x3e701a4b	0.2344753
12	0x3ec75181	0.3892937
13	0x3e3ff63f	0.18746279
14	0xbeced57f	-0.4039726
15	0xbe6506a1	-0.2236581
16	0x3e840e84	0.25792325
17	0xbd51daf7	-0.05123421
18	0x3e1b8668	0.1518799
19	0x3e138306	0.1440545
20	0xbe287dab	-0.16454189
21	0xbd64910a	-0.055802383
22	0x3eaeeafe	0.3416366
23	0xbee10660	-0.43950176
24	0x3e9bf1a7	0.30457804
25	0x3d7179f4	0.058954194
26	0x3ec002b4	0.37502062
27	0xbe46d415	-0.1941684
28	0xbc73e462	-0.014885994
29	0x3e12654f	0.14296459
30	0xbe6da529	-0.23207535
31	0x3df095b1	0.11747301
32	0xbd84bbc0	-0.06481123
33	0x3c06fc32	0.008238839
34	0xbea1fb57	-0.3163707
35	0xbec4d88e	-0.38446468
36	0x3ecf7c4b	0.40524516
37	0xbee9ed93	-0.45689067
38	0x3ec1e9c5	0.37873664
39	0x3eac7888	0.33685708
40	0x3ea02032	0.31274563
41	0x3e238b77	0.1597117
42	0x3e57c3ce	0.21070787
43	0x3e7c3c80	0.24632454
44	0xbdf221e3	-0.1182287
45	0xbe01af2c	-0.12664479
46	0x3e50dc5e	0.20396563
47	0x3e8cb9c5	0.2748548
48	0xbe37b198	-0.1793884
49	0x3e5e09b0	0.21683383
50	0xbe2901d7	-0.16504608
51	0xbeb509b3	-0.35358962
52	0x3c864e73	0.01639483
53	0xbe90aff2	-0.28259236
54	0x3e91e6af	0.2849631
55	0x3e8dbcf8	0.27683234
56	0x3de47c13	0.11156478
57	0xbeba94a0	-0.36441517
58	0x3ed16e8b	0.4090465
59	0xbd7f3810	-0.062309325
60	0xbebd2ce4	-0.3694831
61	0xbecdbbac	-0.40182245
62	0x3e4f7805	0.20260628
63	0x3db3f253	0.08786454
64	0xbd96e489	-0.07367808
65	0x3d989419	0.074501224
66	0xbdcacaee	-0.09901987
67	0x3d0d08e5	0.03443231
68	0x3c150352	0.00909503
69	0x3e382f16	0.17986712
70	0xbece195f	-0.40253732
71	0x3ed97a9a	0.4247635
72	0xbe29b3ef	-0.16572545
73	0x3eb27796	0.34856862
74	0xbec2c580	-0.38041306
75	0xbed133e2	-0.40859896
76	0xbe9a6bc1	-0.30160335
77	0x3ecb3667	0.39689943
78	0x3db3abe4	0.0877302
79	0x3cde1b68	0.027112678
80	0xbe8fb1dd	-0.28065386
81	0xbdc85798	-0.09782332
82	0x3e902610	0.2815404
83	0x3e6b6bf1	0.22990395
84	0x3ec3e4d4	0.3826052
85	0xbedbcb95	-0.42928758
86	0x3e0e589e	0.13900992
87	0xbe99f9fb	-0.30073532
88	0xbec45366	-0.38344878
89	0xbdd9995c	-0.10624954
90	0x3d8b3eb2	0.067990676
91	0xbec10643	-0.3770009
92	0xbe8924ef	-0.2678599
93	0x3ed93213	0.42421016
94	0xbe990add	-0.298911
95	0xbdf89840	-0.121384144
96	0xbe00acff	-0.12565993
97	0xbf067d20	-0.52534676
98	0xbd868bd1	-0.065696366
99	0x3eab455f	0.33451363
100	0x3e05f439	0.13081445
101	0xbec896b0	-0.39177465
102	0xbd6f9bf6	-0.058498345
103	0xbea70473	-0.32620582
104	0x3d4d8712	0.05017764
105	0xbe7c14ca	-0.24617305
106	0x3e888f11	0.2667165
107	0xbec6e20d	-0.38844338
108	0x3e9b8cb2	0.3038078
109	0x3ea70277	0.32619068
110	0xbe9f635f	-0.31130502
111	0x3e89fbbd	0.26949874
112	0xbd16a1f6	-0.03677555
113	0x3dd1a263	0.10236051
114	0x3eb24f3b	0.34826073
115	0xbe2c5588	-0.16829503
116	0xbbb25dce	-0.0054433113
117	0xbef1974c	-0.47185743
118	0x3e89016b	0.26758894
119	0x3e8bd477	0.27310535
120	0x3e5e36d3	0.21700601
121	0xbdbfef34	-0.09371796
122	0x3eb90c94	0.3614241
123	0xbe89eb55	-0.26937357
124	0xbecdaf28	-0.40172696
125	0xbe22d39b	-0.15901034
126	0xbeaabb52	-0.3334604
127	0x3e742edd	0.23846002
128	0xbed2c16a	-0.41163188
129	0x3e31648b	0.1732351
130	0x3da63c66	0.08116989
131	0x3e2596f7	0.1617087
132	0x3e83340b	0.25625643
133	0xbd64084d	-0.05567198
134	0xbdaa2d3a	-0.083094075
135	0x3ddbc11d	0.10730193
136	0xbed5436c	-0.41653
137	0xbeb797ec	-0.35858095
138	0x3d9fd282	0.07803823
139	0xbeb9f7d5	-0.36321893
140	0xbe9521c0	-0.29127312
141	0x3e0f723a	0.14008418
142	0x3d2cd4e2	0.04219521
143	0x3de522e2	0.11188294
144	0xbe88bc02	-0.2670594
145	0x3e838d7a	0.25693876
146	0x3e2f3e7b	0.17113678
147	0x3eec2a81	0.46126178
148	0xbea35ad0	-0.31905222
149	0x3e763868	0.24044955
150	0x3e17ef6a	0.14837423
151	0x3eb03af8	0.3441999
152	0x3e948314	0.29006255
153	0xbbdc80a4	-0.0067292023
154	0x3db3925f	0.087681524
155	0x3ec2b370	0.38027525
156	0xbdd5e9f7	-0.10445016
157	0x3ee1640f	0.4402165
158	0xbddd7e04	-0.10815051
159	0x3dd360c3	0.1032119
160	0x3eb67702	0.3563767
161	0x3da23067	0.07919388
162	0xbee300ca	-0.4433654
163	0xbd9bc19b	-0.07605287
164	0x3e2d0a56	0.16898474
165	0xbe1242e7	-0.14283334
166	0xbe39c141	-0.18140127
167	0xbe9c0ca1	-0.30478385
168	0x3da4eda9	0.080531426
169	0x3e94f4c0	0.2909298
170	0x3e0702f6	0.13184723
171	0x3ecdfe6d	0.40233174
172	0x3b949622	0.004534499
173	0x3e719512	0.23592022
174	0xbece4a01	-0.40290835
175	0xbe08d4a1	-0.13362361
176	0xbd8db60d	-0.06919489
177	0xbe4fa14a	-0.2027637
178	0xbea407da	-0.3203724
179	0x3e85f09a	0.26160127
180	0xbe7600fa	-0.2402381
181	0x3e979173	0.29603156
182	0x3e7e3fe9	0.24829067
183	0x3d95e6ba	0.07319398
184	0xbe14e68d	-0.14541073
185	0x3dcb99f4	0.099414736
186	0xbe6e7f26	-0.23290691
187	0xbc2537c4	-0.010084096
188	0x3e29ca45	0.16581066
189	0xbe0c5b74	-0.13706762
190	0xbe2bfe82	-0.16796306
191	0x3eaa26e1	0.33232787
192	0xbebf510c	-0.3736652
193	0x3ea16bbb	0.31527504
194	0x3dc74e27	0.09731703
195	0x3e93b404	0.2884828
196	0xbe2d23b1	-0.16908146
197	0xbc6ab9a5	-0.014326488
198	0xbecbcb0e	-0.39803356
199	0xbe21ded0	-0.15807652
200	0x3e737d9e	0.23778388
201	0xbcc0b029	-0.0235215
202	0x3e5a75c0	0.2133398
203	0xbecb954a	-0.39762336
204	0xbe6f507d	-0.23370548
205	0x3eae0daa	0.339948
206	0xbe47ab61	-0.1949897
207	0xbec91628	-0.39274716
208	0x3e803d7d	0.25046912
209	0xbec6bc17	-0.38815376
210	0xbddea78b	-0.108718
211	0x3eac20dc	0.3361882
212	0x3c138792	0.00900449
213	0x3c092e57	0.008372865
214	0xbd8a077a	-0.06739707
215	0x3e9525f3	0.29130515
216	0xbe504c7f	-0.20341681
217	0xbea97623	-0.33097944
218	0x3e262bba	0.16227618
219	0xbe8d9afa	-0.276573
220	0x3c2a51b6	0.010395458
221	0xbed77996	-0.4208495
222	0x3eff18ab	0.49823508
223	0x3e03e5d4	0.12880641
224	0xbdb58617	-0.08863466
225	0x3e95d1c8	0.29261613
226	0x3e8c3c52	0.2738977
227	0xbebd5cc1	-0.36984828
228	0xbe8c9cf7	-0.27463505
229	0xbec77283	-0.38954553
230	0x3bde1e92	0.0067785466
231	0xbe912d52	-0.2835489
232	0x3f0d1188	0.55104876
233	0x3e736098	0.23767316
234	0xbe600dcc	-0.21880263
235	0x3e89187d	0.26776496
236	0xbeba9890	-0.3644452
237	0x3e15f12d	0.14642783
238	0xbedddf22	-0.433343
239	0x3eb0ee8e	0.34557003
240	0xbec15839	-0.3776262
241	0x3e0d15a0	0.1377778
242	0x3e61a98f	0.22037338
243	0xbed6b24a	-0.419329
244	0xbdfade87	-0.12249475
245	0xbda3dbcc	-0.08000907
246	0x3e909581	0.28239062
247	0x3cff45d1	0.03116122
248	0xbe4a5303	-0.19758229
249	0xbd8b26de	-0.06794523
250	0x3e8f18ea	0.27948695
251	0xbe8e63c3	-0.27810487
252	0xbf07b927	-0.53016895
253	0x3e43afbc	0.19110006
254	0x3e691543	0.22762017
255	0x3e7fc95d	0.24979158

net.0.freq_scale.bias f4 [256]
0	0xbdc7e86d	-0.097611286
1	0xbe06b1d9	-0.13153781
2	0xbd111a10	-0.035425246
3	0x3e90542b	0.28189215
4	0x3e834a52	0.2564264
5	0xbe943c0a	-0.28952056
6	0xbdaa02cf	-0.08301317
7	0xbe178a30	-0.14798808
8	0xbe80fa8f	-0.2519116
9	0xbe3e5931	-0.18588711
10	0xbe4e061b	-0.20119517
11	0xbecb3b6a	-0.39693767
12	0x3ee2275a	0.44170648
13	0x3d854bcb	0.06508597
14	0x3ecf590b	0.40497622
15	0xbddd3bc9	-0.10802419
16	0xbd9e7bbc	-0.07738444
17	0x3db557ed	0.08854661
18	0x3edf4907	0.43610403
19	0x3d902707	0.07038694
20	0xbea3c4b7	-0.3198602
21	0xbede11ab	-0.43372855
22	0xbd16d5e7	-0.036825087
23	0xbe8343fa	-0.256378
24	0xbedff0a7	-0.4373829
25	0x3e8d05ae	0.27543396
26	0xbdf54917	-0.119768314
27	0x3ca2b4a6	0.01986153
28	0x3d9259bc	0.07146022
29	0xbe826b3d	-0.2547244
30	0x3ec6fd58	0.3886516
31	0x3e8f2f58	0.27965808
32	0x3da243d9	0.07923097
33	0xbe9fd4d2	-0.31217057
34	0x3ed6b7d3	0.41937122
35	0xbeb890da	-0.36048013
36	0xbea2c6ca	-0.3179229
37	0x3ec1f09e	0.3787889
38	0x3d48aea7	0.048994686
39	0xbd879964	-0.06621054
40	0x3da3c262	0.0799606
41	0x3e522b01	0.20524217
42	0x3ec3d71b	0.3825005
43	0x3ed85341	0.42251018
44	0x3d378d41	0.044812445
45	0xbd6175da	-0.055044033
46	0x3ed63457	0.41836807
47	0xbded401a	-0.11584492
48	0x3d2bf5ac	0.041982338
49	0x3ed4291b	0.4143761
50	0xbee27ccf	-0.44235846
51	0xbec8b545	-0.39200798
52	0xbe8ba744	-0.2727605
53	0xbeb67ec3	-0.35643587
54	0xbe915198	-0.28382564
55	0x3c2af799	0.010435008
56	0xbe9d6f24	-0.30748856
57	0xbe8fdeca	-0.28099662
58	0x3e76c54c	0.240987
59	0xbdd4b2b0	-0.103856444
60	0x3ed20f3e	0.41027254
61	0x3e1162d1	0.14197852
62	0xbd6ec858	-0.05829653
63	0x3edc00b5	0.4296929
64	0x3db207fb	0.086929284
65	0x3e5ee85d	0.21768327
66	0xbedaa23d	-0.42701903
67	0x3ec747aa	0.38921863
68	0x3d5a3403	0.05327226
69	0x3ed1a40e	0.40945476
70	0x3e399910	0.18124795
71	0xbda74cbc	-0.08168933
72	0x3ebf098a	0.37311965
73	0xbe3c468c	-0.18386286
74	0xbda436c3	-0.080182575
75	0x3e7635de	0.24043986
76	0x3e85d973	0.26142463
77	0x3e82efd6	0.25573605
78	0xbeb7cab3	-0.35896835
79	0x3d2af231	0.041734878
80	0xbdb410c4	-0.0879226
81	0xbe147fd2	-0.14501885
82	0x3e9c5525	0.3053371
83	0xbe0bad8f	-0.13640426
84	0x3d80578c	0.06266698
85	0x3dea07b5	0.11427251
86	0xbe921699	-0.28532866
87	0xbe08131e	-0.13288543
88	0xbe3b802b	-0.18310611
89	0x3ec4e78a	0.384579
90	0xbd467518	-0.048451513
91	0xbeaac441	-0.33352855
92	0x3db8ee1e	0.09029792
93	0x3eb7f008	0.35925317
94	0xbe916a2c	-0.28401315
95	0x3dbfc93c	0.09364554
96	0xbea05629	-0.31315735
97	0xbd5943e8	-0.053043276
98	0xbeddf9a8	-0.43354535
99	0xbdb2b809	-0.08726508
100	0xbe221890	-0.15829682
101	0x3e14de9c	0.14538044
102	0x3dbda0ce	0.09259187
103	0xbe47e3fe	-0.19520566
104	0xbe13c49c	-0.1443047
105	0xbe545475	-0.20735343
106	0x3e85e321	0.26149848
107	0x3db86b32	0.09004821
108	0x3d46de2d	0.048551727
109	0x3dc3800f	0.095459096
110	0xbea9b930	-0.331491
111	0x3ed5b49f	0.41739365
112	0xbeca9c34	-0.395723
113	0x3e4988cd	0.19681092
114	0xbec54578	-0.38529563
115	0xbe998f86	-0.29992312
116	0xbeae0e64	-0.33995354
117	0x3e078dc8	0.13237679
118	0x3df82c34	0.12117806
119	0x3de7fe60	0.11327815
120	0xbd71776c	-0.05895178
121	0x3e759f50	0.23986554
122	0x3e73107a	0.23736754
123	0xbeb418d9	-0.35175207
124	0x3c6b5877	0.014364353
125	0x3eb85f10	0.36010027
126	0x3e62aa26	0.22135219
127	0x3de1dc60	0.11028361
128	0x3e7b66f8	0.24550998
129	0xbd535365	-0.051593203
130	0x3e73a336	0.23792729
131	0x3e24be7d	0.1608829
132	0xbe04c56c	-0.12965935
133	0x3d730396	0.05932959
134	0xbe0079bd	-0.1254644
135	0x3ee0a564	0.43876183
136	0xbe0de7d9	-0.13857974
137	0x3e1c7496	0.15278849
138	0x3ea4d0ef	0.32190654
139	0x3ead20f7	0.33814213
140	0x3e98eaf8	0.29866767
141	0x3e266ae7	0.16251718
142	0xbe78316a	-0.242376
143	0x3df2dc93	0.118584774
144	0xbe40a39b	-0.1881241
145	0x3e19cbca	0.15019146
146	0xbe23136d	-0.15925379
147	0x3e32f600	0.17476654
148	0x3dc17f9e	0.09448169
149	0x3e9ed1c7	0.31019422
150	0xbd779c3b	-0.060451727
151	0xbd92d7bd	-0.07170055
152	0xbe0d267b	-0.1378421
153	0x3eafbf7d	0.3432578
154	0x3e1ec74f	0.15505718
155	0x3e5220b5	0.20520289
156	0xbec3aaff	-0.38216397
157	0xbdea8927	-0.11451941
158	0xbeae9cf0	-0.3410411
159	0x3d21d536	0.039509974
160	0xbb8c9885	-0.0042906427
161	0xbe8c4bcd	-0.2740158
162	0x3e394cfa	0.1809577
163	0x3e8ff61c	0.28117454
164	0x3d3ade10	0.04562193
165	0x3e05f16b	0.13080375
166	0xbe16da71	-0.14731766
167	0x3dc07b80	0.09398556
168	0x3e1e9547	0.15486632
169	0xbcc2706c	-0.023735248
170	0xbe7b5a92	-0.24546269
171	0xbe3958ac	-0.18100232
172	0x3e630375	0.22169288
173	0x3ecef18a	0.40418655
174	0x3e8faede	0.280631
175	0x3ec0a2d8	0.3762424
176	0x3eaddb89	0.33956555
177	0x3eba62aa	0.364034
178	0x3e84a55f	0.25907418
179	0x3d2137b0	0.03935975
180	0xbe318153	-0.1733449
181	0x3e6be1f5	0.23035415
182	0x3e70f439	0.23530664
183	0x3ed66f1c	0.41881645
184	0xbe7e1270	-0.24811721
185	0xbec3b811	-0.3822637
186	0xbd077c79	-0.03307769
187	0xbe629361	-0.22126533
188	0xbe3f64f1	-0.1869085
189	0xbd78ce29	-0.060743485
190	0xbdde3f1a	-0.108518794
191	0xbe2ac782	-0.16677669
192	0x3d0abeb5	0.03387328
193	0x3edb96fd	0.42888632
194	0xbea8a482	-0.3293801
195	0x3e1be016	0.15222201
196	0x3e9db49d	0.3080186
197	0x3e79e6cd	0.2440445
198	0x3ec3ac2b	0.3821729
199	0xbdfcb05e	-0.12338327
200	0x3cb22eb8	0.021750793
201	0x3e07495a	0.13211575
202	0xbe9530ee	-0.29138893
203	0xbeb36ffc	-0.35046375
204	0x3ea829ae	0.328443
205	0x3eaa4f28	0.33263516
206	0x3e43e8e1	0.19131805
207	0x3ebd3e29	0.36961487
208	0x3d403c08	0.04693225
209	0x3dcd1a32	0.10014762
210	0xbee45e97	-0.44603416
211	0x3e037ac5	0.12839802
212	0xbece3fd0	-0.4028306
213	0xbeb8f92d	-0.36127606
214	0x3e795d5a	0.24352017
215	0x3e86da3d	0.26338378
216	0x3e0cf0c3	0.13763718
217	0x3e2be761	0.16787483
218	0x3e1798a1	0.14804317
219	0xbddd74d6	-0.108133
220	0x3eea3778	0.45745444
221	0x3e445360	0.1917243
222	0x3da55b1b	0.080740176
223	0x3e89343f	0.26797673
224	0xbeddd2bd	-0.43324843
225	0xbe1fd85a	-0.15609875
226	0x3e8da4af	0.27664706
227	0x3e8c68b7	0.2742364
228	0x3e8d6fc3	0.2762433
229	0x3d572e52	0.05253441
230	0xbe49c8bb	-0.19705479
231	0x3e6a2c8e	0.22868559
232	0xb9c64e98	-0.0003782406
233	0xbe96a4b4	-0.29422534
234	0xbecb7c3f	-0.3974323
235	0x3e76412c	0.24048299
236	0xbc28986a	-0.010290245
237	0x3ea6c610	0.32572985
238	0x3ea75bd5	0.3268725
239	0xba48f59e	-0.00076659943
240	0xbda05548	-0.07828766
241	0xbd9ee3f3	-0.077583216
242	0xbea931ac	-0.3304571
243	0x3ed6d03a	0.4195574
244	0x3e376b3b	0.17911999
245	0x3ea94649	0.33061436
246	0x3e48ed96	0.19621882
247	0x3dbfc162	0.09363057
248	0xbdc85cbb	-0.09783312
249	0xbe67a0bc	-0.22619909
250	0xbe92f1a7	-0.2869999
251	0x3d98f369	0.07468302
252	0x3d49ea74	0.049295858
253	0xbddec33a	-0.1087708
254	0x3eaf78b1	0.34271768
255	0xbe8098de	-0.25116628

net.1.freq_scale.weight f4 [256, 128]
0	0x3ca40ff8	0.020027146
1	0xbd0f1925	-0.03493609
2	0x3d30c452	0.043155976
3	0x3ceb4e0c	0.02872374
4	0x3d230191	0.039796416
5	0xbd86433e	-0.06555794
6	0x3d9c1d42	0.07622768
7	0x3d554e52	0.052076645
8	0xbc0a7907	-0.008451707
9	0x3d8d26fd	0.06892202
10	0x3cbfc246	0.023408066
11	0x3d753186	0.059861682
12	0x3d19f3de	0.037586085
13	0xbcd9d878	-0.026592478
14	0x3dc54f90	0.09634316
15	0x3b66241c	0.0035116738
16	0xbd63e3c1	-0.055637125
17	0x3bfead8b	0.007772153
18	0x3b98712a	0.004652162
19	0x3da12670	0.078686595
20	0x3dbdd7e6	0.09269695
21	0xbd36b09a	-0.044602014
22	0xbd48433f	-0.048892256
23	0xbd3eff74	-0.046630338
24	0x3d9bd1bf	0.07608365
25	0x3c965a48	0.018353596
26	0x3a7b4684	0.0009585398
27	0x3db25bee	0.087089404
28	0xbda07007	-0.078338675
29	0xbd5c5827	-0.053795006
30	0x3d44f81c	0.048088178
31	0x3bda27f0	0.006657593
32	0x3ce49e83	0.027907616
33	0xbccb4818	-0.02481465
34	0x3da2f56a	0.07956965
35	0xbcb6109b	-0.022224715
36	0xbba9dafc	-0.0051835757
37	0xbc6eea22	-0.014582189
38	0xbd5caad0	-0.053873837
39	0x3d915be4	0.07097605
40	0x3dae22a1	0.08502699
41	0xbdbec807	-0.09315496
42	0x3d63f29b	0.05565129
43	0xbd56831c	-0.05237113
44	0x3ceaf59b	0.028681567
45	0xbd848336	-0.06470339
46	0x3cd2ded9	0.025741028
47	0xbd0d0fcc	-0.034438893
48	0x3c9584f6	0.018251877
49	0x3d2a8bb0	0.041637123
50	0xbd82b0df	-0.06381392
51	0xbd7ddea6	-0.061979912
52	0xbd47a767	-0.04874363
53	0x3da924fe	0.08259009
54	0x3d92afe0	0.07162452
55	0xbd846df7	-0.06466287
56	0xbd838f35	-0.06423799
57	0xbd94aa89	-0.072590895
58	0x3daa857b	0.08326241
59	0x3d981470	0.07425773
60	0x3c3264cf	0.010888292
61	0x3d0a5008	0.03376773
62	0xbd6ac601	-0.057317737
63	0x3bdeb808	0.0067968406
64	0xbd331e97	-0.043730345
65	0xbd5067fb	-0.050880414
66	0xbd833777	-0.064070635
67	0xbc7f2ab8	-0.01557415
68	0xbc8948c8	-0.016758338
69	0x3d70813c	0.058716998
70	0xbdc6798d	-0.09691153
71	0x3db4f5a0	0.08835912
72	0xbd85e8d2	-0.065385476
73	0x3d11228d	0.03543334
74	0xbca85f95	-0.02055339
75	0x3d97bb7f	0.07408809
76	0xbd259b47	-0.040431287
77	0xbc43144a	-0.011906693
78	0xbd2d3919	-0.04229078
79	0x3dbb9d2d	0.09160838
80	0x3d389fbb	0.045074206
81	0x3d3b061c	0.045660123
82	0xbc1a0344	-0.009400193
83	0x3cb2d8c6	0.021831881
84	0xbd5804cf	-0.05273896
85	0xbd8a642c	-0.067573875
86	0x3dc161ec	0.09442505
87	0x3d99c43c	0.07508132
88	0x3b417414	0.002951865
89	0xbd89df43	-0.06732037
90	0x3c83ebc3	0.01610363
91	0x3c472c3b	0.012156541
92	0x3d2a61fc	0.04159735
93	0x3d8812d6	0.06644218
94	0x3d811efd	0.06304739
95	0xbd733891	-0.059380118
96	0x3d3d5975	0.04622789
97	0xbcbfcc2a	-0.023412783
98	0xbcf7fb5a	-0.030271221
99	0x3ca76aba	0.020436633
100	0x3d17c194	0.037049845
101	0xba8ab315	-0.0010581935
102	0xbd840fbe	-0.06448315
103	0xbda491df	-0.08035635
104	0x3cf4669e	0.029834088
105	0x3d072b01	0.032999996
106	0xbd7a1b4d	-0.061061192
107	0x3c290247	0.010315484
108	0x3cca140d	0.024667764
109	0x3cfcf6b3	0.030879354
110	0xbcc14731	-0.023593517
111	0xbda215fc	-0.079143494
112	0xbd427780	-0.047477245
113	0x3d2f8f03	0.042860996
114	0x3d389f70	0.045073926
115	0x3d32faec	0.04369633
116	0xbbd4e0d8	-0.00649653
117	0x3d28bac8	0.041193753
118	0xbd806fdc	-0.062713355
119	0x3d15fca3	0.036617886
120	0xbd1972cb	-0.03746299
121	0xbb492a6f	-0.0030695458
122	0xbd192dcc	-0.03739719
123	0xbd80ad62	-0.0628307
124	0x3b6b9b4f	0.0035950725
125	0x3b1b0478	0.0023653787
126	0xbd2dd60a	-0.04244045
127	0xbd2bbcdf	-0.04192817
128	0x3d972148	0.07379395
129	0xbd1af726	-0.037833355
130	0xbbce4109	-0.006294374
131	0xbc0063ec	-0.007836323
132	0x3d67a2f8	0.056551903
133	0x3be74e3d	0.0070588873
134	0x3d42cef8	0.047560662
135	0xbd389fc2	-0.045074232
136	0x3d911af5	0.0708522
137	0xbc5157a1	-0.01277724
138	0x3c57b682	0.013166072
139	0x3ca69af0	0.020337552
140	0xbd2ad3c2	-0.041705854
141	0x3c87ff20	0.016601145
142	0xbda88a4c	-0.08229503
143	0xbd8c97d2	-0.06864895
144	0x3c850dff	0.016242025
145	0x3b24beeb	0.002513821
146	0x3d8f43b6	0.06995337
147	0xbd22afe9	-0.039718542
148	0x3d8ec410	0.0697099
149	0xbdc8f293	-0.09811892
150	0x3ceb6ce0	0.02873844
151	0x3d8ade14	0.06780639
152	0x3da18867	0.07887345
153	0xbda47c58	-0.08031529
154	0xbd9d6bce	-0.07686578
155	0xbd6e7a75	-0.058222253
156	0x3d7dae99	0.061934087
157	0x3b14c82c	0.002270232
158	0x3d4dba82	0.050226696
159	0x3d439c4c	0.04775648
160	0x3da2e0f4	0.07953063
161	0xbda84cf9	-0.08217806
162	0x3c1f3c9b	0.009719039
163	0xbd2cc2c3	-0.042177927
164	0x3d09f32d	0.033679176
165	0xbd75fb3c	-0.06005405
166	0xbbccb3a3	-0.0062470003
167	0x3cab1ef7	0.020888789
168	0xbdc7e07a	-0.097596124
169	0xba1ea7c7	-0.00060522225
170	0x3d3fb23f	0.046800848
171	0x3d53a006	0.051666282
172	0x3d6d2591	0.057897154
173	0x3d562eab	0.0522906
174	0xbd1f25e7	-0.038854506
175	0xbc11160d	-0.008855355
176	0xbd837b29	-0.06419975
177	0x3da255b2	0.07926501
178	0xbd21a9e9	-0.03946868
179	0xbb6b7be5	-0.0035932001
180	0x3cb6c26f	0.02230951
181	0x3d944d0d	0.07241259
182	0xbd3e14ac	-0.046406433
183	0xbd90a67c	-0.070630044
184	0xbda848f1	-0.082170375
185	0xbd494c97	-0.049145307
186	0x3d3a4513	0.04547603
187	0x3d531672	0.051535077
188	0xbd941baa	-0.07231839
189	0xbd5c6622	-0.05380834
190	0xbd87d00e	-0.0663148
191	0x3dcebe6a	0.10094912
192	0x3ca70085	0.02038599
193	0x3bc792ac	0.0060904827
194	0xbd90e101	-0.07074166
195	0x3d58506d	0.052811075
196	0xbda06b53	-0.078329705
197	0x3d444a0f	0.04792219
198	0xbd15595b	-0.03646217
199	0xbd6f0e7a	-0.058363415
200	0x3c4ebf98	0.012618922
201	0x3db0435b	0.08606597
202	0x3cbcf4a3	0.02306587
203	0xbca11fe0	-0.01966852
204	0x3be95115	0.0071202614
205	0xbd59f73e	-0.053214304
206	0x3c8d8c31	0.017278763
207	0xbd43b4d4	-0.047779873
208	0xbd39cb72	-0.045360036
209	0xbd3cabcf	-0.046062287
210	0x3d5740ec	0.05255215
211	0xbc9d4caf	-0.019201605
212	0xbd8533b4	-0.06504002
213	0xbd5cec67	-0.05393639
214	0xbc28ab77	-0.010294787
215	0x3c0d5114	0.008625288
216	0xbda96665	-0.08271483
217	0xbdac4f4a	-0.08413561
218	0xbd6d1960	-0.057885528
219	0xbac34999	-0.0014899253
220	0xbd8142d2	-0.06311573
221	0xbd06c55f	-0.03290307
222	0xbdb960a3	-0.09051635
223	0x3daf17a5	0.08549432
224	0xbdba4021	-0.09094263
225	0x3d9a32db	0.07529231
226	0xbca114a0	-0.019663155
227	0xbd2b0930	-0.04175681
228	0x3bacb39c	0.0052704345
229	0xbd129844	-0.035789743
230	0x3dc2e8c0	0.0951705
231	0x3b9ac9a0	0.0047237426
232	0xbd1c3358	-0.038134903
233	0xbd8d56ad	-0.06901298
234	0x3b39d263	0.002835416
235	0x3d95ffc0	0.07324171
236	0x3bdc01e2	0.0067140916
237	0xbd8d16da	-0.06889124
238	0xbd57739c	-0.052600488
239	0x3d5bb9e9	0.053644095
240	0xbd64edc6	-0.05589082
241	0x3d213215	0.039354403
242	0x3d8946d4	0.067029625
243	0x3c2c4c18	0.010516189
244	0x3c130c86	0.008975154
245	0xbb1611ee	-0.002289887
246	0x3d9a3c22	0.07531001
247	0x3dac104f	0.08401548
248	0x3d37f5d7	0.044912186
249	0x3cb0e390	0.021592885
250	0x3c6b7f01	0.014373542
251	0xbcf44fdd	-0.029823238
252	0x3d0f6a08	0.03501323
253	0x3d40c469	0.04706231
254	0xbc9fead7	-0.01952116
255	0x3d0fd12f	0.035111602

net.1.freq_scale.bias f4 [256]
0	0x3d60d829	0.054893646
1	0xbd45c32f	-0.048281845
2	0x3bbf0700	0.005829692
3	0xbd8506ed	-0.064954616
4	0xbd20e7c1	-0.039283518
5	0xbb14de82	-0.0022715633
6	0xbcbed5f5	-0.023295382
7	0xbc65ddc7	-0.014029927
8	0xbd53f8f2	-0.051751085
9	0xbcb218a6	-0.021740269
10	0x3c064a1b	0.008196379
11	0x3c9566fd	0.018237585
12	0xbb99fe05	-0.004699471
13	0x3b99cefc	0.004693864
14	0xbd800f56	-0.06252925
15	0xba7d4171	-0.00096609356
16	0x3ce800b4	0.028320648
17	0xbd6b7050	-0.057480156
18	0xbd1a0ae3	-0.03760804
19	0xbd5cbe29	-0.05389229
20	0x3ca4bed4	0.020110525
21	0x3d943c19	0.07238025
22	0xbc7871ab	-0.015163819
23	0x3b40a814	0.0029397057
24	0x3c16ac8a	0.00919641
25	0x3d04e6a1	0.032446507
26	0x3d6984ea	0.057011522
27	0xbd80a9eb	-0.06282409
28	0xbdaa1a21	-0.08305765
29	0x3d87800e	0.06616221
30	0x3cca2aa9	0.024678545
31	0xbd997d05	-0.07494549
32	0xbd6bd6c1	-0.057577852
33	0x3d0b63f3	0.034030866
34	0x3d87862a	0.06617387
35	0xbda1e875	-0.07905666
36	0xbd72127d	-0.059099663
37	0xbd3a6e56	-0.04551538
38	0xbd692962	-0.05692423
39	0x3c95e781	0.018298866
40	0xbd3373e9	-0.043811712
41	0xbd8ca883	-0.068680786
42	0x3baf4cbf	0.005349725
43	0xbc7c8b8d	-0.015414131
44	0xbd943ce6	-0.07238178
45	0xbd2038f4	-0.039116815
46	0x3d4ff238	0.050768107
47	0x3b7fe893	0.0039048537
48	0x3d3c3c4f	0.045955952
49	0x3c4ced1f	0.012507706
50	0xbd2d6932	-0.04233665
51	0x3d44c0e3	0.048035514
52	0xbbb7765d	-0.005598827
53	0xbddb16a5	-0.106976785
54	0x3dba288a	0.090897635
55	0xbdcf70da	-0.101289466
56	0xbd08f6ed	-0.03343861
57	0xbdd4ed0c	-0.103967756
58	0x3db88109	0.090089865
59	0x3d8b84cd	0.06812439
60	0x3cd9379e	0.026515778
61	0xbcee02d9	-0.029054092
62	0xbd6fd38a	-0.05855135
63	0x3d94f5ee	0.0727347
64	0x3d902451	0.07038177
65	0x3c623a40	0.013807833
66	0x3d29acd1	0.041424576
67	0xbce4e90f	-0.027943162
68	0x3d58e7b7	0.052955355
69	0x3c7d16b7	0.01544731
70	0xbca87766	-0.020564746
71	0xbd8370ca	-0.06417997
72	0x3cda57e2	0.026653234
73	0xbc88a4b0	-0.016680092
74	0x3d2eb319	0.04265127
75	0xbbc207f6	-0.005921359
76	0xbc1cae1d	-0.009562996
77	0xbd10771d	-0.035269845
78	0x3d5e8501	0.05432606
79	0xbc7d342d	-0.015454334
80	0x3d75e94e	0.06003695
81	0x3bc99b0d	0.0061525167
82	0x3c61b502	0.013776066
83	0xbd00a95e	-0.03141152
84	0xbd31cebf	-0.04341006
85	0x3c7f5dbd	0.015586314
86	0xbda21b12	-0.079153195
87	0x3d5fe6ea	0.054663576
88	0xbc0bdee5	-0.008537029
89	0xbd92e625	-0.07172803
90	0xbd55497a	-0.052072026
91	0x3d2a915d	0.041642535
92	0xbd26493b	-0.04059718
93	0xbca4ef58	-0.02013366
94	0xbd9c24de	-0.07624219
95	0xbdc65e82	-0.09685995
96	0xbcba5369	-0.022744851
97	0x3d1a2d62	0.037640937
98	0xbd01638c	-0.031589076
99	0x3c5ca6af	0.013467475
100	0x3c8893ed	0.016672099
101	0x3d525ed7	0.051359978
102	0x3d0023e8	0.031284243
103	0xbdbb5f87	-0.0914908
104	0x3cc65c8c	0.024214052
105	0xbc92ab75	-0.017904023
106	0x3cce4993	0.025181567
107	0x3d8d44ad	0.068978645
108	0xbce77efb	-0.028258791
109	0xbc65fc5f	-0.014037221
110	0x3d821c9d	0.06353114
111	0xbdb18632	-0.08668174
112	0xbce54aff	-0.027989862
113	0xbc03db67	-0.008047915
114	0x3bf0bc0d	0.007346636
115	0xbd902686	-0.07038598
116	0xbb771bcd	-0.003770578
117	0xbd8186a0	-0.06324506
118	0xbd28ecd1	-0.04124147
119	0xbd277895	-0.04088648
120	0x3d937979	0.072009034
121	0xbceeaa64	-0.029133983
122	0xbd5568e2	-0.052101977
123	0x3d8ba9cc	0.068194956
124	0x3d7e58d3	0.062096428
125	0x3d9882e1	0.07446838
126	0x3cd52bdf	0.026021896
127	0x3bcf9a30	0.0063355193
128	0xbd59ca15	-0.053171236
129	0x3d43d3c6	0.047809385
130	0xbd445470	-0.04793209
131	0x3da28838	0.07936138
132	0xbcd9f5d5	-0.02660648
133	0xbd6a0686	-0.057135127
134	0xbc441487	-0.011967785
135	0xbd7bf85e	-0.06151616
136	0xbd112fce	-0.03544598
137	0x3cd9786c	0.02654668
138	0xbd3c57ba	-0.0459821
139	0x3d609978	0.05483386
140	0x3d809d74	0.06280032
141	0x3d6b2397	0.057406988
142	0xbd15bc91	-0.036556784
143	0x3d8bd6aa	0.06828053
144	0xbd51ae6b	-0.05119173
145	0x3d54d58a	0.05196146
146	0x3ce16dc8	0.027518168
147	0xbb90e66c	-0.0044219997
148	0xbc9cf805	-0.019161234
149	0xbc49e4bf	-0.012322604
150	0x3d3d0339	0.04614565
151	0x3daf9798	0.08573836
152	0xbd37cd00	-0.044873238
153	0x3cf900ec	0.030395947
154	0x3dc2de76	0.09515087
155	0xbc18ed7c	-0.009333964
156	0x3d39ebea	0.045391
157	0x3d2634bd	0.04057764
158	0x3d89d1f2	0.06729497
159	0xbdba8075	-0.091065325
160	0x3d8767dc	0.066116065
161	0x3be47f52	0.0069731856
162	0x3d0cf8f5	0.03441711
163	0x3d77812f	0.060425933
164	0x3d32ee05	0.043684024
165	0xbd82d1f4	-0.06387702
166	0xbd8b8c68	-0.0681389
167	0x3d495114	0.049149588
168	0x3d225490	0.039631426
169	0xbd8fe82a	-0.07026704
170	0xbd7219e8	-0.059106737
171	0xbda60060	-0.0810554
172	0x3c14f645	0.009091918
173	0xbd635fb0	-0.055511177
174	0x3d230b03	0.039805423
175	0x3da8b15c	0.082369536
176	0x3cf205b0	0.029543728
177	0x3c84d9b3	0.016217088
178	0xbdd22a74	-0.102620035
179	0xbd98271b	-0.07429334
180	0x3d866b54	0.0656344
181	0x3d44c49d	0.048039068
182	0xbd460647	-0.04834583
183	0xbd4208ce	-0.047371678
184	0xbd8b3de0	-0.06798911
185	0xbcbdd0c5	-0.023170838
186	0xbdc5ef02	-0.09664728
187	0xbd19f0ce	-0.037583165
188	0xbd8bf696	-0.06834142
189	0x3d8d0ff7	0.06887811
190	0xbc5f3eed	-0.0136258425
191	0x3d4f23fe	0.050571434
192	0xbcb8e939	-0.022572147
193	0xbd2e1290	-0.04249817
194	0x3d38d96e	0.045129232
195	0x3ce1bf67	0.027557088
196	0x3d9cab1f	0.07649826
197	0xbdbd5a73	-0.092457674
198	0x3cf97000	0.030448914
199	0x3d3c1957	0.045922603
200	0xbd48d71f	-0.04903328
201	0xbdba13ea	-0.090858296
202	0x3cbc71eb	0.02300354
203	0xbdacbff8	-0.08435053
204	0xbcd87494	-0.026422776
205	0x3d74395b	0.05962501
206	0xbd857127	-0.06515723
207	0xbdcde5b9	-0.10053582
208	0xbd49ca2f	-0.049265083
209	0xbc8ffd75	-0.017576912
210	0xbcfe4de1	-0.031042995
211	0x3d7b1a69	0.061304484
212	0x3d6b3191	0.057420317
213	0xbc321cbc	-0.010871109
214	0x3db6cf44	0.089262515
215	0x3d80d850	0.06291258
216	0x3d18ccc0	0.03730464
217	0x3db31586	0.0874434
218	0xbd78002c	-0.06054704
219	0xbd75d0d3	-0.060013603
220	0xbdaea97b	-0.085284196
221	0x3db45430	0.0880512
222	0x3d8fa5ba	0.07014032
223	0x3d9836dc	0.074323386
224	0xbd96690a	-0.07344253
225	0x3cd63085	0.026146183
226	0xbd423bf2	-0.04742045
227	0x3ba0dea7	0.0049093547
228	0x3da2d80a	0.079513624
229	0xbd38ba5f	-0.045099612
230	0xbcb992a5	-0.022652933
231	0xbd814a9b	-0.06313058
232	0x3d8789f9	0.06618113
233	0x3babe1e5	0.0052454346
234	0x3d9118cd	0.070848085
235	0xbd7f526e	-0.06233447
236	0xbc4d88ce	-0.012544824
237	0x3ccd4635	0.025057891
238	0x3d7a82b5	0.06115981
239	0x3b3ba3a6	0.0028631478
240	0xbdab6b4c	-0.08370075
241	0x3cc2d9aa	0.023785431
242	0xbd5fbff9	-0.05462644
243	0x3c8a486d	0.016880238
244	0x3d2bb3c1	0.041919474
245	0x3bbe42e0	0.005806312
246	0x3db47ec2	0.0881324
247	0x3ce6fa6a	0.028195579
248	0xbd4b7854	-0.0496753
249	0x3da91755	0.08256403
250	0xbdc6afd2	-0.09701504
251	0xbdcf1075	-0.10110561
252	0xbc9d14b3	-0.01917491
253	0x3d9747ff	0.07386779
254	0xbb828448	-0.0039830543
255	0xbcbd408e	-0.023102071

net.2.freq_scale.weight f4 [256, 128]
0	0xbdb89779	-0.09013266
1	0xbd228d78	-0.039685696
2	0x3c35d08f	0.0110970875
3	0xbd93b578	-0.07212347
4	0xbd8c036d	-0.06836591
5	0x3d86a98b	0.065753065
6	0x3d910db1	0.070826896
7	0x3d41bf40	0.04730153
8	0xbd4d3599	-0.050099943
9	0x3cb438df	0.021999775
10	0xbccd7ee3	-0.025084918
11	0xbdd8b1ac	-0.10580763
12	0xbcabbfb8	-0.020965442
13	0x3d139157	0.03602728
14	0xbcc301c1	-0.023804547
15	0xbd0bd379	-0.034137223
16	0xbd4db3d2	-0.05022032
17	0xbca3783a	-0.01995479
18	0xbd71c26d	-0.05902331
19	0x3d1ecb0d	0.038767863
20	0xbdbd00db	-0.09228679
21	0xbdab5513	-0.08365836
22	0x3d49f4d7	0.049305763
23	0xbd7e1635	-0.062032897
24	0xbd9e1e4f	-0.07720625
25	0xbd5a4c27	-0.05329528
26	0xbcb6fcc3	-0.022337323
27	0xbcfb64fd	-0.030687803
28	0x3cffc34b	0.031221053
29	0xbd036f6e	-0.03208869
30	0x3d8773cb	0.06613883
31	0xbc1d598a	-0.009603867
32	0xbd9c3cb5	-0.076287664
33	0xbdbc8f9b	-0.09207078
34	0xbdd311ff	-0.10306167
35	0xbcb384ca	-0.021913905
36	0x3d0727ac	0.03299682
37	0x3d77ea58	0.060526222
38	0x3d7657fa	0.060142495
39	0x3d013356	0.0315431
40	0xbda6b4e2	-0.081399694
41	0x3d4a3f61	0.04937685
42	0x3d27a655	0.04093011
43	0x3d9dee09	0.07711417
44	0xbd99f0c7	-0.07516628
45	0x3a166fbd	0.0005738696
46	0x3d4ef21d	0.050523866
47	0xbd054989	-0.03254083
48	0x3d1c1020	0.038101315
49	0xbbc5cea0	-0.0060365945
50	0x3d8fcde5	0.07021693
51	0x3d4ccef5	0.050002057
52	0x3d48359e	0.04887926
53	0xbd58fb79	-0.052974198
54	0x3d9021d2	0.07037701
55	0xbd8fb914	-0.07017723
56	0xbd6926a7	-0.056921627
57	0x3d5a320f	0.053270396
58	0x3c01dc59	0.00792607
59	0xbcd1972e	-0.025584783
60	0x3d753498	0.05986461
61	0x3c86975e	0.0164296
62	0x3da51650	0.080608964
63	0x3d57d82a	0.052696384
64	0x3c2296ea	0.009923676
65	0xbde0423c	-0.10950133
66	0xbc37be38	-0.011214785
67	0xbdb81d50	-0.08989966
68	0x3c953a74	0.01821635
69	0xbcdffef2	-0.027343247
70	0x3d460a6d	0.048349787
71	0x3d767e2e	0.060178928
72	0xbca8a2e3	-0.020585483
73	0xbd7c2a58	-0.06156382
74	0xbb935493	-0.004496166
75	0xbdb979e7	-0.09056454
76	0x3ccb4e08	0.024817482
77	0xbd0c17b3	-0.03420229
78	0xbda7398d	-0.08165274
79	0xbd9314f5	-0.071817316
80	0xbd56bc01	-0.05242539
81	0x3c70f8d5	0.014707764
82	0xbdc29347	-0.09500747
83	0xbde005ae	-0.10938583
84	0xbd38d96a	-0.045129217
85	0xbd9cf6f6	-0.076642916
86	0xbc719fa4	-0.014747534
87	0xbd8a89be	-0.067645535
88	0xbd02bed3	-0.031920265
89	0x3d35e1ee	0.044404916
90	0xbd8efa24	-0.06981304
91	0xbd1f8007	-0.038940456
92	0x3ca1c888	0.019748941
93	0x3d974b2d	0.073873855
94	0xbd0cc661	-0.034368876
95	0x3c610b8b	0.013735662
96	0xbd713884	-0.058891788
97	0x3d155b3f	0.036463972
98	0xbdbaee5a	-0.09127493
99	0x3ce6ad45	0.028158793
100	0x3cf93c32	0.030424211
101	0xbd17d948	-0.03707245
102	0x3d44b745	0.048026342
103	0xbcf215a8	-0.029551342
104	0xbdae2c7c	-0.085045785
105	0x3cd1c45a	0.025606323
106	0xbd06b033	-0.03288288
107	0xbb1660b0	-0.0022945814
108	0xbce9f011	-0.028556855
109	0xbd18ebfb	-0.037334424
110	0xbd4cd5b0	-0.050008476
111	0x3d525c69	0.05135766
112	0xbd4017e2	-0.046897776
113	0xbc733cf4	-0.014846075
114	0xbd6679d4	-0.056268528
115	0xbda461f5	-0.08026496
116	0xbdd4269e	-0.10358928
117	0xbd82eac2	-0.06392433
118	0x3d91504f	0.07095396
119	0xbd578428	-0.05261627
120	0x3d39a070	0.04531902
121	0xbdb0997f	-0.08623027
122	0xbc8382d7	-0.0160536
123	0x3d67833a	0.05652163
124	0xbda3b7fe	-0.07994078
125	0x3c9164e7	0.01774831
126	0xbd8aaaee	-0.067708835
127	0x3d8cf4b6	0.068826124
128	0x3d62e9d9	0.055398796
129	0xbd97371c	-0.07383558
130	0xbd0e9a0f	-0.03481489
131	0xbd18d103	-0.037308704
132	0xbd7b6af4	-0.061381295
133	0xbd014170	-0.031556547
134	0xbd9c026c	-0.076176494
135	0xbd819cf2	-0.06328763
136	0xbd774ff9	-0.060379002
137	0xb9bb254b	-0.00035695205
138	0xbd484757	-0.04889616
139	0x3db43bb3	0.08800449
140	0x3d1bc9c5	0.03803422
141	0x3c9d324d	0.019189024
142	0x3c52972d	0.012853426
143	0xbca8a1a2	-0.020584885
144	0x3c8f5512	0.01749662
145	0xbcf53d5c	-0.029936485
146	0xbd15bc75	-0.03655668
147	0xbd20efa4	-0.03929104
148	0x3c3fea9a	0.011713648
149	0xbd9345c8	-0.07191044
150	0x3d8e75c0	0.06956053
151	0xbd2101f9	-0.039308522
152	0xbd78d32e	-0.06074827
153	0xbd727dba	-0.059201933
154	0x3c71ad0f	0.014750733
155	0x3d721cad	0.05910938
156	0x3d9fd2a5	0.07803849
157	0x3c48beb0	0.012252495
158	0xbd81aed3	-0.06332173
159	0x3c520f68	0.012821056
160	0xbd7fbfc8	-0.062438756
161	0x3d7cb24a	0.061693467
162	0xbd31d2cd	-0.043413926
163	0x3d9cbbae	0.076529846
164	0x3d69d86f	0.057091173
165	0x3bd287ba	0.0064248713
166	0x3d0ce9d7	0.034402695
167	0x3db12f33	0.08651581
168	0x3a81aa85	0.0009892738
169	0x3db199ef	0.08671939
170	0xbd917854	-0.07103029
171	0x3d777ce9	0.060421858
172	0x3d75604c	0.05990629
173	0xbdacd897	-0.08439749
174	0x3d4fb4c1	0.05070949
175	0x3d94f22f	0.07272755
176	0x3db1d183	0.08682539
177	0xbcc6af3c	-0.02425348
178	0xbd1fa134	-0.038972095
179	0xbd10bca8	-0.035336167
180	0x3cb80236	0.022461992
181	0x3d678c23	0.05653013
182	0xbd67d592	-0.05660016
183	0x3d15479b	0.03644524
184	0xbd087f08	-0.03332427
185	0x3ada170c	0.0016638949
186	0xbcd20881	-0.02563882
187	0xbd8accf1	-0.06777371
188	0xbda67a84	-0.08128837
189	0x3d8bd137	0.06827014
190	0xbd58f195	-0.052964766
191	0x3d5b57d5	0.05355056
192	0x3beef50a	0.0072923945
193	0xbd2bbb20	-0.041926503
194	0x3daa3688	0.08311182
195	0x3d9dfdff	0.077144615
196	0xbb38628d	-0.0028134913
197	0xbd6782a3	-0.05652107
198	0xbd961c65	-0.073296346
199	0xbc98130c	-0.01856377
200	0x3d50e7ff	0.0510025
201	0xbd9f35c2	-0.07773925
202	0xbb4e427e	-0.0031472738
203	0xbd1b6949	-0.037942205
204	0x3c2de438	0.010613494
205	0x3d55e5a8	0.05222097
206	0xbd44bdcb	-0.048032563
207	0xbd2b5de9	-0.041837607
208	0x3d392ba7	0.045207646
209	0xbdade533	-0.08490982
210	0xbc7af934	-0.015318204
211	0x3cce5723	0.025188034
212	0x3d033331	0.03203124
213	0xbd8f9aea	-0.070119694
214	0x3d83a5e0	0.064281225
215	0xbd6f328a	-0.058397807
216	0x3d1c3116	0.03813275
217	0xbd2150fd	-0.039383877
218	0x3be03bbd	0.006843059
219	0x3d10452c	0.035222217
220	0xbca5837e	-0.020204302
221	0xbcdf1cc7	-0.027235402
222	0xbd44ea25	-0.04807486
223	0xbd6433dc	-0.05571352
224	0xbb980e8a	-0.004640405
225	0x3d886b22	0.06661059
226	0x3cb6a521	0.022295536
227	0xbbb6e7df	-0.0055818404
228	0x3dc074b8	0.09397262
229	0x3d7c1f02	0.06155301
230	0xbd0aae76	-0.033857785
231	0xbaf78ea8	-0.0018887119
232	0x3cb93552	0.022608433
233	0xbc6c4a0c	-0.014421951
234	0x3d244004	0.040100113
235	0xbd8deddc	-0.06930134
236	0xbd19635e	-0.03744828
237	0x3db07ea1	0.086179025
238	0x3d11a7f1	0.035560552
239	0xbd0d5b10	-0.034510672
240	0xbd857d13	-0.06517997
241	0xbd3454ad	-0.044026066
242	0x3b3e2fd2	0.0029020202
243	0x3c95188c	0.018200181
244	0x3d74cbae	0.059764557
245	0x3d8d0de8	0.06887418
246	0x3db477cb	0.08811911
247	0xbd98472c	-0.0743545
248	0x3d114230	0.035463512
249	0x3dc969ae	0.0983461
250	0x3cf6dc83	0.030134445
251	0xbc08ecef	-0.008357271
252	0x3cec0f86	0.028815996
253	0xbb755c1f	-0.0037438942
254	0x3d7ca879	0.061684106
255	0xbd5fda99	-0.05465183

net.2.freq_scale.bias f4 [256]
0	0x3b86209c	0.004093243
1	0xbcec0591	-0.028811248
2	0x3db8e022	0.09027125
3	0xbd2612d5	-0.040545303
4	0xbc45b3e7	-0.012066818
5	0x3d6eb469	0.05827752
6	0x3ddf4cbe	0.10903309
7	0xbc845993	-0.016155994
8	0x3d160f37	0.036635604
9	0x3cf5a549	0.02998604
10	0xbd02c94d	-0.031930257
11	0x3dda476f	0.10658156
12	0xbc61440e	-0.013749136
13	0x3d6a476f	0.05719703
14	0xbc80f7e4	-0.015743203
15	0x3d58741b	0.0528451
16	0x3c8ca0e8	0.01716657
17	0xbd2e1ee5	-0.042509932
18	0xbcd6ad6c	-0.02620574
19	0xbd1512dd	-0.036394943
20	0xbd7c6275	-0.061617333
21	0x3da2b620	0.07944894
22	0x3d02dd1c	0.031949148
23	0xbd8d2819	-0.06892414
24	0x3d90e7be	0.07075451
25	0xbc8a6ea3	-0.016898459
26	0xbd463f31	-0.048400108
27	0xbd3e76df	-0.046500083
28	0xbc868408	-0.01642038
29	0x3d8156c3	0.063153766
30	0x3db28a91	0.08717836
31	0xbd955a22	-0.07292582
32	0x3d016561	0.031590823
33	0x3d881b29	0.066458054
34	0x3c31ff08	0.010864027
35	0xbd96fe27	-0.073726945
36	0x3d14de2b	0.03634469
37	0xbd0dce43	-0.034620535
38	0xbcc1ac67	-0.023641778
39	0x3dc59bf4	0.09648886
40	0x3ad289e6	0.0016062825
41	0xbdbd11fd	-0.092319466
42	0x3d13606f	0.035980638
43	0x3cb4e44c	0.022081517
44	0xbd430d08	-0.04761985
45	0xbb912dae	-0.0044304943
46	0xbd266ab3	-0.0406291
47	0xbda20e1a	-0.07912846
48	0xbd829cc1	-0.06377555
49	0xbd27468b	-0.04083876
50	0xbd4af1ba	-0.049546935
51	0x3ddaa60a	0.10676201
52	0xbd81c2db	-0.06335994
53	0xbcd5a31c	-0.026078753
54	0x3c22d237	0.009937814
55	0x3db4bdd0	0.08825266
56	0x3d12f3da	0.035877086
57	0x3c9c13b5	0.019052366
58	0x3dcfe670	0.10151374
59	0xbce72d0f	-0.028219728
60	0xbd245563	-0.040120494
61	0x3d47d147	0.048783567
62	0x3b0e157f	0.0021680293
63	0xbd6f837f	-0.058475014
64	0x3c9b5960	0.018963516
65	0x3d49b44f	0.04924422
66	0x3d8b7038	0.068085134
67	0xbba833f0	-0.0051331446
68	0x3cae0566	0.021242809
69	0xbd32fe59	-0.043699596
70	0xbc8703f0	-0.01648137
71	0x3cc7215f	0.024307905
72	0x3d37dccf	0.044888314
73	0x3c9d3431	0.019189926
74	0x3a9429aa	0.0011303921
75	0x3d9d7f06	0.076902434
76	0xbd09a27e	-0.03360223
77	0xbda051ba	-0.07828088
78	0x3d27598c	0.040856883
79	0xbd5a5066	-0.05329933
80	0xbd06e468	-0.03293267
81	0xbd94a5f8	-0.072582185
82	0xbc27c75e	-0.010240404
83	0xbd10f9ca	-0.035394467
84	0x3bff37a1	0.007788614
85	0x3d814c64	0.063133985
86	0x3dcc48f0	0.09974849
87	0xbd5c219e	-0.053742997
88	0xbc13aeec	-0.009013873
89	0x3cae4b00	0.021275997
90	0xbd55bb18	-0.05218038
91	0xbd0a1ad4	-0.03371699
92	0xbd8f3ed4	-0.069944054
93	0xbd1ed5d8	-0.038778156
94	0xbd0fd269	-0.035112772
95	0x3d91c5e7	0.07117825
96	0xbc5fb9b6	-0.013655117
97	0xbc9d9464	-0.019235797
98	0x3bff11c8	0.007784102
99	0xbd8b28fd	-0.06794927
100	0xbcf4732f	-0.02984008
101	0xbd5260ed	-0.051361967
102	0xbd793e8c	-0.060850665
103	0x3d9f42a3	0.07776382
104	0xbbc4d97d	-0.006007372
105	0x3d401481	0.046894554
106	0x3ceeaf90	0.02913645
107	0x3c4a1a23	0.012335333
108	0x3de2382e	0.11045872
109	0xbcfa07be	-0.03052127
110	0x3d06f6f5	0.03295036
111	0x3d4985f9	0.049200032
112	0xbd75af28	-0.059981495
113	0x3d3fe181	0.046845917
114	0x3dae97aa	0.085250214
115	0x3d788e90	0.060682833
116	0x3c4cac5b	0.012492265
117	0x3d842e07	0.064540915
118	0xbce1aac1	-0.027547242
119	0x3d6a6e17	0.057233896
120	0x3d8b0cad	0.06789527
121	0xbd9a8f8e	-0.07546912
122	0xbda6e50f	-0.08149158
123	0x3c8d5e7a	0.017256964
124	0xbd04d730	-0.03243178
125	0xbd178fbc	-0.03700231
126	0x3cacc5b0	0.021090358
127	0x3cd5f325	0.026116917
128	0xbda50760	-0.08058047
129	0xbc8e463f	-0.01736748
130	0x3c7ffefc	0.015624758
131	0xbd673bec	-0.05645363
132	0xbd862c4c	-0.06551418
133	0x3d84f915	0.06492821
134	0xbd724e57	-0.059156742
135	0xbdbb5bc9	-0.09148366
136	0xbc8e058b	-0.017336627
137	0x3d87b703	0.066267036
138	0x3d794d4e	0.06086474
139	0x3d4c79d7	0.049920883
140	0xbda06e48	-0.078335345
141	0x3d603a65	0.05474319
142	0xbc18500c	-0.009296428
143	0x3d57da0b	0.052698176
144	0x3c5ed0dc	0.013599601
145	0x3d232663	0.03983153
146	0x3d76829c	0.060183153
147	0xbc877e97	-0.016539855
148	0x3d8ec1db	0.06970569
149	0x3daf50fb	0.08560368
150	0x3cda87c8	0.026676074
151	0x3d26a666	0.040686034
152	0xbd5c0464	-0.053715125
153	0x3d95c84a	0.07313593
154	0xbd9e7929	-0.07737953
155	0xbc8ef2c6	-0.017449748
156	0xb93392ee	-0.00017125506
157	0x3d5aa5b5	0.053380687
158	0xbdb9a4ac	-0.09064612
159	0x3d83cf75	0.06436054
160	0x3d366c24	0.044536725
161	0x3cb35863	0.021892732
162	0x3d33f5aa	0.043935455
163	0x3db1f857	0.08689945
164	0x3d3dff1f	0.04638588
165	0x3c48dfe0	0.012260407
166	0x3bf1f64d	0.0073840977
167	0x3c6ffed8	0.014648162
168	0x3c8724af	0.016496984
169	0x3d527831	0.051384155
170	0xbc5c291d	-0.013437537
171	0x3d99f264	0.075169355
172	0xba4b6535	-0.00077589165
173	0xba5301d4	-0.00080492836
174	0x3d444521	0.04791749
175	0xbd3a4fdc	-0.045486316
176	0x3d4de0e6	0.050263308
177	0x3d5bef63	0.053695094
178	0xbd90d311	-0.07071508
179	0xbcd41252	-0.025887642
180	0xbd18ccbf	-0.037304636
181	0x3bc8a917	0.0061236727
182	0x3d5d4e39	0.054029677
183	0x3cbd9016	0.023139995
184	0xbd7a2fc4	-0.06108071
185	0x3d7c1a16	0.061548315
186	0x3cf30bb0	0.029668659
187	0xbd1a8b33	-0.037730407
188	0xbd6a2ecb	-0.05717353
189	0x3da8202a	0.0820926
190	0x3c94f348	0.018182412
191	0x3d835fe4	0.06414774
192	0xbc1aca2a	-0.009447614
193	0xbaba1424	-0.0014196676
194	0x3dd0c108	0.10193068
195	0xbd413ea4	-0.04717888
196	0x3d22c271	0.039736215
197	0x3c872055	0.01649491
198	0x3db46e22	0.08810069
199	0xbdba47c3	-0.09095719
200	0x3bc22080	0.0059242845
201	0xbbc1886a	-0.0059061544
202	0xbd30a152	-0.043122597
203	0xbd1c317b	-0.038133126
204	0xbdb80212	-0.0898477
205	0xbdb6c088	-0.08923441
206	0x3d97a56a	0.07404597
207	0xbd687df4	-0.056760743
208	0xbcd8f404	-0.026483543
209	0xbc58ba5f	-0.013228028
210	0xbca791fa	-0.02045535
211	0x3d7789bb	0.060434084
212	0x3bb7c972	0.005608731
213	0x3cd1910c	0.025581859
214	0x3d2f4c78	0.042797536
215	0x3c4da94e	0.012552572
216	0xbdb3005f	-0.08740305
217	0x3bb171b5	0.0054151663
218	0x3d2987f8	0.041389436
219	0x3d17accb	0.037030023
220	0x3cc1e6ab	0.023669561
221	0xbc9daded	-0.019247973
222	0x3da09f38	0.078428686
223	0x3d16aa48	0.036783487
224	0x3ca0cde6	0.01962943
225	0xbd76bd8e	-0.060239367
226	0x3d966c9b	0.073449336
227	0xbc4d9fd0	-0.012550309
228	0x3c8c89a7	0.017155482
229	0xbce53121	-0.027977528
230	0x3d1ab904	0.0377741
231	0x3beecd84	0.007287683
232	0xbd29be51	-0.041441265
233	0xbd7b92a2	-0.061419137
234	0xbd5eb93c	-0.054375872
235	0x3cd54ceb	0.026037654
236	0xbbe2734f	-0.0069107185
237	0x3cc189b7	0.023625238
238	0x3cf2b7f6	0.029628735
239	0xbdb302fd	-0.08740804
240	0xbcd63665	-0.026148984
241	0x3da838d0	0.08213961
242	0x3dab7c1e	0.08373283
243	0x3cc0be77	0.02352832
244	0xbb9ccdad	-0.0047852607
245	0xbdc23ecf	-0.09484636
246	0xbc22b2b3	-0.0099303005
247	0x3d9c2553	0.076243065
248	0xbdee6776	-0.11640827
249	0xbd99de5e	-0.07513116
250	0xbc1ef3af	-0.009701653
251	0xbc89f976	-0.016842585
252	0x3cb3ff70	0.021972388
253	0xbcc390b5	-0.023872713
254	0x3d9eea3c	0.077595204
255	0xbb65b7eb	-0.003505225

net.3.weight f4 [1, 128]
0	0xbd25ea8e	-0.040506892
1	0x3d1e7465	0.03868522
2	0x3d556e63	0.052107226
3	0xbd86a186	-0.06573777
4	0xb9e9b225	-0.0004457395
5	0xbd82fa91	-0.06395448
6	0xbd00f8ef	-0.0314874
7	0xbc26b177	-0.010174147
8	0xbc459efb	-0.01206183
9	0xbd2ebde1	-0.04266155
10	0x3bf0dabc	0.007350294
11	0xbc42d1a1	-0.0118908
12	0xbd2d999c	-0.04238282
13	0x3ccc76ce	0.024958994
14	0x3aa81a04	0.0012825136
15	0xbce1cc39	-0.027563201
16	0x3b8cb231	0.004293703
17	0xbd2ff6c4	-0.042959943
18	0x3d9491b9	0.07254357
19	0xbcd2aefd	-0.025718207
20	0xbd1f95b6	-0.038961135
21	0xba361f09	-0.00069473736
22	0xbc84d9a4	-0.01621706
23	0xbd5e542a	-0.054279484
24	0x3c4740c4	0.012161437
25	0x3ce340d1	0.027740868
26	0xbd1b4f60	-0.037917495
27	0xbcc4e3ee	-0.024034467
28	0x3d1c38f3	0.03814025
29	0xbb92a823	-0.00447561
30	0x3d7cd031	0.061721984
31	0x3cef0707	0.029178156
32	0xbcbfbc96	-0.023405354
33	0xbcd7c4cb	-0.026338955
34	0x3d1a5eed	0.037688185
35	0xbd2198a3	-0.039452206
36	0x3d3875bf	0.045034166
37	0xbb89df6e	-0.004207543
38	0x3b65fc8b	0.0035093154
39	0x3d15455c	0.0364431
40	0xbd1624c9	-0.036656175
41	0xb9e58da4	-0.00043783814
42	0xbba7293e	-0.005101352
43	0xba86a78f	-0.0010273325
44	0x3d2fbe38	0.042906016
45	0x3d761187	0.06007531
46	0x3d2a75df	0.041616317
47	0xbd54dd00	-0.051968575
48	0xbb1906e7	-0.0023350061
49	0xbaeb6929	-0.0017960417
50	0x3bb9474b	0.0056542507
51	0xbd6cf8a3	-0.057854306
52	0xbbce2cd0	-0.006291963
53	0x3cc7f771	0.024409981
54	0xb9d2bb30	-0.00040193787
55	0xbcf976a3	-0.030452078
56	0x3c346896	0.011011263
57	0x3cd94741	0.026523234
58	0xbd37177a	-0.044700123
59	0x3c1b21f7	0.009468547
60	0x3a225edb	0.0006193944
61	0x3d19dc28	0.037563473
62	0xbcd3ec86	-0.02586962
63	0xba861768	-0.0010230364
64	0xbbe634df	-0.0070253457
65	0xbcbb382e	-0.022853937
66	0xbc7f09fe	-0.015566347
67	0x3d2ed1f8	0.04268071
68	0xbbc68e61	-0.0060594534
69	0xbb006c78	-0.0019595902
70	0xbc1df407	-0.0096407
71	0x3d176d3a	0.0369694
72	0xbd397b7c	-0.04528378
73	0x3d531975	0.05153795
74	0xbb97e92b	-0.00463595
75	0x3d0aa154	0.03384526
76	0x3d4ae5eb	0.049535673
77	0xbbe12eaa	-0.006872018
78	0x3cb229f9	0.02174853
79	0xbd0f0daa	-0.03492514
80	0x3d4e07ec	0.050300524
81	0x3a55d838	0.0008157524
82	0xbd1f8876	-0.0389485
83	0xbd09a80b	-0.033607524
84	0x3d27803c	0.04089378
85	0x3d83a0dd	0.064271666
86	0x3cb5d6df	0.022197185
87	0x3c349d2d	0.011023802
88	0xbcab634b	-0.02092137
89	0xba208409	-0.00061231904
90	0xbca50b10	-0.020146877
91	0xbd6b5545	-0.057454366
92	0xbce5bac6	-0.028043162
93	0xbb5c0bbb	-0.0033576328
94	0x3cad9c51	0.021192702
95	0x3c283ab3	0.010267901
96	0xbb71324f	-0.0036803668
97	0xbc8536ca	-0.016261477
98	0x3c48973c	0.012243088
99	0x3d90ac23	0.070640825
100	0x3b8041b1	0.003914081
101	0xbb0f92bc	-0.002190753
102	0xbb37e146	-0.0028057857
103	0xbca15f05	-0.01969863
104	0xbca14196	-0.019684594
105	0x3c6d4148	0.014480896
106	0xbd4a8cc7	-0.049450662
107	0x3d3b0047	0.04565456
108	0xbcd62389	-0.026139991
109	0xbcd13dfe	-0.025542255
110	0xbab52938	-0.0013821488
111	0x3cd13627	0.025538517
112	0x3d1e74e6	0.0386857
113	0x3d025fc6	0.031829618
114	0xbd1d8491	-0.038456503
115	0x3d4236b7	0.04741546
116	0x3d1c39f6	0.038141213
117	0xbc8235f3	-0.015894866
118	0xbd6997c5	-0.057029504
119	0xba5e100a	-0.0008471018
120	0xbc832691	-0.0160096
121	0xbd545ddf	-0.051847335
122	0x3d478643	0.048712026
123	0x3ac25082	0.0014825019
124	0xbc096ac6	-0.008387273
125	0x3d6a155f	0.057149287
126	0x3cb8623c	0.02250778
127	0x3cab0d88	0.020880476
