path/to/dir/cond_wire/2026_01_28__15_30_13-no_wandb_id/2026_01_28__15_30_13-no_wandb_id-model.pt (torch, 72884 bytes, 7 tensors)

net.0.freq_scale.weight f4 [128, 3]
000000 20 80 e3 3e ea 1f 9d 3e 8a 51 8a 3e b4 d3 99 3d
       0.4443369 0.3068841 0.27015334 0.07511082
000010 fa 6b 1e 3e c7 c8 e1 3e f9 8f 73 3e 88 3b f6 be
       0.15470877 0.44098493 0.2378539 -0.48092294
000020 7e 9b e0 be aa 2c d2 bc fe c3 9e 3e 27 d0 a9 3e
       -0.4386863 -0.025656063 0.31008905 0.3316662
000030 89 0d 00 3f 80 b5 81 3e 02 7c 06 bf 9a 39 95 be
       0.50020653 0.25333786 -0.5253297 -0.2914551
000040 21 1c a7 3e 7d a7 19 3d e4 94 2a 3e e3 d1 63 3e
       0.32638648 0.037513245 0.1665836 0.22248034
000050 47 bc 67 be f8 b5 c4 bd da 6f 8c 3e 76 dc 18 bf
       -0.22630416 -0.0960502 0.27429086 -0.59711397
000060 aa 4e d3 3e 49 af 83 3d a8 af 02 3f bd 67 a7 bd
       0.41270953 0.06429917 0.5104928 -0.081740834
000070 ad 27 bd bc c0 41 40 3e 1a 26 96 be cb ff 5e 3e
       -0.023090208 0.18775082 -0.29325944 0.21777265
000080 1b f4 a6 bd 42 e7 df 3c d2 39 cd be b0 13 01 bf
       -0.08152028 0.027331952 -0.40083176 -0.50420666
000090 ed 89 ed 3e 87 0b 07 bf 89 b0 ff 3e 9d f2 d3 3e
       0.46394292 -0.52751964 0.49939373 0.41396037
0000a0 e9 fd b9 3e aa 56 97 3e 5a 22 db 3d c7 15 a3 3e
       0.3632653 0.29558307 0.106999114 0.31852552
0000b0 7c 5b 1b be 24 7d 3b be ad ce 87 3e ec e6 f6 3e
       -0.15171617 -0.18309456 0.2652487 0.48223054
0000c0 5f 52 60 be c8 52 91 3e d1 ea 59 be c6 69 db be
       -0.21906422 0.2838347 -0.21280982 -0.42854136
0000d0 2b 80 ad 3d 26 80 b4 be 47 fb bc 3e 85 db d1 3e
       0.08471712 -0.3525402 0.3691046 0.40987793
0000e0 41 27 1f 3e fd 2c c5 be 97 3f 00 3f d2 a8 ef bd
       0.15542318 -0.38510886 0.5009703 -0.11702122
0000f0 01 f4 f1 be 7d cb 02 bf 70 ea 2e 3e a1 17 bb 3d
       -0.47256473 -0.5109175 0.17081618 0.09135366
000100 b5 36 07 be 1b f8 af 3d a9 ad 0c be ea 09 a4 3d
       -0.13204463 0.08592244 -0.13738121 0.080097035
000110 c1 c3 5c bc 87 c5 69 3e 2d 55 12 bf f9 33 09 3f
       -0.013474406 0.22829257 -0.5716122 0.5359493
000120 c2 d4 6a be d8 fe e5 3e 28 b1 fa be 0d b2 f7 be
       -0.22932723 0.44920993 -0.48963284 -0.4837803
000130 dd 21 d0 be 28 21 c6 3e 23 75 d1 3d b3 0e f1 3c
       -0.40650836 0.3869717 0.1022742 0.029425954
000140 a8 27 c1 be 03 38 e2 bd a6 aa 8f 3e 74 39 92 3e
       -0.37725568 -0.1104584 0.28059882 0.28559458
000150 5f 2e f0 3e a5 1d 0b bf ce 24 0c 3e fb e2 71 be
       0.46910378 -0.5434211 0.13685915 -0.23621742
000160 5e 0d f4 be 64 d9 03 be 68 de c8 3d d1 5a 01 bf
       -0.47666448 -0.12875897 0.098080456 -0.505292
000170 a6 fc 34 be 52 42 01 3f 88 66 cc be ca 88 3f be
       -0.17674503 0.5049182 -0.39921975 -0.18704525
000180 81 17 45 be e7 a3 08 bf d4 72 a5 bd a2 b6 bd 3e
       -0.19247247 -0.53375095 -0.08078542 0.370534
000190 56 97 36 3e 29 a0 02 bf 08 ed 48 be ae d1 d7 be
       0.17831168 -0.51025635 -0.1962167 -0.4215216
0001a0 3b 60 a2 3d 32 13 9f be 29 1b c1 3e ba 1d e2 be
       0.07928511 -0.31069332 0.37716034 -0.44163305
0001b0 78 ec b6 3e 3e 95 d9 3e aa 0c f2 be 33 c6 9b 3e
       0.35727286 0.42496675 -0.47275287 0.30424652
0001c0 9c c2 1c be 95 6c 1e 3e 28 1c d2 3e 1c fe 53 be
       -0.15308613 0.15471108 0.41037107 -0.20702404
0001d0 ab 1b 0e bd 3c 3f d8 be 9e e9 c2 3e c1 eb a4 3e
       -0.034694355 -0.42235744 0.3806886 0.32211116
0001e0 ac 09 87 3e 4f 0a c9 bd 08 c9 9d 3e 38 99 9f be
       0.26374567 -0.09816419 0.30817437 -0.31171584
0001f0 38 5b 00 bf 59 7f 7b be 95 e6 c1 be ff 06 9c 3e
       -0.5013919 -0.24560298 -0.37871233 0.30474088
000200 5d 80 06 bf e4 20 48 3e c9 be 07 3e 77 bf 61 3e
       -0.52539617 0.19543797 0.13256373 0.22045694
000210 d3 64 cf 3e e4 4b 4b bd 7a 4e eb bd 8f 8c fc 3c
       0.4050661 -0.04963292 -0.114895776 0.030828742
000220 42 56 07 bf 88 6a e7 be a0 c4 00 3e 03 79 e0 be
       -0.52865994 -0.45198464 0.12575006 -0.43842325
000230 c1 3d bb be 8a e3 13 3e 9d b3 15 3e 7b b0 ca 3d
       -0.36570552 0.14442268 0.14619298 0.09896942
000240 ac ec a3 be c2 4e c2 3e d1 47 84 3e a0 de c6 3e
       -0.32016504 0.37950712 0.25836042 0.38841724
000250 4c 13 c1 be 09 37 96 3e d2 37 75 3e 96 04 dd 3e
       -0.37710035 0.29338863 0.23947075 0.4316756
000260 8b 46 8c 3e 7a 5e 3c 3d d7 2b d7 3d c3 6a 11 3f
       0.2739757 0.045988537 0.10506409 0.5680353
000270 9e fb e7 bd 8c 3c d2 3e 4b 4b 23 be 66 21 da 3d
       -0.11327289 0.4106182 -0.1594669 0.106509015
000280 7d 40 02 3f e1 3f a5 3c fe 80 ce be 48 a2 d8 bd
       0.5087965 0.020172061 -0.40332788 -0.10577828
000290 7a 03 73 3e f7 00 39 be 10 55 82 be 72 03 a3 be
       0.23731795 -0.18066774 -0.25455523 -0.31838566
0002a0 bd 5b b6 3d 0f 33 ba 3e be a3 40 3e 7b d8 fd 3e
       0.089042164 0.3636708 0.18812463 0.49579224
0002b0 85 36 39 3d 3f 12 97 3e cf 3e f9 be 57 44 0e be
       0.04521801 0.29506108 -0.48680732 -0.13893257
0002c0 c1 ff 0b be b6 21 3c bd 08 44 c7 be 18 00 b1 3e
       -0.13671781 -0.045930587 -0.3891909 0.34570384
0002d0 53 bc 90 be f9 e8 c9 3e 83 c9 57 3e be 6b 80 3d
       -0.2826868 0.39435557 0.21072964 0.0627055
0002e0 41 64 49 be 96 f2 2a 3e a5 07 8a be e7 fc 3d be
       -0.1966715 0.16694102 -0.26958957 -0.18553506
0002f0 95 6b 6e 3e 23 4e 65 be ec 01 57 be 7a e0 c0 3e
       0.23283227 -0.22393088 -0.20996827 0.37671262
000300 97 49 a5 be a0 8a bb 3e 4d 5b 0d 3e 90 2d f8 3e
       -0.32282707 0.366292 0.1380436 0.4847226
000310 de 98 43 be 86 c6 7a bd 9a 67 f0 be 7e 2f 37 be
       -0.19101283 -0.061224483 -0.46954042 -0.1788921
000320 99 8e 91 3e e3 4f 07 bc d1 33 88 3d b9 e0 05 bf
       0.28429106 -0.008258793 0.06650508 -0.52296025
000330 08 d0 a4 be 05 7c f5 3e 2f ed 8c be 5e e5 ce be
       -0.32189965 0.47946182 -0.27524707 -0.40409368
000340 cd 38 a8 3e fa a2 f5 be 4c f9 7e be df d2 d5 3e
       0.32855836 -0.47975904 -0.24899787 0.41762444
000350 b8 8e ca 3c 1b 7e a2 3c aa 17 a3 bc 1d 1d e1 3e
       0.024726257 0.019835522 -0.019908745 0.43967524
000360 98 33 b9 be 96 d9 72 be 06 72 4e 3e 72 84 81 be
       -0.36172175 -0.23715815 0.20160684 -0.2529636
000370 44 44 10 3d 03 ad 0f bf 25 90 fe 3e 14 5d 42 3e
       0.035221353 -0.5612337 0.4971935 0.18980819
000380 79 5f d6 bd 71 e5 ae 3e 6b 6d ab 3e fe 2c c9 be
       -0.10467429 0.34159425 0.33481917 -0.3929214
000390 6d 16 d7 be 65 a7 0e bf dc da d3 3b c2 9e a1 be
       -0.42009297 -0.55724174 0.006465299 -0.31566435
0003a0 5b b9 fb 3e 90 8e ae 3e fd b6 a5 be 22 99 8f 3e
       0.49164852 0.34093142 -0.3236617 0.2804652
0003b0 c2 da e9 be ec fc 5f 3d b0 ca ec be 59 08 01 3f
       -0.4567471 0.054684564 -0.46248388 0.5040336
0003c0 ab f4 00 bf 5e 00 24 3e 0e dc 3e 3e 1c 86 0f bf
       -0.50373334 0.16015765 0.18638632 -0.5606401
0003d0 21 e9 46 be 45 b9 b0 bd 7f 6d 97 3e 82 68 68 3d
       -0.19424869 -0.08629087 0.29575726 0.05674029
0003e0 e5 26 4f be 12 ee 06 be 0e b0 a8 3e b2 aa eb be
       -0.20229681 -0.13176754 0.3294682 -0.46028668
0003f0 c8 0a f5 be 24 f8 9d 3e 9a b1 7b 3e f9 30 e1 3d
       -0.47859788 0.3085338 0.24579468 0.10995669

net.0.freq_scale.bias f4 [128]
000000 4c 51 07 be 32 cc 2c be bb 50 03 bd ac fa bf 3e
       -0.13214606 -0.1687477 -0.032059412 0.37495935
000010 7a 08 a2 3e 5a 81 ca be ca fb 4e bd 45 4c 80 be
       0.31647092 -0.39551812 -0.050533094 -0.2505819
000020 ae 6f 8b be 1c 9a 8d be 45 99 83 be fa f3 00 bf
       -0.27233642 -0.2765664 -0.25702873 -0.5037228
000030 a9 5b 16 3f 91 fa 04 3d a5 30 f5 3e f4 c7 27 be
       0.5873361 0.03246552 0.47888675 -0.1638487
000040 44 5c 9d bd 86 ec 00 3e 0d d0 0a 3f 13 b2 38 3d
       -0.07683614 0.12590227 0.5422371 0.0450917
000050 0d 9e de be 50 81 0a bf c4 73 95 bd 0e 5c a4 be
       -0.43479958 -0.54103565 -0.07297471 -0.32101482
000060 6e 61 0d bf 67 61 c2 3e 9c 0b 2e be ec 43 80 bc
       -0.5522679 0.37964937 -0.16996616 -0.015657388
000070 3a 08 90 3d 9b da 98 be 46 ee f7 3e 74 4c b8 3e
       0.07032819 -0.29854283 0.48423976 0.3599583
000080 27 99 c0 3d 71 27 d8 be 32 33 0b 3f a2 7b df be
       0.094042115 -0.4221759 0.5437499 -0.43649012
000090 0f 1f ee be 9b 9f 04 3f 08 7d e8 ba 73 df cd bd
       -0.4650807 0.5180604 -0.0017737458 -0.10052385
0000a0 aa 99 ef 3d 28 fc 80 3e e8 66 ff 3e c4 06 0a 3f
       0.11699231 0.2519238 0.498832 0.53916574
0000b0 74 cc bb 3c bf 8b 58 bd 7a bd 04 3f 36 e3 5f be
       0.02292464 -0.052867647 0.5185162 -0.21864018
0000c0 85 21 80 3d 73 a0 02 3f 42 73 0c bf 62 e0 ff be
       0.06256393 0.51026076 -0.5486337 -0.49975878
0000d0 13 ef b8 be 9d 89 fd be 7c 2d b6 be 74 66 ac bc
       -0.361199 -0.49519053 -0.35581577 -0.021044947
0000e0 b8 37 cd be 3a d8 c6 be 9e 3a a2 3e dd 3d 14 be
       -0.40081573 -0.38836843 0.31685346 -0.14476724
0000f0 3b 30 01 3f a9 95 66 3e 89 b5 c1 bc 0e 69 07 3f
       0.5046422 0.22518028 -0.023646133 0.52894676
000100 32 f7 18 3e db 1c a6 3e 5d c1 1b bf d7 09 f6 3e
       0.14938048 0.3244389 -0.60841924 0.48054382
000110 41 6c 96 3d 52 f7 07 3f c6 7f 93 3e c8 11 31 bd
       0.073448665 0.53111756 0.2880842 -0.04322985
000120 a9 46 ef 3e f8 df 74 be 02 a9 92 bd 2a 60 b1 3e
       0.46733597 -0.23913562 -0.07161142 0.3464368
000130 7b 95 9e 3e 7d 54 bc 3e cb cd c9 be c5 01 e4 3d
       0.3097342 0.3678321 -0.3941482 0.1113315
000140 80 5c cb bd 62 54 5c be 0b fc e6 3e 30 51 84 be
       -0.09929752 -0.21516564 0.4511417 -0.2584319
000150 fc 2e 8e 3c ba c2 0c 3e 93 7c b5 be c7 d2 4d be
       0.017356388 0.13746157 -0.35446605 -0.20099936
000160 52 6a 81 be 2f 5d f4 3e 27 0c 31 bd 6c 4c e2 be
       -0.25276428 0.47727343 -0.04322448 -0.4419893
000170 30 6b 14 3e 6c 89 ea 3e 32 91 c6 be 81 f6 4e 3e
       0.14494014 0.4580797 -0.3878265 0.20211221
000180 b6 70 c9 be c3 37 a3 bc 80 4b 0e bf 5f 46 90 bd
       -0.39343804 -0.01992405 -0.55583954 -0.07044672
000190 aa 71 84 be 70 c3 18 3e 63 21 03 3e 3e 2a 98 be
       -0.2586797 0.14918303 0.12805705 -0.29719728
0001a0 43 ad 7d be 1e 7e a2 be 3d 98 b7 3e 7b 20 c3 3d
       -0.24773125 -0.31736845 0.35858336 0.095276795
0001b0 88 05 cb 3c f3 4e 10 3e 57 6e d9 be 51 d5 f3 3e
       0.024782911 0.14092617 -0.42466995 0.47623685
0001c0 7d d8 01 bf 59 ed 9a 3e 39 52 07 bf 70 e2 da be
       -0.5072096 0.30259207 -0.52859837 -0.42750883
0001d0 d5 ab de be 21 24 6a 3e 17 24 14 3e 85 11 5f 3e
       -0.43490472 0.22865345 0.14466892 0.21784027
0001e0 8f 96 87 bd e7 78 a8 3e 15 70 a7 3e 4a 29 ea be
       -0.06620514 0.3290474 0.327027 -0.45734626
0001f0 0b a5 87 bc 30 80 e5 3e c0 47 95 3e e6 89 06 3e
       -0.01655819 0.44824362 0.29156303 0.13138542

net.1.freq_scale.weight f4 [128, 64]
000000 bf 11 9c 3c 59 ec 91 bd 6a 00 ce 3a 76 2a bc 3d
       0.01905143 -0.07125158 0.0015716676 0.09187786
000010 72 70 d8 3d c1 ef 09 be d2 6f c6 3d 05 c9 07 3e
       0.10568322 -0.13470365 0.09689297 0.13260277
000020 e4 34 f2 3d 3d d7 f1 3d 99 2f a5 3d ce 09 ad 3d
       0.11826494 0.118086316 0.08065719 0.08449136
000030 8f f5 b4 3d 8f 49 c6 bc d9 bf 04 3e bf 05 31 bd
       0.08835899 -0.024204997 0.12963809 -0.04321837
000040 ca f7 0b be 52 a1 4e bd 16 e4 c9 bb c6 c4 43 3d
       -0.13668743 -0.050446816 -0.006161223 0.04779508
000050 07 cc f0 3d 60 a9 d5 bd 2b 76 21 bd 02 db 49 bd
       0.11757665 -0.10432696 -0.039419334 -0.049281128
000060 e1 07 e5 3d 15 aa 15 3e cf 9c 97 bc 56 11 81 3d
       0.111831434 0.14615662 -0.01850739 0.06302135
000070 e7 2c 00 be c9 08 1e bd 90 38 10 bc 60 7d 17 bd
       -0.12517129 -0.038582597 -0.008802548 -0.0369848
000080 b4 3f 8e 3c 31 da 15 bd 82 2e 00 3e cd 6d 79 bd
       0.01736436 -0.036585037 0.12517741 -0.06089573
000090 90 7d dd bc 92 dd 49 bd d1 6b 9a bd 0b 8a b7 3c
       -0.027037412 -0.04928357 -0.075400956 0.022404691
0000a0 5e b4 d0 3d 59 3c dc bd 61 65 98 3d 38 1d 13 bd
       0.10190652 -0.10753698 0.074412115 -0.035916537
0000b0 01 e4 c1 3c c6 45 85 bd c2 2d db 3c eb 08 b2 3c
       0.023668291 -0.06507449 0.026755217 0.021732768
0000c0 7b 3a 39 3d e4 62 92 3d 6d 37 8b bd 87 be ff bd
       0.045221787 0.07147768 -0.06797681 -0.12487512
0000d0 70 47 ef bd 8f 0a 02 3e 4f eb 6c 3d d0 8c 0b be
       -0.116835475 0.1269934 0.057841595 -0.13627934
0000e0 49 1f 9f bd ec b5 e8 bd e2 9a b2 3d ca ef 23 3e
       -0.07769639 -0.11362824 0.08720948 0.16009441
0000f0 37 93 36 3c f5 2d 7b 3d a2 2d 04 be 3e 5d 78 3c
       0.011143497 0.061323125 -0.12908033 0.015158949
000100 f9 58 b8 bc d5 1a 63 bc 11 dc 05 be a2 8e 3f bd
       -0.022503363 -0.013861378 -0.1307223 -0.046766885
000110 7f 33 0e bd f8 8d 64 3d 9c 6a 1f be df 6a 10 3e
       -0.03471708 0.055799454 -0.15568012 0.14103268
000120 e2 cb 2f bd 57 04 1b 3e 24 ab b3 bb a8 61 2b 3e
       -0.042919047 0.15138374 -0.005483048 0.16736472
000130 d4 ff 80 bd 07 a4 51 bd 37 c6 f8 bd 53 bd 2a 3e
       -0.06298795 -0.05118182 -0.121471815 0.16673784
000140 19 b3 36 3d 5d 5f bd 3d 7b 49 41 3d 92 0c a0 3d
       0.044604395 0.09246705 0.047189217 0.078148976
000150 fa e9 f1 bd 8c af ee bd bd 0f 0e 3e c6 f5 26 3e
       -0.118122056 -0.11654577 0.13873191 0.16304693
000160 64 0f ac bc 10 69 78 bd 29 e2 15 3d 0a d2 38 bd
       -0.021003433 -0.06064707 0.036592636 -0.045122184
000170 cd 21 a5 3d ed a2 06 3e 47 24 e3 3d 16 7d f1 bd
       0.080630876 0.13148089 0.11090904 -0.117914364
000180 e7 4d bd 3d a3 3b 20 bd 33 ca 92 bc ba bb 92 3c
       0.09243374 -0.039119374 -0.017918682 0.01791178
000190 25 f9 ee 3d dc 88 04 3d 0e a5 bd bd 00 d2 dd bd
       0.11668614 0.03235708 -0.09259997 -0.1083107
0001a0 a2 ad cb 3c 45 d9 52 3c c6 0d 6c bd 49 ab dd 3c
       0.024863068 0.012869184 -0.057630323 0.027059214
0001b0 a7 b3 00 3d e7 95 62 3d 60 00 10 bc 5e c6 88 bd
       0.03142133 0.05531874 -0.008789152 -0.066784605
0001c0 75 35 bb bd a5 94 bb 3d 5a 66 ee 3d 69 c5 b0 3d
       -0.091410555 0.09159211 0.11640616 0.08631403
0001d0 04 d2 b8 bd 80 ec c7 3d 3e 52 23 be df 5a 73 3b
       -0.09024432 0.09761906 -0.15949342 0.003713302
0001e0 f1 a2 9b bc 1f fc f8 bc dd 41 06 bd 8a 6c eb bd
       -0.018998595 -0.030393658 -0.032777656 -0.114953116
0001f0 76 0f f5 3c b8 b4 ce 3c b5 0e b7 bd f9 0e d6 bc
       0.029914599 0.025232658 -0.08938352 -0.026130186
000200 bc 94 0c 3d 5c de 93 bc 66 ef 1a 3d aa fe 02 bd
       0.03432153 -0.018050365 0.037825964 -0.031981148
000210 7c cf 67 3d 6e 07 95 3d b3 65 94 3d 38 9c b6 bd
       0.056594357 0.07276808 0.0724596 -0.08916515
000220 a9 16 66 3d 92 6c c1 3c cd 2c 51 bd 5e 80 5d 3c
       0.056173954 0.02361134 -0.051068116 0.013519375
000230 b7 e6 f4 bd f0 4b 3a 3d 59 5a ef bd 97 9e 28 be
       -0.11958068 0.045482576 -0.11687154 -0.16466747
000240 a7 cb 9e 3c 47 71 d1 bc 38 99 ca 3d 17 13 d2 bc
       0.019384218 -0.02556671 0.098925054 -0.025643868
000250 fd e9 f0 3d 18 87 09 be 6c 56 fb 3d d9 75 06 3d
       0.1176338 -0.1343044 0.12272343 0.032827232
000260 0b 42 29 3d 6d 58 09 be 4c f9 07 be f6 e0 56 bc
       0.04132275 -0.13412638 -0.13278693 -0.013115158
000270 eb 09 be 3d c2 e7 be bc 74 b4 64 3e 09 e8 e1 3d
       0.092792355 -0.02330387 0.22334462 0.11030585
000280 5f 49 44 3d 57 1f f4 bd 14 66 2a 3e 48 fc 8d bd
       0.047921535 -0.1192004 0.16640502 -0.069328845
000290 59 a3 2b 3d 7e a3 4e bd 61 63 67 3c f9 45 5e 3d
       0.041903827 -0.050448887 0.014122815 0.05426595
0002a0 ed 70 c4 bd 36 ef 57 3b 16 f5 11 bc ab 7a fc 3d
       -0.095918514 0.0032948977 -0.008908531 0.123280846
0002b0 7b 0d 36 3d 85 ce f6 3d 73 8f 77 bd 74 58 54 bd
       0.04444645 0.12051109 -0.06043954 -0.051842168
0002c0 f8 ac 3f bd 4d c6 bd 3d f8 a3 c3 bd 34 b2 35 3b
       -0.046795815 0.092663385 -0.09552759 0.0027724626
0002d0 b1 5b 13 3d 68 06 ac 3d 1b 9d f2 bd 9a 89 0d be
       0.035976116 0.083996594 -0.11846372 -0.13822022
0002e0 0a f8 f6 bd dd 76 1b be e7 94 12 3d c6 63 92 3d
       -0.120590284 -0.15182061 0.035786536 0.071479365
0002f0 d7 aa 36 be 52 b3 92 bd 2b da e6 bd 29 3a 1c 3e
       -0.17838608 -0.07163109 -0.11272081 0.15256561
000300 70 51 a1 bc 3c cc d9 bd f7 93 d9 bd 10 c5 23 3e
       -0.019692153 -0.10634658 -0.10623925 0.15993142
000310 9f a0 2a be 60 3f c0 3d 88 26 19 be 0d f6 08 be
       -0.16662835 0.09387088 -0.14956105 -0.13375111
000320 7c 1e 39 bd 9f 36 88 3e 64 77 98 3c e7 9f f3 bc
       -0.045195088 0.26604173 0.018611617 -0.029739333
000330 3a 9e 0b 3c dc a4 b3 3b 7d f5 21 3e b4 5b d5 bd
       0.008521611 0.0054822993 0.15816303 -0.104178816
000340 49 83 3e bd 6d eb e7 bc 63 d9 e0 3c c7 33 04 be
       -0.046511922 -0.028310502 0.027447408 -0.12910376
000350 7a 7d 08 bd 47 64 cb bc 48 e0 ad bd 2f bf 4c 3c
       -0.03332279 -0.02482809 -0.08490044 0.012496754
000360 07 53 11 be ac 5b 0b be 92 9d 84 bd 6e f7 9f 3d
       -0.14191829 -0.13609189 -0.06475367 0.07810865
000370 8c 9f 10 be 26 8d d2 bb 31 38 dd ba 4f c1 95 3d
       -0.14123362 -0.0064255176 -0.0016877708 0.07312261
000380 9e 0d ee bd 4f a8 1f 3e f7 39 05 3d e8 9c 99 bd
       -0.11623691 0.15591548 0.032525983 -0.075006306
000390 da 36 51 bd 11 e6 e4 bd b1 c1 c3 3d bf 84 ee 3b
       -0.0510777 -0.11176694 0.09558428 0.007279008
0003a0 8c 64 25 bd d8 e6 47 bd 24 ec 73 bd 9b 30 e1 3d
       -0.040379092 -0.048804134 -0.059551373 0.10995599
0003b0 5f ee f5 3c c4 30 15 be 0c a8 ab bd 4e ee f1 3d
       0.03002089 -0.14569384 -0.08381662 0.11813031
0003c0 35 52 1d bd dd b4 10 3c 7a 31 d1 3d e9 5f 39 3d
       -0.038408477 0.008832184 0.10214515 0.045257483
0003d0 d3 e5 83 bb fa 6f 42 bd f7 25 00 3d 0e 30 ea 3d
       -0.0040252 -0.04747007 0.031286206 0.11434947
0003e0 4f 28 92 bc d9 e3 9e bb 42 b5 ac 3d ef 2d 8e 3c
       -0.017841486 -0.004848939 0.0843301 0.017355887
0003f0 b0 c9 4c 3c 31 ec 13 3d 04 88 cf bd 31 a8 f7 3d
       0.012499258 0.03611392 -0.10133365 0.12092627

net.1.freq_scale.bias f4 [128]
000000 4a be d7 3d 98 51 14 be aa 83 6f 3c ca 32 1d be
       0.10534342 -0.1448425 0.0146187935 -0.15351406
000010 d2 6e f5 bd 20 b5 41 bb ca 85 4b bd 93 fe 1e bd
       -0.11984028 -0.0029557422 -0.049688138 -0.038817
000020 4f 5a b7 bd bd 37 ec bd f7 41 c9 bc 76 e6 ef 3c
       -0.08952772 -0.11534069 -0.024567587 0.029284697
000030 a2 ba 25 3c 9b b2 67 3d 03 0e ad bc 48 a7 27 3c
       0.0101152975 0.056566816 -0.021124845 0.010232754
000040 b7 3b 78 b7 57 03 e2 bd a9 15 ee 3c 4f 13 8b bd
       -1.4795855e-05 -0.11035793 0.029063063 -0.06790792
000050 35 c6 12 3d 53 1f 04 3e 0b 86 5c 3c 6b e1 f8 bc
       0.035833556 0.12902574 0.013459693 -0.030380925
000060 ee 45 ae 3d 71 d6 a4 3d 27 22 13 3e d8 1f af bd
       0.08509432 0.08048714 0.14368497 -0.085509956
000070 1d 15 cc bd 34 3e 03 3e 27 68 2b 3d fd 46 14 be
       -0.099649645 0.12816697 0.041847374 -0.14480205
000080 7f b0 fe bd 5f 84 78 3d 08 be 93 3d 9d 42 18 be
       -0.12436008 0.060673114 0.0721398 -0.14869161
000090 7d ff 1d be d2 bc 58 bd 67 41 28 be 00 58 80 3c
       -0.15429492 -0.052914448 -0.16431199 0.015666962
0000a0 85 09 e2 bd 57 51 a9 bd 32 80 b3 3d 81 bb 78 bd
       -0.11036972 -0.082674675 0.08764686 -0.060725693
0000b0 08 df 62 be 25 a8 39 3d 25 43 01 3e 39 04 67 3c
       -0.22155392 0.04532637 0.1262327 0.014100128
0000c0 f9 a3 45 3d 01 e7 3e bd 39 8a 9a bd 09 e0 a7 3b
       0.04825208 -0.04660702 -0.07545895 0.0051231426
0000d0 20 c4 90 bc 5f 38 2b be e9 4c a9 3d 2b 0d 36 be
       -0.017671645 -0.16720723 0.082666226 -0.1777846
0000e0 ec 99 17 bd 1a ea ca bd 79 a7 75 3e 2d 5a b5 3d
       -0.037012026 -0.099079326 0.23989667 0.0885509
0000f0 64 d5 38 3d e2 65 0c be 9d 4e ea bc 89 17 33 3e
       0.04512538 -0.1371074 -0.028601939 0.17489447
000100 42 be 4d 3e d0 86 8b bc 35 f4 96 3d 94 03 bc 3c
       0.20092109 -0.017032057 0.073707975 0.022950925
000110 87 3c 6d 3d 1c 34 94 3d 65 78 ef bc 35 82 e8 bd
       0.05791905 0.072365016 -0.029232213 -0.1135296
000120 53 8c a3 3d 84 55 f7 bd db 4b 00 3e d3 bb 1e bd
       0.07985749 -0.12076858 0.12528937 -0.038753342
000130 c7 5c 0a 3b 8e cc 56 bd ca 38 ed 3d 6a 1a b6 3c
       0.0021112429 -0.052441172 0.11583097 0.022229392
000140 ca 31 be 3d 2f ed f1 3c e9 41 cb bc fe 3a 60 bd
       0.0928684 0.029532043 -0.024811702 -0.05474376
000150 c7 fb 99 bc b6 21 7a bc 1a da 36 be ed 1e e8 3d
       -0.018796815 -0.015266826 -0.17856637 0.113340236
000160 b8 4e 31 3d f9 7e 0a be 31 8c 9a bd 0a ce 8f 3d
       0.043287963 -0.13524999 -0.07546271 0.07021721
000170 d0 6f 00 be 97 5a 4d bd 7b ab 43 bd 6c 6d 27 be
       -0.12542653 -0.05013522 -0.04777096 -0.16350335
000180 96 9f bd bd 3e 8a a7 3d 4b 40 6f bd 25 13 8c 3d
       -0.09258954 0.081806645 -0.058410924 0.06839589
000190 bc b3 57 3d d1 39 af 3d 1f 54 f5 3d 04 2e 03 be
       0.052661642 0.085559495 0.119789355 -0.12810522
0001a0 51 11 5e 3d c9 85 80 bd 01 fb 00 3d ad aa 32 3e
       0.054215733 -0.062755175 0.031489376 0.1744792
0001b0 67 e1 98 3b a3 fe 8c bd bc aa 30 3d 3f 7a 0b be
       0.004665542 -0.068845056 0.043131575 -0.13620852
0001c0 97 9a f7 bb 3d 6b 29 3c f2 8a 36 3d 90 e3 00 be
       -0.0075562703 0.010340509 0.044566102 -0.12586808
0001d0 b9 e1 16 bd fa 08 d8 bd 48 47 0a be d6 03 e6 bd
       -0.03683636 -0.10548587 -0.13503754 -0.112312004
0001e0 ff 18 01 3e fb 32 0d bd 52 0d cb bd 65 0b 11 3e
       0.12607192 -0.034472447 -0.0991465 0.14164503
0001f0 42 02 15 3d 0c 20 ba 3d f4 0d 38 3d de e3 34 3d
       0.036379106 0.09088144 0.04493518 0.044162624

net.2.freq_scale.weight f4 [128, 64]
000000 3c 84 8f bc 01 40 5e bc 4c dc 0d 3e 7c 88 67 bd
       -0.017519109 -0.013565064 0.13853568 -0.056526646
000010 7d 26 a7 bd ac e9 9c 3d 12 b6 eb 3d 90 66 db 3d
       -0.08161638 0.07661757 0.115093365 0.107129216
000020 50 6a a2 bd e4 c2 1e 3d 4f 73 06 be 4f 55 17 be
       -0.07930434 0.03876008 -0.13129924 -0.14778636
000030 29 95 3d 3d 21 4f a4 3d 57 f0 15 3d 00 e4 a5 bc
       0.04628483 0.08022905 0.03660616 -0.02025032
000040 e3 58 62 bd 2b 85 59 3d fa d6 d0 bd db f6 1d 3e
       -0.05526055 0.053105514 -0.101972535 0.15426199
000050 73 68 e7 bd 48 94 5a bd cc b1 9b 3d 14 dc b1 bd
       -0.11299219 -0.05336407 0.076022714 -0.08684555
000060 3a 54 8c bd bf 14 99 bd 32 69 a0 3b 8b b8 ef bc
       -0.068520024 -0.0747466 0.0048953528 -0.029262802
000070 ed ac 02 3e a9 1a 8c 3c c6 aa bd 3d 09 14 21 bd
       0.12761278 0.017102556 0.09261088 -0.039325748
000080 49 00 06 be 43 f2 b2 bd b9 79 d8 bd ae 7f 01 bd
       -0.13086046 -0.08737614 -0.10570092 -0.031615905
000090 38 3a bf 3d 77 d2 9c 3d 9a 6b 8c 3d 55 a4 eb 3c
       0.09337276 0.076573305 0.06856461 0.028764883
0000a0 e8 ef d6 bd 24 59 69 3d f6 bf c0 3d e2 40 ea 3d
       -0.10494977 0.056969777 0.09411614 0.11438157
0000b0 ed 27 6c bd 61 13 c7 3d 6f 16 d3 3d 51 6d 82 bc
       -0.057655264 0.09720493 0.10307013 -0.015921267
0000c0 e7 52 5f 3d a5 5c 1f 3d c1 21 29 3e e0 9e 0c 3d
       0.05452242 0.038906712 0.16516782 0.034331203
0000d0 ce c1 ac 3d 84 3b 10 be 5a fe d8 3d 72 c0 04 be
       0.08435403 -0.14085203 0.10595389 -0.12964037
0000e0 40 28 d3 bd f4 2a 67 3d 28 f0 04 3d 44 a0 27 bc
       -0.103104115 0.056437448 0.032455593 -0.010231081
0000f0 52 dd f5 3d f1 5f 27 3d 2c aa 17 3e ba e8 db 3d
       0.12005104 0.04086298 0.14811009 0.107377484
000100 29 1e d8 3c 5e 6c 15 be 84 4e e0 bc a5 ac df bd
       0.026381569 -0.1459212 -0.02738119 -0.10921601
000110 d8 a6 55 3d 03 08 f5 bc 79 be a3 3d 1c 2c ce 3d
       0.052161068 -0.029911047 0.07995314 0.10067007
000120 77 f1 18 bd f8 7e 99 bd 18 60 0a 3b 81 93 c5 bd
       -0.037339654 -0.074949205 0.0021114405 -0.09647275
000130 82 3d 0d 3d d2 ad f0 bc da e7 e8 bd 57 b4 cc bd
       0.034482487 -0.029379759 -0.11372347 -0.099953346
000140 2f 65 7f bd 42 ad dc 3b 77 1d e3 bd d9 95 bc bd
       -0.062352356 0.006734521 -0.11089604 -0.09208269
000150 d7 ad 72 bd 4e 2e ca bd ef 0d 3c bc c1 b6 a6 bd
       -0.059247818 -0.09872113 -0.011477931 -0.08140326
000160 b5 8e 8d bc 4a f4 b8 3d 47 6b d6 bd 2d ab 18 bd
       -0.017279962 0.090309694 -0.1046968 -0.03727262
000170 2c f3 2f 3d 99 e1 b9 3d a8 68 02 bd 89 80 30 3d
       0.042956516 0.090762325 -0.03183809 0.04309133
000180 81 39 36 bd a6 15 94 3d ec d6 db bd c4 b6 f0 3c
       -0.044488434 0.072306916 -0.107343525 0.029384024
000190 15 a8 80 3d b6 7c 2c bd ca eb 74 3d 66 74 01 bd
       0.06282059 -0.04211112 0.05979518 -0.031605147
0001a0 6e 6c b9 bd 9f 6a 8e 3d 91 93 0b bd a8 44 64 bc
       -0.090538844 0.0695393 -0.034076277 -0.013932385
0001b0 e0 28 02 bd 3d 12 23 bd 1b ea a4 bd 7c 89 c6 3d
       -0.031777263 -0.039812315 -0.080524646 0.09694192
0001c0 e2 e2 7c bd 92 a5 d0 3c 5a 40 54 bd 8d 81 91 bd
       -0.06173981 0.025469575 -0.051819183 -0.07104788
0001d0 c9 b7 de bd 61 cb c6 bd 5c 42 c1 3d f1 f9 c4 bd
       -0.10874898 -0.0970676 0.09436485 -0.09617985
0001e0 38 fb a4 3d ab c3 c8 bd c0 ba 15 bc 5e c4 b5 3d
       0.08055729 -0.09802946 -0.009138763 0.08875345
0001f0 de 25 d1 bd e3 bf 26 3d 37 12 07 bd 6b 72 cd 3d
       -0.10212301 0.04071034 -0.032976355 0.10031589
000200 d1 c0 b3 3d 2a ad fc bd 8e 9a 22 bd 4e 7a 5b bd
       0.08777011 -0.12337716 -0.039698176 -0.053583436
000210 cb 06 81 bd fd 82 1a bd e3 31 e3 bd 79 05 ac bd
       -0.06300124 -0.037722576 -0.110934995 -0.08399481
000220 87 26 a4 bd ed c8 ec ba 2b 4d af bd 2d ad f4 3d
       -0.08015161 -0.0018065252 -0.085596405 0.11947093
000230 d0 a9 4c 3d 78 7d 20 3d 69 e3 ef b9 13 4b 94 bd
       0.049966633 0.039182156 -0.00045755066 -0.07240882
000240 c3 f7 89 3d d6 14 13 bd 97 5e 62 bd b9 cd 15 bd
       0.0673671 -0.035908543 -0.05526599 -0.036573146
000250 ed e1 18 3c e4 6a 01 be 91 10 90 3d ad b6 a6 bd
       0.009331209 -0.12638432 0.0703441 -0.081403114
000260 10 87 a0 bd 87 b5 74 bd c9 0d ea 3c 39 95 89 3d
       -0.07838261 -0.05974343 0.028571026 0.06717915
000270 dc 2f fa 3d bc 71 4c 3c 57 07 bc bd 0e bf 00 b8
       0.1221616 0.012478288 -0.091810875 -3.069551e-05
000280 24 0a 92 bd 20 d6 8e 3d 06 1a 71 bd 3c c8 87 3d
       -0.071308404 0.06974435 -0.05886271 0.066299886
000290 8e 69 bd 3d 51 73 32 3c 8b 04 59 3d 5c a0 9c 3d
       0.092486486 0.010891751 0.05298285 0.076477736
0002a0 cc 7c ce 3b 06 b8 bc 3d 10 80 d1 bd 7f 75 ca 3d
       0.006301498 0.09214787 -0.10229504 0.09885692
0002b0 bd 5c 97 3d 13 ef 12 be b1 99 a9 3d 47 76 02 3e
       0.07390735 -0.14349012 0.082812674 0.12740432
0002c0 7e 8b 04 3e 99 60 32 bd 70 93 88 bd 56 44 94 3c
       0.12943837 -0.043549154 -0.066687465 0.018098991
0002d0 6e 0e 82 3c a0 2b 9d 3d d5 aa 85 bd 35 60 83 3d
       0.015876021 0.076743364 -0.06526724 0.064148344
0002e0 5c 80 46 bd 53 c3 78 3b df b1 0d bd 90 dc ef bd
       -0.048462257 0.003795822 -0.03459346 -0.11711991
0002f0 16 fe 83 bd ac ae a6 3d ac 9f 6f bd 6d 31 9f 3d
       -0.064449474 0.08138785 -0.058501884 0.07773099
000300 ba 44 53 b9 59 35 9c bd a4 1c e4 3d 3d 9f d1 3d
       -0.0002014813 -0.07627363 0.11138275 0.102354504
000310 ed 46 18 bd 64 92 8b bd d0 2c d6 bd c0 54 e0 bc
       -0.037177015 -0.06815031 -0.10457766 -0.027384162
000320 b7 3e b2 3d b6 2e 04 be 62 c7 20 bb cc c2 bb bd
       0.08703368 -0.12908444 -0.0024532904 -0.09168014
000330 84 5f d9 b8 29 24 7c 3d b3 cf 8d bd 93 93 8e bd
       -0.000103651575 0.061557923 -0.06924381 -0.06961741
000340 fc 36 85 3d 89 96 0f be 34 bb be bc dd 32 ac 3c
       0.06504628 -0.14022268 -0.023282625 0.021020347
000350 72 c9 3a 3d 0f 61 d3 bd 98 35 b3 3d c0 97 d9 bd
       0.04560227 -0.10321247 0.087504566 -0.10624647
000360 35 35 33 3d 3c 1f c4 bd 14 4e 83 bc 05 06 e6 3c
       0.043751914 -0.0957627 -0.016028441 0.028079042
000370 aa 08 65 bd 2e 5b e5 bc 08 2a a6 bd bb ea 96 bd
       -0.055916466 -0.02799758 -0.081134856 -0.0736899
000380 95 b4 38 bd ad 77 73 3d d6 64 ea 3c 6c de 3c bc
       -0.04509409 0.059440304 0.028612535 -0.011527639
000390 ac 16 0f 3e e4 dd f6 3d 0e 34 70 bd 8c ed 25 bd
       0.13973492 0.12054041 -0.058643393 -0.040509745
0003a0 2e d3 8d bb d4 6f 2e bd 07 37 20 3d 41 ae d4 bd
       -0.004328153 -0.042587116 0.03911498 -0.10384799
0003b0 9b 5e 94 bd 6b c0 ae 3d 81 b0 04 3d 6b aa 98 bd
       -0.07244607 0.085327946 0.03239489 -0.0745438
0003c0 7b d1 e1 bd f3 a9 a9 bd 22 2b 6a bc 2b 83 27 bd
       -0.11026283 -0.08284368 -0.01429251 -0.040896576
0003d0 e9 a2 9f 3d a5 a1 c7 3d e3 06 03 3e 15 31 f0 bd
       0.077947445 0.09747628 0.12795596 -0.11728112
0003e0 40 d9 c8 3c fb 0c 03 3e 3b dd 8d 3c c1 d6 f7 bc
       0.024517655 0.1279792 0.017317405 -0.03025377
0003f0 83 89 3a 3d 65 8a 11 bd 38 40 a7 3d 59 06 f4 bd
       0.045541298 -0.035532374 0.08166546 -0.11915273

net.2.freq_scale.bias f4 [128]
000000 5f f8 2b 3d 62 81 85 bd 11 86 07 3e 2a 5d 99 bd
       0.041984912 -0.065188184 0.13234736 -0.07488473
000010 b7 e8 2c bd c9 f5 ad 3d 08 05 fa 3d f6 73 1e bd
       -0.04221412 0.084941454 0.12207991 -0.038684808
000020 7f 2a cd 3d 05 0d 57 bc 58 d1 72 bd e8 67 e6 3d
       0.10017871 -0.013125663 -0.059281677 0.11250287
000030 f1 c1 ea 3b f3 61 94 3d a8 77 0b bd 0a be 2a 3d
       0.007164233 0.07245245 -0.03404966 0.04168514
000040 36 2d da 3b fb e7 3b bd cb 89 6c bd 25 2e 6a bd
       0.0066582216 -0.04587553 -0.057748597 -0.057172913
000050 40 aa 7a bd c5 42 23 3d dd 20 95 3d 2f d4 7d bd
       -0.06119752 0.0398586 0.07281659 -0.061969932
000060 a3 61 10 3e e3 0e b6 bc 03 c8 9b bd b5 2b b8 bc
       0.14099745 -0.022223895 -0.076065086 -0.022481779
000070 75 ad 2e 3d 78 51 52 3d cf 0d a8 3d fc f6 8b bd
       0.04264589 0.051347226 0.08205759 -0.06834218
000080 be af 86 3d 6d bb a8 3d 50 24 2b 3c 4b b4 b3 bd
       0.06576489 0.08238874 0.010445669 -0.087746225
000090 1d 68 b0 3c eb 9c 2e bc 9a 61 71 bc 60 b6 01 3e
       0.02153402 -0.010657529 -0.014732743 0.12667227
0000a0 b7 ba 1e 3b 9b 57 a6 bd e4 64 e3 3d 67 cb 74 3d
       0.0024220177 -0.08122178 0.11103228 0.059764292
0000b0 72 f0 89 bd a4 d7 9d bc 78 f9 b6 bd 8c 50 59 bd
       -0.067353144 -0.019267865 -0.08934301 -0.05305533
0000c0 94 3f 06 be 95 47 0e bd ff 4d 09 be 50 f5 f0 3d
       -0.1311019 -0.034736235 -0.1340866 0.1176554
0000d0 e4 02 07 bd 9b 8f 77 bc 67 20 3d 3c 1c 7f ba 3d
       -0.03296174 -0.015109922 0.01154337 0.091062754
0000e0 0c 9d 9e 3d 79 80 a3 3d 31 65 0b 3e 1f 47 7e bc
       0.07744798 0.079834886 0.1361282 -0.015519886
0000f0 18 c7 60 bd 59 23 ac 3d 5b 86 63 bd 10 0a d9 bd
       -0.05487737 0.084051795 -0.055548053 -0.105976224
000100 38 64 05 bd ed c4 c3 3d e6 a5 ea 3d 3b 35 e2 3b
       -0.03256628 0.09559045 0.11457424 0.006903318
000110 2c 7f 3c 3d b3 13 fc bc 01 93 12 3d 85 48 7b 3c
       0.046019718 -0.030771112 0.035784725 0.015337114
000120 be 63 3a 3d ad e2 ad bb 3b 7d 64 3d 0d fe e7 3d
       0.045505278 -0.005306563 0.05578349 0.11327753
000130 02 e4 51 bd f6 c5 b6 bd 7c 1c 83 3d ea 10 04 be
       -0.051242836 -0.08924477 0.06401917 -0.12897077
000140 b5 44 c2 bc f7 1f 88 bd 93 2d 85 3c 04 0b 74 bd
       -0.023714403 -0.06646722 0.016257083 -0.059580818
000150 5c 0e b0 bc 6b a9 76 3d 1c dd d4 3d f9 7d 6b bd
       -0.021491222 0.060220163 0.10393736 -0.057493184
000160 81 36 06 3d 49 68 3a 3b bb da f3 bd de be 8d 3a
       0.032766823 0.0028443506 -0.11906954 0.0010814329
000170 a5 d6 95 bd a8 58 e7 bc 19 d1 63 bd f8 db 01 3e
       -0.07316331 -0.028240517 -0.055619333 0.12681568
000180 45 97 95 3c 62 55 74 bd 54 6e b0 3c 7e 30 c8 bd
       0.018260607 -0.05965174 0.021536984 -0.09774874
000190 57 b9 e1 bc 50 e8 0e bd 61 5e be bd 2b 05 03 3e
       -0.027554197 -0.03488952 -0.09295345 0.1279494
0001a0 09 ff e3 3b 6b c7 d9 3d 3a dd af 3b fa 64 88 3d
       0.006957893 0.10633739 0.0053669484 0.06659885
0001b0 7a 55 d8 3d 4d 41 a1 bc b0 78 b9 3d 4b 4c 88 3d
       0.10563178 -0.019684458 0.090562224 0.06655177
0001c0 21 a9 71 bd c4 36 66 3d e1 9a ea 3d 03 9d ad 3d
       -0.058999185 0.056204572 0.11455322 0.08477213
0001d0 ca 3a 4e 3d de ca bd 3d fe b3 64 bd 51 f2 ab 3d
       0.050349034 0.092672095 -0.055835716 0.083958276
0001e0 8c 5a 10 3d 70 f0 d9 bd b3 a1 e7 bd 09 00 f3 3c
       0.035242602 -0.10641563 -0.113101386 0.029663103
0001f0 2a 09 7f bb 19 78 9f bd b5 f2 fd 3a e3 4d 69 3d
       -0.0038915374 -0.07786579 0.00193747 0.056959044

net.3.weight f4 [1, 64]
000000 70 78 7c bd b2 a5 2d 3d 6f 78 7d 3d db 0e 94 bd
       -0.061638296 0.042394347 0.061882433 -0.07229396
000010 e9 e6 47 3c 0b 00 53 be c1 e6 84 bd 25 73 19 bb
       0.012201049 -0.20605485 -0.06489325 -0.0023414579
000020 f1 32 cb bc 9e c4 c2 bd 56 bf 9b 3a a9 db 3d bd
       -0.024804564 -0.09510158 0.0011882584 -0.046352062
000030 52 29 a5 bd dd ae 05 3d f1 f4 fc ba d1 7d 61 bd
       -0.08064522 0.032637466 -0.0019299072 -0.05505163
000040 b3 aa 29 3c 13 ff 49 bd 8d d4 d2 3d 30 52 2c bd
       0.010355639 -0.049315523 0.10294447 -0.042070568
000050 a7 4d 80 bc d6 94 a3 39 8e 45 a1 bc 81 2b 3d be
       -0.015662028 0.00031200674 -0.019686487 -0.18473627
000060 84 b9 80 3c d3 da 51 3c 89 e2 a0 bd 14 11 20 bd
       0.01571346 0.012808519 -0.07855708 -0.039078787
000070 ee 50 2a 3d 32 cd 0e bd 47 51 d5 3d 07 0d 4a 3d
       0.041581087 -0.03486366 0.10415893 0.04932883
000080 ff 32 1a bd 4f 9f 0f bd d6 8f 49 3d 18 21 17 bd
       -0.03764629 -0.035064038 0.04920944 -0.036896795
000090 4a c4 b9 3d ec aa a3 bb 71 79 a5 3a 4c bb b8 3c
       0.09070642 -0.0049947407 0.0012624693 0.022550248
0000a0 de 8b 45 bd 7f d7 9f bb df ef 66 bb b8 d3 97 bb
       -0.04822909 -0.004877984 -0.003523819 -0.004633393
0000b0 e4 c8 b7 3d 79 7b 79 3d d3 97 95 3d 2b 3c 00 be
       0.08973864 0.06090877 0.07304349 -0.12522952
0000c0 15 16 bd bc 85 b0 87 bd 99 de 10 3b f3 69 97 bd
       -0.023081819 -0.06625465 0.0022105335 -0.07393255
0000d0 d3 22 b4 bc 5e 31 cb 3c da 76 07 bb ac a6 37 bd
       -0.021989262 0.024803814 -0.0020670206 -0.044836685
0000e0 30 aa aa 39 85 7d 3d 3d 5f 23 9a bd d7 83 95 b9
       0.00032551726 0.046262283 -0.07526278 -0.00028517723
0000f0 ab 93 0e bb 65 5d f3 3c 21 3d d6 bc cb 9f b3 bd
       -0.0021755497 0.02970762 -0.026152195 -0.087707125
