path/to/dir/cond_wire/2026_01_28__16_29_00-no_wandb_id/2026_01_28__16_29_00-no_wandb_id-model.pt (torch, 273908 bytes, 7 tensors)

net.0.freq_scale.weight f4 [256, 4]
000000 55 af b0 3e 82 6a 9c 3e f0 47 9a 3e a4 40 6f 3d
       0.34508768 0.3055001 0.3013301 0.058411255
000010 ba bd 05 3e 38 c2 c6 3e 22 f2 14 3e ae bc da be
       0.13060656 0.38820052 0.14545491 -0.42722076
000020 92 28 b7 be 3b d5 bc 3c 19 c7 92 3e 4d e5 86 3e
       -0.3577314 0.023050895 0.28667524 0.26346818
000030 45 88 e0 3e 98 60 34 3e 3a de fa be e9 68 8a be
       0.43853965 0.17614973 -0.4899767 -0.27033165
000040 34 fd 93 3e 17 6d 96 3d ff c0 5a 3e 7f b4 2f 3e
       0.28904116 0.07345026 0.21362685 0.17158698
000050 d5 34 68 be 72 1e de bd 0e 00 92 3e 49 bc fc be
       -0.22676404 -0.10845651 0.28515667 -0.493624
000060 b2 9a 99 3e 74 f7 cf 3d 01 4e e9 3e c0 08 ee bd
       0.30000836 0.1015462 0.45567325 -0.11622763
000070 49 0b ab 3c b0 e9 db 3d b1 51 c7 be 0a 74 3f 3e
       0.020879405 0.10737932 -0.38929513 0.18696609
000080 bc 81 92 bd f2 46 ea 3c 8c 94 ce be 04 5f ee be
       -0.07153651 0.028598282 -0.40347707 -0.46556866
000090 3b b7 b1 3e 91 36 e5 be 27 50 fb 3e d6 ff ba 3e
       0.34710106 -0.44768193 0.4908459 0.36523312
0000a0 90 46 ab 3e 82 34 8f 3e e3 d9 06 3e 83 5f 94 3e
       0.33452272 0.27969748 0.13169055 0.2897912
0000b0 9a f2 8d bd 4c 2f 62 be a5 ca a6 3e f8 de d4 3e
       -0.06931038 -0.22088355 0.3257648 0.41576362
0000c0 32 a9 76 be 8b bd 89 3e 4e ac 28 be 0c b0 cc be
       -0.2408798 0.26902422 -0.16471979 -0.39978063
0000d0 64 46 f8 3c 00 45 a6 be 5e 3c 95 3e 84 2b a3 3e
       0.030307002 -0.32474518 0.2914762 0.31869137
0000e0 f4 06 1b 3e 53 48 b5 be 2a 3f 05 3f 6e 29 ce bd
       0.15139371 -0.35406741 0.52049506 -0.10066496
0000f0 64 6e e1 be d2 0d f4 be 1c d1 34 3e 78 b6 86 3d
       -0.44029534 -0.47666794 0.17657894 0.06577772
000100 20 dd 96 bd 41 51 ef 3c 7b d8 f1 bd 25 3c 2c 3d
       -0.07366395 0.02921355 -0.118088685 0.042049546
000110 67 77 0e 3d d5 9e 50 3e fa 86 10 bf 9b d0 fc 3e
       0.03478184 0.2037309 -0.5645596 0.49377903
000120 38 50 03 be ed d5 c2 3e c3 8c de be e7 d4 e3 be
       -0.1282357 0.38053837 -0.43466768 -0.4449837
000130 97 33 cc be 2f 91 bb 3e 38 4e e0 3d 73 a4 67 3c
       -0.3988311 0.36634204 0.10952419 0.014138329
000140 4e a1 ad be 50 70 cb bd 58 c1 87 3e 83 cf 8b 3e
       -0.33912128 -0.09933531 0.26514697 0.27306756
000150 5f 8a df 3e bc c1 ff be 7d 74 b3 3d 93 ea 4d be
       0.43660256 -0.49952495 0.08762453 -0.20109014
000160 61 95 db be 43 5a 05 be e8 a5 98 3d d0 c0 f3 be
       -0.42887405 -0.13022713 0.07453519 -0.47608042
000170 2d 4b 0b be 8c bd f2 3e 5e 12 8d be ad 39 15 be
       -0.13602896 0.47410238 -0.27553076 -0.14572783
000180 67 5c 4c be 78 55 01 bf d6 21 9b bd 88 dc b9 3e
       -0.19957124 -0.5052104 -0.07574813 0.36301064
000190 f9 95 e6 3d 9f 32 f1 be 16 19 ee bd 55 66 aa be
       0.11259074 -0.47108933 -0.116258785 -0.33281198
0001a0 94 7c 9a 3d cd 5e 96 be 01 50 ae 3e f8 71 d0 be
       0.07543293 -0.29369202 0.34045413 -0.4071195
0001b0 a0 8c ac 3e 79 b2 ca 3e 43 cc d3 be 74 02 88 3e
       0.33701038 0.3958929 -0.41366777 0.26564372
0001c0 4d f3 2f be 56 15 bf 3d c0 56 00 3f d3 b0 36 be
       -0.17182656 0.093302414 0.5013237 -0.1784089
0001d0 49 2f cf bb a6 d1 c6 be eb b9 a6 3e 4b 7a 9b 3e
       -0.0063227755 -0.38831824 0.3256372 0.3036674
0001e0 90 c2 4c 3e f3 d7 ce bd 70 b5 8b 3e 04 2f 94 be
       0.19996095 -0.10099783 0.27286863 -0.2894212
0001f0 be fc d2 be 3c d9 2c be 02 5f f6 be a5 6d 89 3e
       -0.41208452 -0.16879743 -0.4811936 0.26841465
000200 3f b7 e9 be 42 e5 41 3e 99 41 cc 3d f6 4f 1b 3e
       -0.45647618 0.18935111 0.09973449 0.15167221
000210 bb 71 ba 3e a2 b0 ac bd 70 59 7e bd 6b 91 82 3c
       0.36414894 -0.084321275 -0.062097013 0.015938481
000220 3d ee d9 be 50 07 c9 be 03 79 65 3d 15 1c c7 be
       -0.42564574 -0.39263391 0.05602361 -0.38888612
000230 28 bc 88 be de 42 08 3e f7 78 0c 3e 81 be dd 3d
       -0.26706052 0.13306758 0.1371802 0.10827351
000240 ef 18 b3 be f6 2d a7 3e 78 6c 05 3e a3 e2 c0 3e
       -0.3497996 0.32652253 0.13029659 0.3767291
000250 31 f8 b8 be 0b 83 8b 3e 94 a3 3e 3e 15 35 cb 3e
       -0.36126855 0.27248415 0.18617088 0.39688936
000260 12 ec 5e 3e 8c eb 32 3c 14 59 9a 3d c4 8d 03 3f
       0.21769741 0.010920417 0.075365216 0.5138819
000270 80 1a 91 bd 4e b3 bc 3e da a6 93 bd e6 1a 0a 3e
       -0.070851326 0.3685555 -0.07209559 0.13486823
000280 c5 9e dc 3e d0 e3 0f 3d e9 e5 ce be 81 ea a2 bd
       0.43089882 0.03512937 -0.40409783 -0.07954884
000290 b7 f7 3e 3e a5 25 2f be 71 a7 3b be 37 90 96 be
       0.18649183 -0.17104204 -0.18325593 -0.29406902
0002a0 9f 01 b8 3d 82 ca b5 3e 5f 4e 43 3e 04 1f ee 3e
       0.08984684 0.35506064 0.19072865 0.46508038
0002b0 4e 5b 89 3d fe dc 91 3e ab 34 07 bf 63 ec d7 bd
       0.06706868 0.28488916 -0.5281474 -0.10543134
0002c0 be 75 0b be b8 ab 80 bc a7 a4 de be c7 bb 8d 3e
       -0.13619134 -0.015706882 -0.43484995 0.27682325
0002d0 a1 f1 82 be 4c 7c a9 3e 29 32 65 3e 9a df d0 3d
       -0.25574973 0.33102643 0.22382416 0.101988986
0002e0 d3 12 2e be 6a b2 9a 3d f5 97 83 be 6c fa 0e be
       -0.16999368 0.07553561 -0.25701872 -0.13962716
0002f0 f3 40 56 3e f8 4e d0 bd e1 42 15 be 67 da a9 3e
       0.20923214 -0.10171312 -0.14576294 0.3317444
000300 33 2f 81 be d4 51 b9 3e 28 8e eb 3d b9 f9 95 3e
       -0.25231323 0.36195242 0.115017235 0.29292086
000310 53 5a 19 be b2 e7 21 bd ce 38 e9 be d4 5d 12 be
       -0.14975862 -0.039527602 -0.4555115 -0.14293605
000320 e4 77 92 3e 3c b0 70 bd ff 62 f5 3d 4c 70 ee be
       0.28607094 -0.05876182 0.11981773 -0.4657005
000330 d0 c1 9c be 40 2f bf 3e e9 8f 71 be c0 40 b0 be
       -0.30616617 0.37340736 -0.23590054 -0.344244
000340 a2 79 92 3e 21 6e d4 be a8 f1 be bd 1d 3e b1 3e
       0.28608423 -0.41490272 -0.09323436 0.346177
000350 94 62 87 bc f6 48 65 bb f8 22 c2 bd ff 04 b6 3e
       -0.016526498 -0.0034986115 -0.09479326 0.35550687
000360 3d eb 8d be 8a 61 80 be 3b 0e d2 3d 7b 99 a5 be
       -0.27718535 -0.25074416 0.102566205 -0.3234366
000370 09 78 40 bd e0 34 e7 be 15 7d 02 3f cb 94 ea 3d
       -0.046989474 -0.45157528 0.5097211 0.11454161
000380 1d 23 ba bd d7 34 c0 3e b7 4d b0 3e c6 b3 cb be
       -0.090887286 0.37540314 0.34434292 -0.39785594
000390 77 49 9a be 62 15 db be 06 30 95 3c 08 27 9e be
       -0.30134174 -0.4278975 0.018211376 -0.30889153
0003a0 00 b1 e5 3e 0b 8d 93 3e e8 58 a6 be bc 3a 95 3e
       0.44861603 0.28818545 -0.32489705 0.29146373
0003b0 db 96 cd be 24 50 e5 3c 63 e5 ed be 90 cf cd 3e
       -0.40154156 0.027992316 -0.4646407 0.4019742
0003c0 dd 82 e9 be a4 4c 52 3e df 1c e2 3d 11 09 e5 be
       -0.45607653 0.20537049 0.11040663 -0.4473348
0003d0 9d 1d e6 bd 52 84 a7 bd 9a 10 bf 3e 47 ec b9 3d
       -0.11236117 -0.08179535 0.37317353 0.090782695
0003e0 c8 88 77 be 0a f2 7c bd d7 c7 ba 3e 74 c2 b5 be
       -0.24173272 -0.061754264 0.3648059 -0.35499918
0003f0 ca cb dc be b6 44 60 3e fd 09 81 3e 08 b8 89 3e
       -0.4312423 0.21901211 0.25202933 0.26898217

net.0.freq_scale.bias f4 [256]
000000 8b 36 da bd 9d 04 10 be 0e ec 72 bd 60 b1 a5 3e
       -0.106549345 -0.1406426 -0.05930715 0.3236189
000010 fd 66 93 3e 43 f0 b0 be f9 f8 83 bd fc cf 31 be
       0.2878951 -0.34558305 -0.06443972 -0.17364496
000020 64 06 98 be 09 df 81 be a0 9d 5f be 59 4c e5 be
       -0.29692376 -0.25365475 -0.21837473 -0.4478481
000030 03 6d 06 3f d0 63 b6 3c c8 0f c4 3e 9f d2 25 be
       0.5251009 0.022264391 0.3829329 -0.16193627
000040 9a 18 bb bd 13 9d fe 3d e4 1c fc 3e 51 75 5f 3d
       -0.09135552 0.12432303 0.49240792 0.05455524
000050 f6 50 b8 be 07 53 f1 be a3 ce 12 bd 8c 6b 87 be
       -0.35999268 -0.47133657 -0.035841595 -0.2644924
000060 c8 28 fb be b6 21 b4 3e a0 fc 1b be ef 61 2c bc
       -0.4905455 0.3518197 -0.15233088 -0.010521396
000070 b9 b2 54 3d 0f f6 88 be 3c 6a e0 3e c2 ab 9d 3e
       0.051928256 -0.26750228 0.4383105 0.30795103
000080 31 fa 0c 3d 22 e3 bf be 83 7a f3 3e 11 41 d3 be
       0.03441829 -0.37477976 0.47554407 -0.4126058
000090 6a 55 ba be 50 06 e2 3e 2e c2 15 3d d8 be 28 bd
       -0.3639329 0.4414544 0.036562137 -0.041197628
0000a0 89 9d d1 3d 38 b7 62 3e 26 24 e2 3e d1 e3 f4 3e
       0.102351256 0.22140205 0.44168204 0.4783006
0000b0 4b f3 30 3c 06 e3 e8 bc 7f e3 ef 3e 71 6c 1d be
       0.010800193 -0.028428566 0.46853253 -0.15373398
0000c0 fc f3 f1 3b d1 1b fb 3e 42 da 01 bf 44 a7 e1 be
       0.0073838215 0.4904466 -0.5072366 -0.44072926
0000d0 69 5b aa be e7 69 c7 be a4 8b ad be 4b 1e 82 bd
       -0.33272865 -0.38947985 -0.338956 -0.06353434
0000e0 38 38 c1 be 93 28 ae be 2a da 8c 3e b5 ee ee bd
       -0.37738204 -0.3401533 0.27510196 -0.116666235
0000f0 66 77 f5 3e b4 ef 2e 3e 6c 1d 2f bd f2 2e fa 3e
       0.47942656 0.17083627 -0.04275267 0.4886394
000100 87 42 d5 3d 0e e2 91 3e 1f 32 eb be 10 cd e4 3e
       0.1041308 0.2849278 -0.45936677 0.446877
000110 97 99 34 3d 5e a4 df 3e c0 19 4e 3e 90 8f 85 bd
       0.044091787 0.4368009 0.2012701 -0.06521523
000120 21 65 c2 3e 4d 08 35 be 7a 14 8b bd 68 6f 9e 3e
       0.3796778 -0.17678948 -0.06791015 0.3094437
000130 1c 4c 91 3e 72 d4 94 3e 9d da c2 be 55 5e 25 3c
       0.2837838 0.29068333 -0.38057414 0.010093291
000140 3d d8 ab bd fd d9 38 be b1 c4 c4 3e a3 53 3c be
       -0.083908536 -0.18051906 0.38431314 -0.1839128
000150 b7 48 c7 3d a0 17 f7 3d ac fb a4 be 66 09 38 be
       0.09730666 0.12065053 -0.3222326 -0.17972335
000160 6c 42 09 be e5 9e bc 3e ea 91 ce bc dc 2f be be
       -0.13404244 0.36839977 -0.025216062 -0.3714589
000170 54 f1 ef 3d 4b 3e e2 3e 75 74 ad be 52 81 23 3e
       0.117159516 0.4418815 -0.33877912 0.159673
000180 43 f6 d0 be 42 59 33 bc aa 1e 04 bf 63 32 ad bd
       -0.40812883 -0.010946574 -0.5160929 -0.08456876
000190 eb e9 68 be 0f 1e 2b 3e 2a 12 9c 3d 19 78 72 be
       -0.22745483 0.16710685 0.07620652 -0.23678626
0001a0 21 0b 66 be 09 11 56 be bb 6b 75 3e 09 6e 11 3e
       -0.22465183 -0.20904936 0.23966877 0.14202131
0001b0 0f 04 25 3d 66 59 05 3e d9 06 bc be 57 2a f1 3e
       0.040287074 0.13022384 -0.36723974 0.47102615
0001c0 88 e9 eb be 41 e2 3a 3e 60 a5 e0 be 7d c3 ab be
       -0.46076608 0.18250372 -0.4387617 -0.33547583
0001d0 56 04 af be 71 06 1f 3e a4 6f dc 3d 0d e5 f0 3d
       -0.34182996 0.15529801 0.10763481 0.11762438
0001e0 2b 18 83 bd 8f f7 78 3e dc 9a 7a 3e c5 60 b3 be
       -0.06401094 0.24313186 0.24473137 -0.35034767
0001f0 74 6b 09 bd 38 ec b2 3e c3 79 82 3e 76 2e 16 3e
       -0.03354974 0.34945846 0.25483522 0.14666161
000200 49 4a a1 3e 5e b9 3e bd a9 72 93 3e db c7 96 3e
       0.31501988 -0.0465635 0.28798416 0.29449353
000210 5e 4b 10 be c0 d5 09 3e 07 a9 1c bd 91 8c c6 3e
       -0.1409125 0.13460445 -0.038247135 0.3877912
000220 57 21 5b be 49 d7 77 3e 36 45 c7 3e 58 ae ce 3e
       -0.21399437 0.24203219 0.3891999 0.4036739
000230 a9 3c 9a 3e 14 7a 5c 3e 7b 0e a9 be 17 f1 8d 3e
       0.30124405 0.21530944 -0.3301886 0.27723
000240 c9 22 f2 bd 99 26 64 3e ec 01 6e be c7 3d 95 3e
       -0.11823041 0.22280349 -0.2324292 0.29148695
000250 ab 4e eb 3d c9 09 be 3e 18 7d 20 be 72 2e 81 be
       0.11489614 0.3711684 -0.1567272 -0.25230747
000260 93 39 5d be 47 69 a8 3e d6 75 68 3e a8 2f b3 3e
       -0.21603994 0.3289282 0.22701201 0.34997296
000270 be d8 c3 be 7f 8f 49 be 2b 17 c9 be 87 00 0e 3d
       -0.382513 -0.19683646 -0.39275488 0.03466847
000280 8b 83 1f be 27 ae b2 be 6f 5d 79 3e f6 a5 fc 3e
       -0.15577523 -0.34898493 0.24352048 0.49345368
000290 d2 02 b4 39 80 0d 5c 3e 2b d0 de bd ea 96 0a 3e
       0.00034334377 0.21489525 -0.10879549 0.13534132
0002a0 d3 8e 24 3e f4 8b 52 bc 0a a7 8e be 66 1b 53 be
       0.16070108 -0.01285075 -0.27861816 -0.2061592
0002b0 10 52 01 3e a7 26 e0 3e 4e 81 be 3e 3e 21 eb 3e
       0.1262896 0.4377949 0.37208027 0.459238
0002c0 95 35 d4 3e af f4 a5 3e ae 66 b3 3e 5b 1e a7 bc
       0.4144713 0.3241324 0.35039276 -0.020400217
0002d0 ea 47 45 be 58 6e 76 3e 9a 48 59 3e 01 06 e0 3e
       -0.19265714 0.2406553 0.21219102 0.4375458
0002e0 fc 8d 8c be d5 8d bf be 5d db 99 bc a3 87 72 be
       -0.27452075 -0.37412897 -0.018781358 -0.23684554
0002f0 45 3c af be 03 2b 9f bd 97 10 0a be c8 d5 a4 be
       -0.3422567 -0.07771876 -0.13482891 -0.32194352
000300 e5 40 6e bd 0d 33 dd 3e 23 58 c1 be fc 60 88 3e
       -0.058167357 0.4320301 -0.37762555 0.26636493
000310 b3 fd d3 3e aa 37 99 3e 0d c0 e0 3e 13 6f 82 be
       0.41404495 0.2992528 0.43896523 -0.25475368
000320 4e fc 17 3c 84 3a 2d 3e fb 7a 8d be b5 34 aa be
       0.009276463 0.16916853 -0.2763289 -0.33243337
000330 5b 30 f9 3e 7e 97 e8 3e 9c 69 5c 3e e0 47 04 3f
       0.48669705 0.4542808 0.21524662 0.5167217
000340 42 96 92 3e 01 41 06 3e 77 46 c8 be 84 17 b4 3d
       0.28630263 0.13110735 -0.3911626 0.08793548
000350 09 08 10 bf 8b 30 da be 5c 4b 96 3e 32 e1 be 3e
       -0.5626226 -0.4261516 0.2935437 0.37281185
000360 3d 2f 63 3e be ad 70 3e 45 d7 2c 3e f0 c7 bd bd
       0.22185989 0.23503777 0.16878994 -0.09266651
000370 7d eb 02 3f 81 ca 33 3e 3f 3a b8 3c 65 02 82 3e
       0.51140577 0.17557718 0.022488711 0.25392452
000380 3b 2d ea be 18 7d 23 be 93 f9 e3 3e f6 b3 b7 3e
       -0.45737633 -0.15965688 0.44526348 0.35879487
000390 8e 6d ae 3e fc 37 02 3e 68 50 9d be bb 5c 5b 3e
       0.3406796 0.12716669 -0.30725408 0.21422093
0003a0 78 66 bd 3c bb e0 8a be 0f 20 e8 be 12 98 83 3e
       0.02312015 -0.2712458 -0.4533696 0.25701958
0003b0 3a ee 37 bd b7 f3 d9 3e 9a 1f d5 3e 76 60 45 bd
       -0.044904925 0.42568752 0.41625673 -0.048187695
0003c0 4f cf c7 bd cf ab 25 bd 32 08 ac be d3 1d db 3e
       -0.09756338 -0.040447053 -0.33600003 0.42796192
0003d0 c4 d6 85 3e dc 6d c9 3e a8 ad 6d 3e 63 b7 cc 3d
       0.26140416 0.3934163 0.23210776 0.09995916
0003e0 87 db 42 be 05 c7 a5 be f8 70 dd be 8d e0 86 3e
       -0.19029056 -0.32378402 -0.4325025 0.26343194
0003f0 47 1a 83 3c 70 8e f5 bd 47 d4 db 3e 18 e5 97 be
       0.016003741 -0.119900584 0.42935392 -0.29666972

net.1.freq_scale.weight f4 [256, 128]
000000 7f 72 01 bd bc 42 06 3c 65 99 3a bd 15 e0 1c bc
       -0.031603333 0.008194622 -0.045556445 -0.00957491
000010 ad 1e 1e bc b2 34 f9 bd 7d aa 99 3c 38 07 0e 3d
       -0.009650868 -0.12168254 0.018758053 0.034674853
000020 31 b0 d2 bd 85 78 1a 3e 56 8f 81 3d bb cb c3 3d
       -0.10287512 0.15085037 0.06326167 0.09560343
000030 c8 e5 c0 3d ef a1 f2 3c d9 85 f8 3d aa fe e3 3d
       0.09418827 0.029618232 0.121349044 0.11132558
000040 38 96 81 bd b7 7f 70 bd 4f cd 45 bd 26 3f 86 3d
       -0.0632748 -0.05871555 -0.0482915 0.06555013
000050 5a a2 a4 3d 78 d6 ba bd 28 fa 1b bd 18 bd 06 bd
       0.080387786 -0.09122938 -0.038080364 -0.032895178
000060 cc 34 45 3e 81 41 70 bc e5 37 ec bc 8c 0e 0b 3d
       0.19258422 -0.014664055 -0.028835246 0.03394942
000070 cf 6b b4 bd 48 16 46 bd 04 bc 05 bc 58 e1 51 be
       -0.08809625 -0.048361093 -0.008162502 -0.20496118
000080 37 f1 9e 3d 24 be 9d bd 61 8d 3f bd 3d 7c a6 bd
       0.07760852 -0.07702282 -0.04676569 -0.08129165
000090 1b f0 46 bd f4 76 c9 bc 7e a7 d4 bd be 42 82 3d
       -0.048568826 -0.024592854 -0.10383509 0.06360386
0000a0 e3 16 29 3e c5 93 16 be 4e ad 4d 3e b9 a4 bb bc
       0.16512637 -0.14704807 0.20085642 -0.022905694
0000b0 f5 85 c3 bd 02 84 39 be cd ce ed 3d 7e bb ad bd
       -0.09547035 -0.18116763 0.1161171 -0.08483027
0000c0 31 b8 4c bd 5a 50 ab 3d 85 9f de bc ce a7 e4 bd
       -0.049980346 0.08364935 -0.027175674 -0.11164819
0000d0 d3 38 38 be 87 88 ab 3c 25 35 3d 3e d4 c7 a1 bd
       -0.17990427 0.020939125 0.18477304 -0.07899442
0000e0 29 7c 3a be fe 34 18 be a0 ec 7a 3d ed e2 80 3e
       -0.18211426 -0.14863965 0.06126082 0.2517313
0000f0 73 44 c3 3c 4e aa c2 3d 58 c7 e7 bd 77 b0 86 bd
       0.02383635 0.09505139 -0.11317319 -0.06576627
000100 fa cd 8f bd 17 d9 dc bb fa ad fe bd bd 44 ad bd
       -0.07021709 -0.0067397463 -0.12435527 -0.084603764
000110 58 5a ac bd d7 95 2f bc b9 0a aa 3b 3e 67 13 3e
       -0.08415669 -0.010716877 0.0051892665 0.14394853
000120 23 cb fe bd 03 d5 c6 3d 57 17 b3 bd 8d 5b bd 3d
       -0.12441089 0.097085975 -0.08744686 0.092459776
000130 13 48 af bd 3a c3 6c 3d 5b f4 a7 bc 78 3d 01 be
       -0.08558669 0.05780337 -0.02050226 -0.12621105
000140 72 76 99 3d cd 97 88 3d d3 9e 07 3d 2d e5 98 3d
       0.07493295 0.06669579 0.03311045 0.07465587
000150 81 b4 b3 bd a2 b6 09 bc 3f de a1 3d 05 07 d5 3d
       -0.08774663 -0.008405359 0.07903718 0.104017295
000160 78 ac 95 3d ae 8b 39 be 38 95 8d bd 0a 75 c0 3d
       0.073082864 -0.1811969 -0.06913227 0.093973234
000170 3e ac b6 3d a0 ec a8 3d af 4f 37 bd fb 4e 96 bd
       0.08919571 0.08248258 -0.044753727 -0.07339283
000180 ea 7f 5e bd b2 d1 26 be 9f b0 2c bd df c1 ab 3d
       -0.054321207 -0.1629093 -0.042160627 0.08386587
000190 b1 1a dd 3d af 2c 4f 3c 5e 60 14 3b c9 a7 10 be
       0.107961066 0.012644931 0.0022640447 -0.14126505
0001a0 bc d4 02 3e 82 bd f7 3d 7a be c8 3c 1e ab 3a 3e
       0.12776464 0.120966926 0.024504889 0.18229339
0001b0 e3 ae 89 bc 4a 56 1d 3e c3 06 f1 3c 93 57 93 bd
       -0.016807025 0.15364948 0.02942217 -0.07194438
0001c0 48 d2 5e 3c 8a b7 1a 3e 36 4f b5 3d 66 e0 80 3d
       0.01359994 0.15109077 0.08852999 0.062928006
0001d0 41 a1 06 3b 6e c0 d2 3d b8 b2 0f bd 7f 30 12 bd
       0.0020542892 0.10290609 -0.03508255 -0.03569078
0001e0 c3 58 0b 3d 1d 7e 28 3d a8 c4 8e bd 6d bb ca bd
       0.034020197 0.041135896 -0.06971103 -0.0989903
0001f0 a5 ce 2b bd ff 67 f1 3b 1e 6c 9e bd ce 6e 07 bc
       -0.04194512 0.0073671336 -0.077354655 -0.008266164
000200 a3 45 4a bd ac 62 27 bd 46 48 bb bd e2 24 86 bc
       -0.049382817 -0.040865585 -0.091446444 -0.016375009
000210 e5 10 d9 3d f6 2f ae bd 98 bc 66 3d fd d0 fa bb
       0.105989255 -0.085052416 0.0563322 -0.007654308
000220 98 a1 20 3e 7c d9 a3 3b e3 24 1c 3d cc 51 46 bc
       0.15686643 0.0050002914 0.038121115 -0.012104463
000230 4a 32 44 be bc df b0 3d ac 1d cd bc 18 15 eb bc
       -0.19159809 0.08636424 -0.025038563 -0.028696582
000240 ef 1b 85 bc 50 96 3d bd 68 1f ad 3c c3 05 1d be
       -0.016248671 -0.046285927 0.02113314 -0.15334229
000250 1b 5b 7a bd fb 61 10 bd d7 6f c4 bd 87 0c ce 3c
       -0.06112204 -0.03524969 -0.09591644 0.025152458
000260 47 4b 02 3e d5 ec 43 be 68 f5 11 be 75 9d b5 bd
       0.12724029 -0.19133313 -0.14253771 -0.08867923
000270 4d 7f 34 bb 73 a9 08 bd df 9a 15 3d ba 00 d0 3d
       -0.0027541697 -0.033364724 0.03652465 0.101563886
000280 e1 7c 84 3d 9a 66 19 bd f3 a4 d0 bb 54 bc 10 bd
       0.06469131 -0.037451364 -0.0063673197 -0.035335854
000290 f0 6d b5 3c 15 19 b6 bd c1 db e0 bd 7b 5e 3e 3d
       0.022147149 -0.08891503 -0.10979415 0.046476822
0002a0 e2 50 90 be cb 75 3d bd 44 42 26 3e 04 a1 09 bd
       -0.2818671 -0.046254914 0.16236216 -0.033600822
0002b0 69 d8 24 3e df 71 ba 3d d3 b4 0d 3c 3c d6 5e 3c
       0.16098179 0.091037504 0.008649069 0.013600882
0002c0 e2 f8 e0 bd 07 f3 90 3d 21 0b 55 bc d7 98 8a 3d
       -0.10984971 0.07077604 -0.013003142 0.06767433
0002d0 8d f5 cf 3d 61 c6 35 3e 76 dc 39 be 56 2a e1 b9
       0.10154257 0.17751457 -0.18150505 -0.00042946887
0002e0 92 24 de bc 2c 9d 05 3d b8 8c 24 3d b5 81 5b 3d
       -0.027117047 0.032620594 0.040173262 0.053590495
0002f0 93 a2 d3 bd b1 94 da 3c 7b 0d 52 be c4 f1 a5 3d
       -0.10333743 0.02668223 -0.20512955 0.08102754
000300 7a cc e5 3b ea c4 45 bd 60 cb 19 be 47 b2 bf 3c
       0.007012901 -0.048283495 -0.15018988 0.023400439
000310 d1 40 02 be a2 ac b0 3c e6 95 a2 bd c0 ae ce bd
       -0.12720038 0.021566693 -0.07938747 -0.10091925
000320 52 f9 00 3d 62 c2 0a 3e 9a 2c 3d 3d b2 65 ec bd
       0.03148777 0.13550714 0.046185113 -0.11542834
000330 53 f7 ce 3c b2 5f d1 3d fe 66 f2 3d 1a ae 8b bd
       0.025264418 0.102233306 0.118360505 -0.068203166
000340 ff a2 b5 bd 47 28 5c 3d ab 02 e1 3d d8 e0 23 bd
       -0.0886898 0.05374935 0.10986837 -0.04000935
000350 53 ff 33 bd 3d 00 da bc 28 81 ff bc 2e a3 e4 bd
       -0.043944668 -0.026611442 -0.031189516 -0.111639366
000360 0e 6a 0a be b2 2c fe bd 72 85 41 3d ef 8b 3d 3d
       -0.13517019 -0.12410869 0.047246404 0.04627603
000370 e4 7c 0c be b9 f8 af bd 5f 35 62 be c6 0b d3 3d
       -0.13719517 -0.08592362 -0.22090672 0.1030498
000380 99 f3 31 be be 24 cd 3c 39 d7 51 bd 38 ba 1a be
       -0.17378081 0.025041934 -0.051230643 -0.151101
000390 8d 8b 7c 3d 13 c5 68 3d 95 15 8c 3d a2 e1 0f be
       0.061656523 0.05682857 0.06840054 -0.14050916
0003a0 bd 8c f2 bd c4 e6 eb bd 52 8c 4f bd e1 98 37 3e
       -0.1184325 -0.115186244 -0.05067093 0.17929412
0003b0 18 39 af bc 1a 99 3c 3b 85 79 38 bd 11 74 dd 3d
       -0.02138953 0.002877778 -0.045037765 0.108131535
0003c0 e0 1a 23 bd 6b 59 d8 3d c4 db e3 ba f5 b6 95 3d
       -0.039820552 0.1056393 -0.0017384221 0.07310287
0003d0 9c 6c ff bd 6c 8d d1 3c 32 08 d8 3c e4 63 eb bb
       -0.124718875 0.02558013 0.026371095 -0.0071835387
0003e0 04 b9 f5 3d 4d fe 6a bd 53 aa cf 3d 6c 4b 6b bd
       0.119981796 -0.057371426 0.10139909 -0.057444975
0003f0 b8 c2 b3 3d 95 ef f4 3d 41 bf 8d bc c5 23 09 3e
       0.08777374 0.11959759 -0.017303111 0.13392551

net.1.freq_scale.bias f4 [256]
000000 1d b7 6e 3b c7 d1 30 3d c4 c7 db bd b0 e4 24 3c
       0.0036425062 0.04316881 -0.10731462 0.010064289
000010 8c fb 00 be ee a4 d1 3d 84 4e 2e bd 0a 1c 33 3d
       -0.12595958 0.10236536 -0.042555347 0.043727912
000020 cf 3b 8f bc 1d 53 9d bd 2e c6 c7 3d ab f6 19 bd
       -0.017484574 -0.07681868 0.09754597 -0.037588757
000030 a3 6f 72 3d 80 50 a3 bc 2e ac 57 bd 68 6e ec 3c
       0.059188496 -0.019935846 -0.052654438 0.02886124
000040 ba 52 31 3c 91 b5 10 be 21 c6 65 3d 08 7a d4 bd
       0.010822946 -0.14131762 0.056097154 -0.10374838
000050 d3 c3 28 3c ce 6d e0 3d 8a 75 db 3d f1 2e 1f 3d
       0.010300594 0.109584436 0.10715778 0.038863126
000060 3d e3 f8 bc c7 96 5c 3d a9 15 9e 3c 31 12 f8 3a
       -0.030381793 0.05385473 0.019297438 0.001892632
000070 c5 e6 34 be 2f 42 03 3e 4e af ae 3c 82 72 33 be
       -0.17666157 0.12818216 0.021323826 -0.1752415
000080 a1 4b 14 be 61 1a 4f 3d 9b 19 7e 3d 99 92 06 be
       -0.14481975 0.050562266 0.062036138 -0.1314186
000090 3b f0 f4 bd 93 35 9c bd cd cc cc bc ff 97 de b9
       -0.11959883 -0.07627406 -0.025 -0.00042456386
0000a0 8b 58 76 bd e1 ab 27 3d c8 67 9f 3d fa d4 99 bd
       -0.060143035 0.0409354 0.077834666 -0.07511325
0000b0 75 f9 80 bd 45 59 d8 bd 9f 69 12 3e b4 05 91 3d
       -0.0629758 -0.10563902 0.14298104 0.07081166
0000c0 6c bd 29 3e cb 0c 07 bd d9 06 c4 bd b0 a3 20 3d
       0.16576165 -0.032971185 -0.095716186 0.039218605
0000d0 b2 ce 99 bd ec 46 85 be 24 c7 97 3d 19 bc 07 bd
       -0.07510127 -0.26030672 0.0741103 -0.03313837
0000e0 21 a0 66 bd d4 83 a8 bd 7e 8d d9 3d 99 ca bf 3d
       -0.056305055 -0.08228269 0.106226906 0.09364814
0000f0 06 53 49 3c 00 f7 3b 3d ff 96 d9 bd 1f 00 58 3e
       0.012287861 0.045889854 -0.10624503 0.21093796
000100 be 2c 98 3d 88 4e 6f 3c b8 8b d9 3d ab fe 46 3d
       0.07430409 0.014606126 0.10622352 0.048582714
000110 18 95 d7 3d 1d 08 28 3d 4a c0 b7 bc 6d 49 98 bd
       0.10526484 0.041023362 -0.022430558 -0.0743588
000120 39 37 d9 bc 5a 1f c7 bd 24 39 78 3c c9 93 9e bc
       -0.02651559 -0.09722777 0.015150342 -0.019357579
000130 2a 91 6d ba 9c 8d 42 3c 1f c1 94 3c ed 70 b2 3d
       -0.00090624637 0.011874583 0.018158494 0.08712945
000140 9b cf 09 3e a7 85 9c 3c 67 65 df 3d 22 14 89 bd
       0.13458101 0.0191067 0.10908013 -0.06693293
000150 9f 73 a9 3c 4c 75 cf 3b b2 e6 f2 bd 5c 60 f7 3d
       0.020685015 0.0063311215 -0.11860408 0.12078926
000160 fc bd e1 bb 9a e1 7a bd 01 ad 65 be 1d bf 16 bd
       -0.006889103 -0.061250307 -0.22429277 -0.036803354
000170 12 d6 61 be da e7 97 bd 6d a2 a6 bd 5e 13 20 be
       -0.22054318 -0.07417269 -0.08136449 -0.15632388
000180 f3 4d c1 bd 8a 6e a2 3c 62 d2 ef bc 52 3f b0 ba
       -0.09438696 0.0198281 -0.029275123 -0.0013446605
000190 02 b9 cc 3d 49 20 92 3d d9 0a 51 3d 65 4e c6 bd
       0.09996225 0.07135064 0.051035736 -0.09682921
0001a0 61 53 d7 3c 48 5b 1a 3b eb ac 30 bd 86 06 d1 3d
       0.026284875 0.0023552943 -0.043133657 0.10206322
0001b0 cb 93 94 bd dc ea fb 3c c5 25 63 3e 13 0c d4 bd
       -0.07254752 0.030751638 0.22182377 -0.103538655
0001c0 a3 69 91 bc 7e 8a 00 be f2 ea 36 bc 23 a4 27 be
       -0.017750567 -0.1255283 -0.011164414 -0.16371207
0001d0 0c 96 6a bd ed 8e 6c bc 0f ee 01 be da 54 4a 3c
       -0.057272002 -0.014438373 -0.12688468 0.012349332
0001e0 d2 07 c1 3d 00 08 88 bc 8b 43 8f bc 42 f6 2b 3e
       0.0942532 -0.016605377 -0.017488262 0.16793159
0001f0 c7 06 4d 3d dd 85 c5 3d 34 f1 2f ba 49 de d0 3d
       0.05005529 0.09644673 -0.0006711662 0.101986475
000200 25 b9 7e bd 85 00 58 3d 93 86 ed bd 78 e5 13 3e
       -0.062188286 0.05273487 -0.115979336 0.14443004
000210 a0 42 46 bd 14 24 e2 bc 62 28 cc bc f6 25 9f bd
       -0.048403382 -0.027605094 -0.0249216 -0.07770912
000220 48 15 21 bd b3 c1 4a 3d 1a 73 af bd 66 60 be 3d
       -0.039326936 0.049501132 -0.08566876 0.0929573
000230 88 d5 b4 3d 9d 4e 61 3d 5f 07 1d bd 2b e7 d5 3d
       0.0882979 0.055006612 -0.038337108 0.104444824
000240 7a 5a 78 bd 08 89 e4 3c 1e ee 67 bc 4c c6 cc bc
       -0.06063316 0.027897373 -0.014155893 -0.024996899
000250 3a 84 d6 bc cd 14 bd 3c 32 c6 10 3d 6f b6 e6 3c
       -0.026186097 0.023081208 0.035345264 0.028163163
000260 ef 64 2e bd 98 4b b4 3c 8e e7 11 3d 96 52 0e bd
       -0.042576727 0.022008702 0.03562122 -0.03474673
000270 43 2a 2f 3d 2b 82 15 3c 6d 6e 0c 3d bc 66 31 bd
       0.042764913 0.009125273 0.034284998 -0.043310866
000280 41 be 08 3e 0e f2 e7 bb d6 c3 18 3d 87 5c 83 3d
       0.13353826 -0.0070784157 0.03729614 0.064141326
000290 33 39 26 3c 63 d9 a2 bd 11 f5 83 bd 73 f6 89 3c
       0.010145473 -0.079516195 -0.06443227 0.016841149
0002a0 62 35 0b 3d d6 d9 78 bd ad 36 a3 bd 47 72 06 be
       0.033986457 -0.06075462 -0.07969413 -0.13129531
0002b0 1a 96 82 bc bb 56 0e be 9e b0 de 3d 50 f0 75 3d
       -0.015940715 -0.13900273 0.10873531 0.060043633
0002c0 27 65 ee 3d 20 54 96 3c 8b e0 35 be a7 57 c6 bd
       0.11640387 0.01835066 -0.17761438 -0.09684687
0002d0 86 8c 08 3e a0 8b 0c 3d 95 60 5a bd db 96 ac bc
       0.13334855 0.034312844 -0.053314764 -0.021068027
0002e0 7d 1d e3 bd 3a 50 4d bc 82 ac e7 bd 07 98 c7 3c
       -0.11089609 -0.0125313345 -0.113122 0.024364484
0002f0 82 56 d4 bd df 0f e9 3c 91 be 33 3d 6e 3f 56 bc
       -0.103680626 0.02844995 0.04388291 -0.013076646
000300 aa 06 95 bd d2 b1 ca bd 0f 52 27 3d e5 b6 67 3d
       -0.07276662 -0.09897198 0.04084974 0.056570906
000310 18 9a a3 3d ab bd b1 bd d5 cd 3d 3d c6 b0 00 3e
       0.079883754 -0.086787544 0.046338875 0.12567434
000320 a4 93 19 3d 8e 52 f0 bd 01 02 12 3c 6f e0 01 be
       0.037494317 -0.11734496 0.008911611 -0.12683271
000330 a8 3b 53 3d 09 60 9f 39 a4 22 d7 bd a5 84 f2 bd
       0.051570565 0.00030398395 -0.10504654 -0.11841706
000340 c6 5a a7 bd 76 2f 5f bd f7 7e c6 bd 00 65 8e 3d
       -0.081716105 -0.05448862 -0.09692185 0.06952858
000350 5b a3 49 3d 2a 33 ca bc 8c 2a b4 3d 88 44 ce 3c
       0.049228054 -0.0246826 0.08797178 0.025179163
000360 4e 60 c1 3c 56 46 d6 3d e4 50 ee bc 45 36 78 bd
       0.023605492 0.10462634 -0.029091306 -0.06059863
000370 b0 0d bb bd 18 3f 08 3e 3c eb 0f 3d 91 b1 02 3e
       -0.0913347 0.13305318 0.035136446 0.12763049
000380 e2 a9 cd bd 6a 81 5a 3d c4 96 9c bd 70 c1 ad 3d
       -0.10042168 0.053346075 -0.07645944 0.08484161
000390 85 11 ae 3d ec 8c bc bd 30 2f f1 bc 1e 17 bd bd
       0.08499435 -0.09206566 -0.029441446 -0.09232925
0003a0 62 a5 61 3d d1 91 78 bd dd 0d df 3c d1 b8 e3 bd
       0.055089362 -0.060685936 0.02722829 -0.11119235
0003b0 5e 43 94 bb 91 28 8d 3d 2a 1c a3 3d 30 64 85 3d
       -0.0045246324 0.06892503 0.07964356 0.0651325
0003c0 88 9f 76 bd 2e 1a aa 3c 37 f1 99 bd 80 ef ba 3d
       -0.060210735 0.020764437 -0.07516711 0.09127712
0003d0 e1 52 4d 3d 88 8b 61 bd e5 28 a1 3d d9 b0 1a 3d
       0.050127868 -0.055064708 0.07869128 0.03776631
0003e0 73 ca 12 bd 2c 81 d9 3d 7a 9b f4 bd ea 1d dd bd
       -0.035837602 0.10620341 -0.11943717 -0.10796721
0003f0 4e f2 0f be 37 ab a3 3d 55 9e 2d ba b7 63 8e 3c
       -0.14057276 0.07991641 -0.00066230196 0.017381532

net.2.freq_scale.weight f4 [256, 128]
000000 4b 5d 90 bd d2 15 04 bc e6 75 0f 3d 2a 97 a0 bd
       -0.07049044 -0.008061843 0.035024546 -0.07841332
000010 56 ef 7a bd 9f 15 87 3d 4b a5 d9 3d af d8 5f 3d
       -0.061263405 0.06595921 0.1062723 0.054650005
000020 15 44 f6 bc 52 99 36 3d b2 fb d8 bc 96 19 b7 bd
       -0.03006176 0.04457981 -0.026487205 -0.08940427
000030 c4 f5 1e 3d 16 2e 2c 3d 8a f7 92 3c 3f 84 6f b8
       0.0388086 0.04203614 0.017940301 -5.7105204e-05
000040 9a 7f 10 bd e8 dd 8e bc 90 33 23 bd 83 6d 96 3d
       -0.03527794 -0.017439798 -0.039844096 0.073451065
000050 b2 f2 95 bd 67 ed b4 bd 81 7d 84 3d 4a 9a 3c bd
       -0.07321681 -0.088343434 0.064692505 -0.04604558
000060 13 1f a2 bc 92 50 46 b9 50 06 dc bc eb 80 b5 bc
       -0.019790208 -0.00018912766 -0.026858479 -0.0221562
000070 29 f3 c3 3d 14 25 89 3c f8 c2 b2 3d 76 dc 82 3d
       0.095678635 0.016741313 0.087285936 0.06389706
000080 26 79 61 bd 15 53 9c bd 06 7a c6 bd 67 9f ca bb
       -0.055047177 -0.07633034 -0.09691243 -0.006183553
000090 3e 54 dd 3d 09 c2 7c 3d b7 3f 87 3d 9d 4b 65 3d
       0.108070835 0.061708484 0.066039495 0.055980314
0000a0 8b 69 46 bd 8d 31 b4 3d 5e 88 c5 3d 83 c1 fa 3d
       -0.048440497 0.087985136 0.096451506 0.12243941
0000b0 57 8d 54 bd 34 af ab 3c fd a7 a6 3d 61 d0 72 3c
       -0.051892605 0.020957567 0.0813751 0.014820189
0000c0 3d a1 68 3d 7a 1c b2 3c 84 9b 9e 3d 29 4b 71 3d
       0.056794394 0.021742094 0.07744506 0.05890957
0000d0 37 ee a7 3d c2 04 09 bd f3 43 99 3d 4b cc f5 bc
       0.08199733 -0.033451803 0.074836634 -0.030004641
0000e0 41 7d 1b bd b2 13 7b 3d b7 0b 2b 3d 57 32 2d bd
       -0.03796125 0.06129808 0.04175922 -0.042284336
0000f0 c5 ca c7 3d 0b 62 3d 3d 00 55 ae 3d c3 66 9a 3d
       0.09755472 0.04623608 0.08512306 0.075391315
000100 c4 95 73 3d 18 71 d4 bd e0 7e 8d bc 0d 09 66 bd
       0.059469 -0.103731334 -0.017272413 -0.056160975
000110 3a 2d 4b 3d 2d f2 1b bb 0e 42 50 3d 93 7c 82 3d
       0.04960368 -0.002379547 0.050844245 0.06371417
000120 d4 f9 df 3c a5 06 3f bd dc 67 89 3c 86 1f 67 bd
       0.027340807 -0.046637196 0.016773157 -0.056426547
000130 78 4c 2c 3d 0e 1e f2 3b d4 7e 9f bd 62 59 5f bd
       0.042065114 0.0073888367 -0.077878624 -0.0545286
000140 64 61 34 bd 34 5a ec 3b 18 ec 72 bd 73 ab 86 bd
       -0.04403819 0.0072129015 -0.059307188 -0.0657567
000150 3e 23 36 3c 79 29 1a bd c1 0f c8 3c 3c d7 cc 3b
       0.011116801 -0.037637208 0.024421575 0.006251244
000160 a9 5f ed bb ab 08 9c 3c 97 4d 94 bd 9c 40 e4 3b
       -0.0072440696 0.019047102 -0.072413616 0.00696571
000170 f2 57 25 3d 29 ca b9 3d ef 74 58 bc 4e c7 4b 3d
       0.040367074 0.09071762 -0.013211473 0.04975062
000180 f4 a4 2e bc 60 af a0 3d b4 cf 63 bd 3e a7 39 3d
       -0.010659445 0.0784595 -0.055618003 0.04532551
000190 26 67 bb 3d aa 4f 39 3c 83 ad 72 3d a2 6f 8a 3a
       0.091505334 0.011310497 0.059247505 0.0010561834
0001a0 79 49 1a bd 74 b9 d2 3d 8f 3f d7 b8 24 30 17 3d
       -0.037667725 0.102892786 -0.000102638376 0.036911145
0001b0 c8 41 fb bb c2 aa dd bc 83 a0 22 bd b1 89 af 3d
       -0.007667754 -0.027058963 -0.039703857 0.085711844
0001c0 46 b7 38 bd f1 1b 54 bc 1f c3 15 bd d4 3f 55 bd
       -0.04509666 -0.012946115 -0.036563035 -0.052062824
0001d0 e5 8a 40 bd a5 e4 12 bd fd e8 c5 3d a8 67 f2 bc
       -0.04700746 -0.035862584 0.096635796 -0.029590443
0001e0 7b 7c 8e 3d 4b 1a 9f bd 8a 62 b8 3c 6c 58 8f 3d
       0.069573365 -0.07768687 0.022507925 0.06999287
0001f0 90 72 49 bd e6 e5 43 3d f7 f3 8a bb 9f 73 bb 3d
       -0.04918152 0.04782667 -0.0042405087 0.09152912
000200 e3 37 0e 3c 57 63 8f bd 1f 9c 8f bd 85 d7 b5 bd
       0.008680317 -0.070013694 -0.070121996 -0.08878998
000210 b9 24 cd bd a3 f2 5f bd c1 2d f8 bd 28 48 db bd
       -0.1001677 -0.054674756 -0.12118102 -0.10707122
000220 f4 10 08 be 66 91 0d bd 18 92 b7 bd 7a 7e 4c 3d
       -0.13287717 -0.03456249 -0.08963412 0.049925305
000230 d0 ec 49 bc 69 d7 2a bd f6 25 4f bd 1a 35 fd bc
       -0.012324527 -0.041709337 -0.05057331 -0.03090911
000240 c7 8c c3 bc d3 c5 be bd ac f3 65 bc 90 f5 99 bd
       -0.023870839 -0.09315076 -0.014035147 -0.075175405
000250 26 5a 85 bc b8 cf cf bd b3 5f 5f 3c 22 dd 44 bd
       -0.016278338 -0.10147041 0.013633656 -0.04806245
000260 23 e6 d7 bd 74 f5 cb bd e5 09 2c bd 26 2d 8f 3c
       -0.10541942 -0.09958926 -0.042001624 0.017477583
000270 ae f0 2f 3c 76 c0 30 bc 54 92 02 be 84 15 21 bd
       0.010738535 -0.010788074 -0.12751132 -0.03932716
000280 b0 a6 d0 bd 58 be 0f 3d 27 7e aa bd d2 ad 11 3d
       -0.10188043 0.035093635 -0.08324843 0.03556616
000290 fb 30 96 3d dd 02 df bc 79 79 a5 3c 5d 58 1a 3d
       0.07333561 -0.027223045 0.020199524 0.037681926
0002a0 a3 73 1b 3c 7d de e5 3c 86 63 e8 bd d8 fb 2d 3c
       0.009488019 0.028060192 -0.113471076 0.010619126
0002b0 da 44 26 3c 85 93 dd bd 84 6d 19 3c a5 41 c7 3c
       0.010148251 -0.10819153 0.0093644895 0.024323294
0002c0 c6 95 72 3d 37 4d b0 bd c1 72 a3 bd a4 07 91 bd
       0.059224866 -0.086084776 -0.07980872 -0.070815355
0002d0 10 d5 bf bc d4 f0 1f 3d a6 dd bb bd e9 b3 8d bc
       -0.023417026 0.03904803 -0.091731355 -0.017297702
0002e0 7d 97 62 bd d8 6d 23 bd 4e c1 90 bd f7 03 00 be
       -0.05532025 -0.039899677 -0.0706812 -0.12501512
0002f0 91 3c bf bd be 03 5b 3c 49 b0 e1 bd e7 a2 50 3b
       -0.09337724 0.013367591 -0.11019952 0.0031835379
000300 e4 ca 0c bd 57 ce db bd c3 0e 39 3d 71 0b 8e 3c
       -0.03437318 -0.107327156 0.045180093 0.01733944
000310 6a cd 8c bc c2 18 c0 bd 40 3a d8 bd 2d 0e 27 3a
       -0.017187793 -0.09379722 -0.10557985 0.0006372657
000320 69 68 04 3d 04 c7 e7 bd bf e6 70 bd 29 66 9c bd
       0.032326136 -0.11317256 -0.058813807 -0.07636673
000330 1c 64 f3 bc 60 40 56 3c e7 cc e1 bd 70 a2 9e bd
       -0.029710822 0.013076872 -0.1102541 -0.07745826
000340 e5 16 26 3c b9 5e 33 be f4 31 91 bd 96 f4 13 bd
       0.010137294 -0.17516603 -0.07089606 -0.036121927
000350 77 80 92 bc e1 d1 e2 bd 20 74 00 3d 67 e2 0d be
       -0.017883522 -0.110751875 0.031360745 -0.13855897
000360 bc a5 e5 3b 78 da 7a bd e9 9d aa ba 02 f1 0b bc
       0.0070082825 -0.061243504 -0.0013017032 -0.008541347
000370 e5 90 72 bd 17 ea 83 bd d1 ab 8d bd e4 00 90 bd
       -0.059220213 -0.064411335 -0.06917537 -0.0703142
000380 a5 6e 87 bd 3c ac b4 3c 5e 4f f6 bc 4f c4 c2 bc
       -0.06612901 0.022054784 -0.030067142 -0.023775248
000390 a3 21 80 3d e2 0f 0f 3d e1 ab a4 bd 41 c3 38 bd
       0.06256416 0.034927256 -0.08040596 -0.045108084
0003a0 a9 73 96 bc dd d5 71 bd 59 bf a1 bc da bf ec bd
       -0.018365698 -0.059041847 -0.019744562 -0.1156003
0003b0 f6 53 93 bd 5b a4 4d 3d 88 fb 6f bc ab a0 b2 bd
       -0.07193749 0.05020557 -0.014647372 -0.08722051
0003c0 3a e6 ea bd 98 01 ac bd 3f 53 27 bd 12 4f 38 bd
       -0.114696935 -0.083987415 -0.040850874 -0.044997282
0003d0 c1 71 49 bb 73 4c ec 3c 25 06 71 3d 74 ba c2 bd
       -0.0030737969 0.028845048 0.05884375 -0.09508219
0003e0 fa 97 80 bb 86 a2 3f 3d b4 52 0c bd fb ad c0 bc
       -0.003924367 0.046785854 -0.03425856 -0.02352046
0003f0 e9 64 6c bb 78 55 50 bd 3c ad 97 3c c8 03 dd bd
       -0.003607089 -0.05086276 0.018515222 -0.10791737

net.2.freq_scale.bias f4 [256]
000000 e9 be 53 3d b0 5f 82 bd d8 ad c3 3d a2 6b 81 bc
       0.051695738 -0.06365907 0.095546424 -0.015798394
000010 b1 ac bc 3b 95 ba bf 3d 63 35 f4 3d 19 77 f3 bc
       0.005757891 0.093617596 0.11924245 -0.029719876
000020 e9 cc 06 3d 48 f4 67 3c 7a 74 32 39 6e 84 e2 3d
       0.03291026 0.014157362 0.00017018794 0.11060415
000030 d0 62 28 3d 59 69 88 3d 29 4d b5 3b 3e ac 26 3d
       0.04110986 0.066607185 0.00553288 0.040691607
000040 0f c5 ff 3c 85 86 15 bd 37 2a 47 bd fb 60 2f bd
       0.031221895 -0.03650524 -0.048624244 -0.042817097
000050 bc 09 48 bd 3d 39 a4 3d a0 36 90 3d 3a 63 9c bd
       -0.04883741 0.0801873 0.07041669 -0.076361135
000060 3b e5 f3 3c 86 d7 62 bd 81 2a 13 bd 56 d3 14 b9
       0.029772392 -0.05538132 -0.035929207 -0.00014193109
000070 58 42 c0 3c 5f 80 47 3d 8c 85 c4 3d 5c 2e f9 bc
       0.023469135 0.04870641 0.095957845 -0.030417614
000080 d1 b8 12 3d c2 40 91 3d 0e e4 76 3d 19 31 d9 bd
       0.035820786 0.0709243 0.060276084 -0.10605068
000090 eb 03 5f 3c 90 bb 2b bd f0 e8 9c bc 50 13 4e 3d
       0.013611774 -0.04192692 -0.019154042 0.050311387
0000a0 c6 42 1b 3d d5 78 b4 bd 71 12 0e 3d eb d7 de bc
       0.037905477 -0.088121094 0.034685556 -0.027202567
0000b0 63 ba e0 bd 93 21 74 bd 1b 83 b5 bb 1c e8 ad bd
       -0.109730504 -0.05960233 -0.0055393106 -0.08491537
0000c0 20 9f 0b be fb b1 a2 ba d1 bf c1 3a 25 79 e8 3d
       -0.1363492 -0.0012412661 0.0014781897 0.113512315
0000d0 b5 d6 43 39 09 53 66 bd d5 c7 01 bd d6 93 4f 3d
       0.00018676634 -0.056231532 -0.031684715 0.050678097
0000e0 6b e1 d4 bc 9c 7e b7 3d b8 d7 f4 3d 69 db a6 3b
       -0.025986394 0.08959696 0.119552076 0.0050920737
0000f0 8f b0 0b 3c 44 8d 4d 3d 74 c8 27 bd dc 58 97 bd
       0.008525982 0.05018355 -0.04096265 -0.073899955
000100 48 aa 5f bd c4 29 26 3d 60 08 46 3d 0a 23 d3 bc
       -0.054605752 0.040567175 0.04834783 -0.025773544
000110 f2 5e ba 3d 43 ce 4b bd 85 29 72 bc f7 61 a6 bc
       0.09100141 -0.049757253 -0.014780407 -0.020310385
000120 a5 2f 97 3d 45 07 a2 bc 46 27 ba bb 7d a2 14 3d
       0.07382134 -0.019778857 -0.0056809513 0.036287773
000130 ff 06 0e bc 30 77 bf bd 32 99 29 3c 1a 18 47 bd
       -0.00866866 -0.09348905 0.010351466 -0.04860697
000140 6b f5 68 bd 2d 0d 90 bd 37 5e 73 3a f8 4d 41 bd
       -0.056874674 -0.07033763 0.00092837535 -0.047193497
000150 86 aa 44 bd ba ce 1b 3d 4a 0a fa 3c 6c 12 9c bd
       -0.048014186 0.038038947 0.030522484 -0.07620701
000160 55 49 8c bc fe 2f bb 3c 4e 38 55 bd 2e c6 d2 bc
       -0.017124811 0.022850033 -0.05205565 -0.025729265
000170 91 2d 94 bc 4f 60 ba bc 13 f1 56 bd 3b a6 0c 3e
       -0.018088134 -0.022751002 -0.052476 0.13735287
000180 6b 4b 1c bd f4 4f ad 3b b5 2c 4a 3d b9 b2 c9 bd
       -0.03815786 0.005289072 0.049359042 -0.09848542
000190 f6 8d 04 bd 06 90 6e bd 88 e0 7f bd a3 81 5c 3d
       -0.032361947 -0.05824282 -0.06246999 0.05383457
0001a0 ef 4b 14 3d bc 18 c8 3d 9e 44 98 bc fd db 00 3c
       0.03620523 0.09770343 -0.018587407 0.007864949
0001b0 10 f6 e7 3d ae 7e c3 3d 4c ca 17 3d f4 6c d0 3d
       0.113262296 0.095456466 0.03705816 0.10177031
0001c0 51 8c f5 bc 23 93 b0 3d 18 78 a6 3d 94 82 ff 3c
       -0.029974135 0.08621814 0.08128375 0.031190194
0001d0 46 f4 31 3c 06 38 90 3d aa ee 05 bd 5d b5 a0 3d
       0.010861462 0.070419356 -0.03269831 0.07847092
0001e0 32 a6 4d 3d ee a8 ec bd 90 47 ed bd 01 c1 25 3d
       0.050207324 -0.11555658 -0.11585915 0.040467266
0001f0 41 3a e4 bb f1 bd 91 bd 97 96 8f 3d ef 89 31 3d
       -0.006964952 -0.071163066 0.070111446 0.043344434
000200 93 1a cb bd 75 7c ad ba fe ac 7f bc e8 d6 8f bd
       -0.09917178 -0.0013235944 -0.015605209 -0.07023412
000210 55 47 3b bc 65 5c 48 3d 65 da 5b bd d4 d7 b0 bd
       -0.011430581 0.04891624 -0.053675074 -0.08634916
000220 57 22 8a bc fa de 5a 3d 94 3f f5 3d ee 03 be 3d
       -0.016862078 0.053435303 0.11975017 0.09278093
000230 2d b7 ab bd 86 10 6c 3d 56 9a 3a bc 53 c2 07 3d
       -0.083845474 0.057632945 -0.011389336 0.033144306
000240 bd e8 ac 3c 45 75 5c 3d 6e aa c0 3b d2 ae 44 bb
       0.021107072 0.053822774 0.005879692 -0.0030011428
000250 3e d0 e4 3d 97 e2 da 3d d3 8d 1c bd a6 58 25 3d
       0.111725315 0.1068775 -0.03822119 0.040367745
000260 39 3b d7 bc 87 bc e7 3d 7c 3a ae bd 70 fd cc bb
       -0.026273357 0.113152556 -0.08507249 -0.006255798
000270 b0 4d 3a 3d 98 21 76 3d 8d b7 b5 bd ff 0d 80 3d
       0.045484245 0.06009063 -0.088729 0.062526695
000280 8f 1b 51 3d c3 5e e6 3c db 41 71 3d 13 1b dd 3c
       0.051051673 0.028121358 0.058900695 0.026990449
000290 72 32 f4 3c 1b db 85 bc bb 9c f0 3c 0a 14 67 3c
       0.02980921 -0.01633983 0.02937161 0.014103899
0002a0 1e e5 01 bc 5a 29 fb 3c a6 62 c1 bc 49 2c c8 3d
       -0.007928161 0.030659366 -0.02360661 0.09774072
0002b0 7b cb 92 bd 6e f8 88 3d a6 82 85 3d 49 11 64 bd
       -0.07167717 0.06688009 0.0651906 -0.055680547
0002c0 ac 78 9e 3c 54 dc 92 3d 5e 70 d3 bd 7e 1d a7 3c
       0.01934465 0.071709305 -0.10324167 0.020399805
0002d0 a4 53 dd 3c 74 46 27 3d 6f 8b e9 3d 07 40 85 3d
       0.027017422 0.040838674 0.11403548 0.06506353
0002e0 27 73 00 bd 2b d4 8c 3d 86 a7 a3 3b f9 00 9a bd
       -0.031359818 0.06876405 0.0049943356 -0.07519717
0002f0 c3 6b 25 bc 19 f9 c7 3d 6c 4a 08 3d 69 59 68 3d
       -0.010096493 0.097643085 0.0332741 0.056725893
000300 4b 5c d9 bc 11 94 49 3d c4 25 e1 3d 1e 95 5b bc
       -0.026533267 0.049213473 0.10993531 -0.0134022515
000310 8c 66 b7 3d 6a 79 34 bd aa 07 c7 3d e6 46 f5 bd
       0.08955106 -0.044061102 0.09718259 -0.119764134
000320 68 d2 d5 bc 6b fa 61 3c 4c 6e ce bc 8c 08 ab bd
       -0.026101306 0.013792614 -0.025199078 -0.083512396
000330 a9 b2 ce bd 54 0a d4 bd 5e 5c bc 3d a9 0b a4 bd
       -0.100926705 -0.103535324 0.09197305 -0.080100365
000340 c3 ee 99 bd d4 c0 de bd 69 6d 42 3c 4c ce 8a 3d
       -0.07516243 -0.10876623 0.011866906 0.06777629
000350 48 5e ef 3c 7c 97 c0 3b e8 92 38 3d 60 33 4d bd
       0.029219761 0.0058774333 0.045061976 -0.050097823
000360 14 99 9b bd e3 22 35 3d c2 d3 11 3d ed aa e5 3c
       -0.07597557 0.044222724 0.03560234 0.028035605
000370 7a fa a7 3a ef b3 12 bd c7 76 00 3d 23 e6 93 3d
       0.0012815737 -0.03581613 0.031363275 0.072216295
000380 dd 39 53 bc 05 7e 1e bd 73 e6 53 3d 6d bd 8e 3b
       -0.012892214 -0.0386944 0.051733445 0.0043560774
000390 ce f4 52 3d c2 46 44 bd 90 41 c6 3a 48 45 22 3d
       0.051502995 -0.047919042 0.001512574 0.039616853
0003a0 b3 29 58 bd 63 4d 16 bd d6 93 af bd 86 3d d0 3c
       -0.052774142 -0.036694895 -0.08573119 0.025419962
0003b0 c4 6b 95 bd f2 56 f3 3a 24 a2 9e 3d e5 1b f7 bd
       -0.07295945 0.001856534 0.077457696 -0.12065867
0003c0 5c 22 63 3c 6f f6 bc 3d ac 08 42 3d 7b ff 25 3d
       0.013863172 0.09226691 0.04737155 0.04052685
0003d0 a5 c9 83 3c 93 48 c8 bd 33 f5 60 3b c9 a3 ec 3c
       0.016087363 -0.097794674 0.0034325838 0.028886693
0003e0 63 50 01 be 87 85 6f bd f2 f4 11 bc 1e 3b 16 3a
       -0.12628321 -0.05847695 -0.008908497 0.0005730855
0003f0 e0 af c4 3c 4a ba 0b bd 82 fd fd 3c 8a 8c 74 3c
       0.024009645 -0.034113206 0.031004671 0.014926085

net.3.weight f4 [1, 128]
000000 9d 86 04 bd db af 12 3d 03 4a f7 3c b6 47 24 bd
       -0.03235494 0.03581224 0.030186659 -0.04010745
000010 a9 09 64 3b f4 90 83 bc 9c d8 f4 bb 69 67 3a 3b
       0.0034795797 -0.01606033 -0.007472111 0.0028442985
000020 a4 5c 88 bc 25 a3 d2 bc 6f 4c 21 bc ed 6c 0a 3c
       -0.016645737 -0.025712559 -0.009844883 0.0084488215
000030 b3 2a 1f 3a 0b eb 21 b8 8b c4 55 3c 62 82 10 bc
       0.00060717313 -3.8604292e-05 0.013047348 -0.008820148
000040 75 f1 07 3d b1 4f 0b bd 0c 16 1c 3d e9 20 3a bc
       0.033189256 -0.034011547 0.038106963 -0.011360385
000050 a4 4b 95 bc eb d9 69 bb c8 91 2e bc 29 ac 86 bc
       -0.018224545 -0.0035682868 -0.010654874 -0.016439514
000060 5c f6 af 3a d6 7d c9 3c 43 b7 e7 bc d1 5f a3 bc
       0.0013424861 0.024596136 -0.028285628 -0.01994315
000070 81 6a 69 3c 09 45 9a bb ec 12 66 3d c4 06 a1 3b
       0.014246584 -0.0047079367 0.05617039 0.0049141366
000080 25 93 13 3c 0e 2c 2e bc 8c 76 ed 3c c5 04 39 bc
       0.00900725 -0.010630621 0.028987192 -0.011292641
000090 52 20 e9 3b f1 a1 54 ba ee e7 bf 3b 74 25 05 3b
       0.0071144486 -0.00081112894 0.0058565056 0.0020316513
0000a0 e9 17 1f bd ff 6b 83 bb b7 f4 ee 3b 5e 8e c7 3a
       -0.038841162 -0.004010677 0.007292356 0.0015224924
0000b0 cd 01 49 3c 15 85 39 3d ec 24 e3 3c 61 2c ce 3b
       0.012268496 0.045292933 0.027727567 0.0062919115
0000c0 ad 70 78 bc 80 0c de bb c4 40 f3 bb 73 22 fb bc
       -0.015163583 -0.0067763925 -0.007423492 -0.030656075
0000d0 53 41 a0 ba df 61 34 bb 28 fd d9 3c ae 55 cd 3b
       -0.0012226499 -0.0027524156 0.026609972 0.0062663173
0000e0 2b 7c 9d 3c 13 4f 47 3c a4 f1 c7 bc 89 e7 53 bc
       0.019224247 0.012164849 -0.024407215 -0.01293362
0000f0 13 5a 68 bb f3 e3 02 3d 6b 3d 1f bd d9 e8 ba bc
       -0.003545408 0.03195567 -0.038876932 -0.022816109
000100 8a e0 93 bb 88 45 ae 38 97 9c 55 3c 3e 0c 87 3c
       -0.004512851 8.309918e-05 0.013037822 0.01648533
000110 37 70 9a 3c 65 9b ff bb c5 c4 f9 bb 59 2c db 3b
       0.018852336 -0.007800507 -0.0076223337 0.0066886363
000120 e8 6a c9 bb 98 dc 36 3d 72 7c 9b bb 76 78 8d 3b
       -0.0061467774 0.04464397 -0.0047450596 0.0043173386
000130 38 18 8f 3b 35 ef 40 3b 06 6a 3c 3c 3f 00 b1 bc
       0.004366901 0.0029439454 0.011499887 -0.021606563
000140 94 26 57 3d 4d c3 05 3c 46 76 88 bc 27 27 78 bc
       0.052527025 0.008164239 -0.01665796 -0.015146053
000150 75 4b 90 3c 2c b3 0b 3c 66 ac b9 3c 26 ab d7 3b
       0.017614106 0.008526605 0.022665214 0.006581682
000160 40 30 00 bc bc 8b f1 3b bc cd 6c bb 1f a2 5f bc
       -0.007824004 0.007371394 -0.003613337 -0.0136494925
000170 17 15 9a 3a a0 49 88 bb c4 b1 16 3c f6 ec f7 ba
       0.0011755553 -0.0041591674 0.009197656 -0.0018915224
000180 e2 e8 6a 3b 15 17 27 3b d6 70 9b 3b fb 5e 04 3c
       0.0035844375 0.0025495936 0.0047436757 0.008079286
000190 9a be e0 3c 88 2f 41 3b 20 c8 6f bb fa 19 08 bc
       0.027434636 0.0029477794 -0.003658779 -0.008306975
0001a0 03 f4 08 bc bf a5 12 3b db 47 0d bd 63 79 28 3b
       -0.008358958 0.0022376624 -0.034492355 0.0025707118
0001b0 ce c3 44 3b a4 9e d7 bc 3b ba 56 bb cc 92 95 3d
       0.0030023935 -0.026320763 -0.003276481 0.0730339
0001c0 a2 c0 d4 3c df fe e0 3b 27 15 1b ba 89 41 dd 3b
       0.02597076 0.0068663205 -0.00059159327 0.006752197
0001d0 fc fe f1 3b fe d1 7b bb f3 76 12 bd 2e 43 15 bc
       0.007385133 -0.0038424726 -0.03575797 -0.009110255
0001e0 37 ce 0b bd 15 a3 26 bc 93 4d f5 3c 57 94 2e 3b
       -0.03413221 -0.010170718 0.029944217 0.002663871
0001f0 8b 30 d4 3c 83 c1 65 3d b6 b1 a7 bb 15 eb a3 3c
       0.025902053 0.05609275 -0.0051176203 0.020009557
