path/to/dir/cond_wire/2026_01_27__14_50_21-no_wandb_id/2026_01_27__14_50_21-no_wandb_id-model.pt (torch, 273908 bytes, 7 tensors)

net.0.freq_scale.weight f4 [256, 4]
0	0x3ecfe5d7	0.4060504
1	0x3e6a9035	0.22906573
2	0x3e5c2004	0.21496588
3	0x3d2b8429	0.041874085
4	0x3df882aa	0.12134297
5	0x3ec8861c	0.39164817
6	0x3e3affbf	0.18261622
7	0xbefb4d62	-0.49082476
8	0xbec7d11f	-0.39026734
9	0x39b73388	0.00034942874
10	0x3e9d6518	0.3074119
11	0x3e7a045c	0.24415725
12	0x3ed055a8	0.4069035
13	0x3e50dcc3	0.20396714
14	0xbeb9a117	-0.36255714
15	0xbe3e681a	-0.18594399
16	0x3e936cf5	0.28794065
17	0x3d2c3427	0.042041924
18	0x3e0bb24f	0.13642238
19	0x3ded97f3	0.11601248
20	0xbe2388a1	-0.15970089
21	0xbd0dc386	-0.034610294
22	0x3e6479f8	0.22312152
23	0xbf05ce3e	-0.52267826
24	0x3eac81bf	0.33692738
25	0x3b1ca08f	0.0023899411
26	0x3ebb984c	0.3663963
27	0xbe2a866d	-0.16652842
28	0xbd87e4e3	-0.066354536
29	0x3dfe8c4e	0.12429105
30	0xbe6c0c1c	-0.23051494
31	0x3e901bda	0.2814625
32	0xbe7b89c1	-0.24564268
33	0xbcdc7ed0	-0.026915938
34	0xbe8e7448	-0.2782309
35	0xbeabc13b	-0.3354586
36	0x3ed0c2f9	0.40773752
37	0xbf081c6b	-0.5316836
38	0x3ea91838	0.3302629
39	0x3eae1785	0.3400232
40	0x3ea9b51c	0.33145988
41	0x3e6cd714	0.23128921
42	0x3d635c2e	0.05550783
43	0x3e95fb1b	0.2929314
44	0xbe42b180	-0.19013023
45	0xbe4a5906	-0.19760522
46	0x3e8d9845	0.27655235
47	0x3ed74983	0.42048272
48	0xbe7dc6fd	-0.2478294
49	0x3e2bcda4	0.16777664
50	0xbe040105	-0.12891014
51	0xbecd4457	-0.40091202
52	0x3dbdedbc	0.0927386
53	0xbea3159c	-0.31852424
54	0x3e80c3c9	0.25149372
55	0x3ea3f1e8	0.32020497
56	0x3e5fedf8	0.21868122
57	0xbeaf93cc	-0.34292448
58	0x3ed31e14	0.41233885
59	0xbe108a16	-0.14115176
60	0xbecd2bc4	-0.40072453
61	0xbee9e788	-0.45684457
62	0x3dde7000	0.10861206
63	0x3d91fde8	0.07128507
64	0xbe03625b	-0.12830488
65	0x3d31f660	0.043447852
66	0xbe08f2c1	-0.13373853
67	0x3df3325d	0.118748404
68	0xbcb3f4a4	-0.02196724
69	0x3e5e9768	0.21737444
70	0xbedd794d	-0.43256608
71	0x3f019138	0.5061221
72	0xbe7c55dc	-0.24642128
73	0x3eb75aa4	0.3581134
74	0xbecc17a2	-0.3986178
75	0xbebddfa1	-0.37084678
76	0xbeda983b	-0.42694268
77	0x3e9d634a	0.30739814
78	0x3df62791	0.120192654
79	0x3d344a35	0.04401608
80	0xbe8b45d4	-0.27201712
81	0xbdd479c6	-0.10374789
82	0x3e56b79d	0.2096848
83	0x3e835df5	0.2565762
84	0x3ee5b9b9	0.44868258
85	0xbee17f9f	-0.4404268
86	0x3e0f9a60	0.14023733
87	0xbe57b77d	-0.21066089
88	0xbee31aa2	-0.44356257
89	0xbdda0f5a	-0.10647459
90	0x3d5f04ed	0.054448057
91	0xbeea7e48	-0.4579947
92	0xbe2cad5b	-0.16863005
93	0x3f03ed45	0.5153392
94	0xbe822929	-0.25422028
95	0xbdd91b8d	-0.10600958
96	0xbe3303b9	-0.17481889
97	0xbef3b950	-0.4760232
98	0xbdf27f2f	-0.118406646
99	0x3eaabe51	0.33348325
100	0x3debe349	0.115179606
101	0xbf038b10	-0.5138407
102	0xbdbd24e8	-0.09235555
103	0xbeac3c96	-0.33639973
104	0x3d4c61e3	0.04989804
105	0xbe6e81fd	-0.23291774
106	0x3ea7019d	0.32618418
107	0xbeddb6fe	-0.43303674
108	0x3e4ea196	0.20178828
109	0x3eb9253d	0.36161223
110	0xbe5b0024	-0.21386772
111	0x3eb90bfe	0.36141962
112	0xbd8f9e1e	-0.0701258
113	0x3e2f6f7a	0.17132369
114	0x3ea0e897	0.31427452
115	0xbe81c8bb	-0.25348458
116	0xbaf46647	-0.0018646204
117	0xbeb5c6c8	-0.3550322
118	0x3e7f39f5	0.24924453
119	0x3e812d40	0.25229836
120	0x3ea79ea8	0.32738233
121	0xbde0410c	-0.10949907
122	0x3e10fd94	0.14159232
123	0xbea92fb6	-0.33044213
124	0xbefdd7e2	-0.49578768
125	0xbe3408ae	-0.17581436
126	0xbec892fc	-0.3917464
127	0x3ea805d6	0.32816952
128	0xbeebd380	-0.460598
129	0x3e602484	0.2188893
130	0x3e176e73	0.14788227
131	0x3e477512	0.19478253
132	0x3e8d28f7	0.27570316
133	0xbda717b8	-0.08158821
134	0xbdc7542d	-0.09732852
135	0x3d303dc8	0.04302767
136	0xbed09ab7	-0.40743038
137	0xbec54da8	-0.3853581
138	0x3cb181bc	0.021668307
139	0xbeeef865	-0.46673885
140	0xbe94c207	-0.2905428
141	0x3dff2729	0.12458641
142	0x3dee6b87	0.11641603
143	0x3e016d9e	0.12639472
144	0xbe626acf	-0.22111057
145	0x3eb0d1f6	0.34535187
146	0x3e10b6cd	0.14132233
147	0x3e9eaf02	0.30992895
148	0xbea27e20	-0.3173685
149	0x3e7727c2	0.2413626
150	0x3e0aea73	0.13565998
151	0x3ebb19bd	0.36543074
152	0x3e8434b7	0.25821468
153	0x3cd13bf2	0.02554128
154	0x3e07825b	0.1323332
155	0x3ee4ef43	0.44713792
156	0xbdb1d180	-0.08682537
157	0x3eba50a1	0.3638964
158	0xbdc6b1b5	-0.09701864
159	0x3e344268	0.17603457
160	0x3ecbaf94	0.39782393
161	0x3c5c7082	0.013454558
162	0xbea606e1	-0.32427123
163	0xbce1c05d	-0.027557546
164	0x3e1e31ec	0.15448731
165	0xbe3f4ed9	-0.18682422
166	0xbe584576	-0.21120247
167	0xbe8d94e3	-0.27652654
168	0x3e1df0c0	0.1542387
169	0x3eae5e66	0.34056395
170	0x3dd1eaeb	0.10249885
171	0x3edbdd0a	0.42942077
172	0xbd2e9a67	-0.04262772
173	0x3ea63ceb	0.32468352
174	0xbec9829b	-0.39357457
175	0x3cb94f4b	0.022620818
176	0xbe29ad7a	-0.16570082
177	0xbdcbfe3d	-0.099606015
178	0xbe8c7dcc	-0.27439725
179	0x3eb2e99c	0.34943855
180	0xbe66a8b3	-0.22525291
181	0x3eb9ede5	0.36314312
182	0x3e6a4293	0.22876959
183	0x3dd592fe	0.10428427
184	0xbe3655c4	-0.17806154
185	0x3dd484ba	0.10376878
186	0xbe88ed2e	-0.26743454
187	0xbdd4bc91	-0.10387529
188	0x3dec374f	0.11533987
189	0xbe3a2c85	-0.18181045
190	0xbe67d6f3	-0.2264059
191	0x3eabd02c	0.3355726
192	0xbeaa05fc	-0.3320769
193	0x3ed0257c	0.40653598
194	0x3daf67e9	0.08564741
195	0x3eaef8eb	0.34174284
196	0xbe65680f	-0.22402976
197	0xbd96abc3	-0.0735698
198	0xbeef25f5	-0.46708646
199	0xbe068a07	-0.13138591
200	0x3ec9b1c1	0.39393428
201	0xbd18580b	-0.03719334
202	0x3db44564	0.08802298
203	0xbef47bd2	-0.47750717
204	0xbe91d33f	-0.2848148
205	0x3eccecd7	0.40024444
206	0xbe7e081d	-0.24807782
207	0xbe94a578	-0.29032493
208	0x3ea4e800	0.32208252
209	0xbef409f4	-0.47663844
210	0xbe2b034c	-0.16700476
211	0x3ec7df45	0.3903753
212	0xbcfddeb0	-0.030989975
213	0x3cd8cf40	0.026466012
214	0xbe044668	-0.12917483
215	0x3eb3ba86	0.35103244
216	0xbe6b39f8	-0.22971332
217	0xbe7fa6b9	-0.24965943
218	0x3deeca4b	0.11659678
219	0xbea4ac8c	-0.32162893
220	0xbd0e4e28	-0.034742504
221	0xbef93b9e	-0.48678297
222	0x3efe82f6	0.4970929
223	0x3e13c7e0	0.14431715
224	0xbcdc93b3	-0.026925897
225	0x3ea7cdc9	0.3277419
226	0x3e816c5d	0.25277987
227	0xbee4f356	-0.447169
228	0xbe89d26c	-0.26918352
229	0xbed96fad	-0.42468014
230	0xbcc73e6f	-0.024321763
231	0xbe9453ad	-0.2897009
232	0x3eef7d3e	0.4677524
233	0x3e8654af	0.26236483
234	0xbe4aa8ce	-0.19790956
235	0x3ea9a6be	0.33135027
236	0xbee78c68	-0.4522431
237	0x3dba99e6	0.09111385
238	0xbed1a0ec	-0.40943086
239	0x3efa087f	0.48834607
240	0xbee6aaf9	-0.45052317
241	0x3e50698a	0.2035276
242	0x3e3baf11	0.18328501
243	0xbee4fdd7	-0.44724914
244	0xbdb81855	-0.08989016
245	0xbdc37430	-0.095436454
246	0x3e7548a8	0.23953497
247	0x3ccf0a11	0.025273355
248	0xbe19ed49	-0.15031923
249	0xbcb97e4f	-0.022643236
250	0x3e4bfb20	0.19920015
251	0xbed69528	-0.41910672
252	0xbeda4d45	-0.42637077
253	0x3e6f442f	0.23365854
254	0x3ea402f2	0.32033497
255	0x3e7a4a40	0.24442387

net.0.freq_scale.bias f4 [256]
0	0xbdfc15fc	-0.12308881
1	0xbe5125a9	-0.20424522
2	0xbda10255	-0.07861773
3	0x3ed0e627	0.40800592
4	0x3e6de572	0.23232058
5	0xbebfd05a	-0.37463647
6	0xbdeafca2	-0.11473967
7	0xbda2187e	-0.07914828
8	0xbe2ad10f	-0.16681312
9	0xbe8ec772	-0.2788654
10	0xbe5c6639	-0.2152337
11	0xbee2dfd3	-0.4431139
12	0x3f0622f5	0.5239709
13	0x3cc2cdeb	0.02377983
14	0x3eaf5507	0.34244558
15	0xbe202eb4	-0.15642816
16	0xbc702027	-0.014656103
17	0x3e0bf1be	0.13666436
18	0x3f110925	0.5665458
19	0x3daceb0a	0.08443268
20	0xbec0c29a	-0.3764847
21	0xbef639a7	-0.4809086
22	0xbc917594	-0.017756261
23	0xbe662b67	-0.22477494
24	0xbf0523af	-0.52007574
25	0x3eb24b61	0.34823135
26	0xbe3686df	-0.17824887
27	0x3dae99c5	0.08525423
28	0xbcbd9efb	-0.023147097
29	0xbea3432e	-0.31887192
30	0x3ecb6985	0.39728943
31	0x3ebc43fb	0.36770615
32	0x3d9ec714	0.07752815
33	0xbeb20485	-0.34769073
34	0x3ecb9e29	0.39769104
35	0xbec9fa18	-0.3944862
36	0xbedc8918	-0.43073344
37	0x3ed1eb05	0.40999618
38	0xbcf73a17	-0.030179067
39	0xb8032b6a	-3.1273266e-05
40	0x3e1e0bfb	0.15434258
41	0x3e74ada3	0.23894362
42	0x3ecfe228	0.4060223
43	0x3f1b3a06	0.6063541
44	0x3daad455	0.0834128
45	0xbcd6175b	-0.026134184
46	0x3f0118ca	0.5042845
47	0xbe198117	-0.1499065
48	0x3d6636c8	0.056204587
49	0x3f0082d0	0.50199604
50	0xbf04e002	-0.5190431
51	0xbec60c0e	-0.38681072
52	0xbe93ba31	-0.2885299
53	0xbec9b45b	-0.39395413
54	0xbeac9eae	-0.33714813
55	0xbd0a474a	-0.033759393
56	0xbeda77d3	-0.42669544
57	0xbea45516	-0.32096165
58	0x3ea14619	0.31498793
59	0xbcf833ac	-0.030298077
60	0x3ef582a6	0.4795124
61	0x3dd7b617	0.10532778
62	0xbddadb96	-0.10686414
63	0x3eed9c03	0.4640809
64	0x3de783de	0.113044485
65	0x3eb1acad	0.34702054
66	0xbec9351a	-0.39298326
67	0x3eedcf5f	0.46447274
68	0x3cfe7535	0.031061748
69	0x3f11eb91	0.5700007
70	0x3e5d2f7e	0.21600148
71	0xbd921c06	-0.07134251
72	0x3ea117aa	0.31463367
73	0xbe1342c1	-0.14380933
74	0xbdf11100	-0.117708206
75	0x3e994b9d	0.299405
76	0x3e90746c	0.28213823
77	0x3ea31ba4	0.31857026
78	0xbed30277	-0.41212818
79	0x3c59e183	0.013298395
80	0xbdd74d48	-0.10512787
81	0xbe215d8f	-0.15758346
82	0x3ec447e7	0.38336107
83	0xbe09276c	-0.13393945
84	0x3cf36fe8	0.029716447
85	0x3dc5377b	0.09629723
86	0xbea6bdd0	-0.3256669
87	0xbe5733a9	-0.210158
88	0xbe264265	-0.16236265
89	0x3eb1d5f7	0.34733555
90	0xbce5220e	-0.02797034
91	0xbecf6df6	-0.4051358
92	0x3db45cca	0.088067606
93	0x3ed16a87	0.40901586
94	0xbe9de3ae	-0.30837768
95	0x3e57fcf9	0.21092595
96	0xbed28002	-0.41113287
97	0x3c70c1c1	0.014694632
98	0xbf0a045c	-0.539129
99	0xbdce3347	-0.10068374
100	0xbe4ccdbd	-0.20000358
101	0x3df7e114	0.12103477
102	0x3db6015d	0.08886979
103	0xbe69793b	-0.22800152
104	0xbe921272	-0.28529698
105	0xbe2f1293	-0.17096929
106	0x3ea29c71	0.3175998
107	0x3e13482f	0.14383005
108	0x3d091113	0.03346355
109	0x3d721378	0.059100598
110	0xbe9c2c7c	-0.3050269
111	0x3f1b46f7	0.6065516
112	0xbee2de69	-0.4431031
113	0x3e6dc3af	0.23219179
114	0xbeb05624	-0.3444072
115	0xbe8ce6ab	-0.27519736
116	0xbe9714e6	-0.29508132
117	0x3de87a45	0.11351446
118	0x3dd63463	0.10459211
119	0x3e057168	0.13031542
120	0xbd5bd8b2	-0.053673454
121	0x3e74a553	0.23891191
122	0x3e9cad66	0.30601043
123	0xbef169f5	-0.4715115
124	0xb9c81d86	-0.0003816897
125	0x3ede0027	0.4335949
126	0x3e7cdcc5	0.24693592
127	0x3e02be42	0.1276789
128	0x3e99b34b	0.30019602
129	0xbd909443	-0.07059529
130	0x3e625342	0.22102073
131	0x3d7bdf52	0.06149227
132	0xbecf1062	-0.40442187
133	0x3de9dbc2	0.114188686
134	0xbce15f12	-0.027511153
135	0x3f1433cd	0.5789154
136	0xbe8ccd5b	-0.27500424
137	0x3e2cda57	0.16880165
138	0x3ec56a69	0.38557747
139	0x3eb1307c	0.34607303
140	0x3ed9c357	0.42531845
141	0x3e7d9248	0.24762833
142	0xbe974142	-0.29541975
143	0x3e38df79	0.18053998
144	0xbe82c604	-0.255417
145	0x3e3f7127	0.18695508
146	0xbe4ac36f	-0.19801114
147	0x3e93bc73	0.28854713
148	0x3dd799e8	0.10527402
149	0x3eba8ce0	0.36435604
150	0xbd66e9ae	-0.056375198
151	0xbe1aa48e	-0.15101835
152	0xbe551e1e	-0.2081227
153	0x3e931b7b	0.28731903
154	0x3e51cc05	0.20487984
155	0x3e94fc79	0.2909887
156	0xbf0e6b3f	-0.55632395
157	0xbe019248	-0.12653458
158	0xbef0257e	-0.46903604
159	0x3c123f1d	0.00892618
160	0xbd678ad9	-0.0565289
161	0xbeda16f2	-0.4259563
162	0x3e7e431f	0.24830292
163	0x3eff5fe5	0.4987785
164	0x3c178ad1	0.009249405
165	0x3dd9f1ed	0.10641847
166	0xbe75c3d7	-0.24000488
167	0x3d8a14d0	0.06742251
168	0x3e24c1a8	0.16089499
169	0x3d1ffac8	0.039057523
170	0xbeac0adb	-0.33602032
171	0xbe5ee936	-0.2176865
172	0x3ea82b1c	0.3284539
173	0x3ebe5bd8	0.37179446
174	0x3ed2fc01	0.4120789
175	0x3ecaab67	0.39583895
176	0x3ed3573c	0.41277492
177	0x3ed7c981	0.42145923
178	0x3ec638fb	0.38715348
179	0x3df88e9f	0.12136578
180	0xbe62d833	-0.22152786
181	0x3e85e38e	0.26150173
182	0x3ea91324	0.33022416
183	0x3ee4e4c8	0.44705796
184	0xbe840ff2	-0.25793415
185	0xbebe2573	-0.37137946
186	0xbd58db46	-0.05294349
187	0xbe2a19dd	-0.16611429
188	0xbe91c503	-0.2847062
189	0x3d38592f	0.045006927
190	0xbd930e3a	-0.07180448
191	0xbe2ad287	-0.16681872
192	0x3d830f5f	0.06399416
193	0x3edd6a4f	0.4324517
194	0xbeaf2cb6	-0.342138
195	0x3e9b7c5c	0.30368316
196	0x3eceadc7	0.40366957
197	0x3ec572d0	0.38564157
198	0x3ee4f5af	0.44718692
199	0xbc802ae5	-0.015645454
200	0xbe002793	-0.12515096
201	0x3e2ccbfa	0.16874686
202	0xbebba6d9	-0.36650732
203	0xbec79256	-0.38978833
204	0x3ee278d5	0.44232813
205	0x3efa9bf0	0.48947096
206	0x3e6d5cb8	0.231799
207	0x3efa7bc2	0.48922545
208	0x3db24292	0.087041035
209	0x3dff9772	0.12480058
210	0xbe9331e1	-0.28748992
211	0x3e70d3b4	0.23518258
212	0xbeb3a9c3	-0.35090455
213	0xbf1f7302	-0.62284863
214	0x3ec4646d	0.3835787
215	0x3eaeeb63	0.3416396
216	0x3e08b1c8	0.13349068
217	0x3e3b9c6d	0.1832139
218	0x3e586c89	0.21135153
219	0xbe3e5d4d	-0.18590279
220	0x3f02de08	0.5112004
221	0x3e1bbf4f	0.15209697
222	0x3c9c8aa9	0.019109087
223	0x3eede5f5	0.46464506
224	0xbee2c087	-0.44287512
225	0xbe18a29e	-0.14905784
226	0x3ede8959	0.43464163
227	0x3e7d3a24	0.2472921
228	0x3eab798c	0.3349117
229	0x3d9bb0bb	0.07602068
230	0xbeb5a54e	-0.3547768
231	0x3e28d54e	0.1648762
232	0xbd8b6c1e	-0.06807731
233	0xbeaf6e24	-0.34263718
234	0xbec2316d	-0.37928334
235	0x3e37c82c	0.17947453
236	0x3deaaa26	0.114582345
237	0x3edf4213	0.43605098
238	0x3eaaf47b	0.3338965
239	0xbd366b18	-0.044535726
240	0xbc277254	-0.010220129
241	0x3cb5b8a7	0.022182776
242	0xbecbc9b0	-0.39802313
243	0x3ecfd7c5	0.40594307
244	0x3e74a590	0.23891282
245	0x3efbf958	0.49213672
246	0x3e897a5b	0.26851162
247	0x3e602bf5	0.21891768
248	0xbdc0eef9	-0.094205804
249	0xbea212c0	-0.3165493
250	0xbeced8ba	-0.40399724
251	0x3e47e366	0.1952034
252	0x3da376c3	0.079816364
253	0xbe09da96	-0.1346229
254	0x3e938486	0.28812045
255	0xbea71217	-0.3263099

net.1.freq_scale.weight f4 [256, 128]
0	0xbd22d684	-0.03975536
1	0x3d397de6	0.04528608
2	0x3ceb0607	0.028689397
3	0x3c6a0f38	0.014285855
4	0x3dd52021	0.10406519
5	0xbdd96391	-0.10614694
6	0x3e12bb30	0.14329219
7	0x3d0182f0	0.031619012
8	0xbc7a918f	-0.015293493
9	0x3dee5b94	0.11638561
10	0xbd49dad0	-0.04928094
11	0x3c4f7a1c	0.0126633905
12	0x3d8aa7ed	0.067703106
13	0xbdd66cb5	-0.10469953
14	0x3dc67cac	0.09691748
15	0x3e6223f4	0.22084028
16	0xbd81cbe4	-0.06337717
17	0xbd0908e1	-0.033455733
18	0xbcac2b69	-0.021016793
19	0x3d183823	0.03716291
20	0x3df78fc9	0.12087972
21	0xbc867463	-0.01641292
22	0xbd6102d8	-0.054934353
23	0xbdb48757	-0.088148765
24	0x3dfd5204	0.12369159
25	0x3d9fc91e	0.07802032
26	0x3cbcb125	0.023033688
27	0x3d739a70	0.059473455
28	0xbdb39060	-0.08767772
29	0xbd676691	-0.0564943
30	0x3cfbb3d5	0.030725399
31	0xbc37493b	-0.011186893
32	0xbd0be9e8	-0.034158617
33	0x3b99fc7b	0.0046992875
34	0xbd895593	-0.06705775
35	0xbd214647	-0.039373662
36	0x3d655635	0.055990417
37	0xbdd32cc4	-0.10311273
38	0xbdae2304	-0.085027725
39	0x3d7a2bbc	0.061076865
40	0x3e120503	0.14259724
41	0xbdc3ef05	-0.09567074
42	0x3da8bd04	0.08239177
43	0xbe0f4874	-0.13992482
44	0x3d5c8b00	0.0538435
45	0xbdaa7338	-0.083227575
46	0x3d497b0e	0.04918962
47	0xbcc8e972	-0.024525378
48	0xbaf1ec54	-0.0018457272
49	0x3d5ed5be	0.05440306
50	0xbd5ad7f6	-0.053428613
51	0xbdeb3c0c	-0.114860624
52	0xbe06612f	-0.1312301
53	0x3dab974d	0.08378468
54	0x3dbf6e70	0.09347236
55	0xbdd53c0d	-0.104118444
56	0xbd667d8b	-0.05627207
57	0xbe5d2638	-0.2159661
58	0x3de73495	0.11289326
59	0x3dbfddfa	0.093685105
60	0xbd8406b2	-0.064465895
61	0x3d9f39f4	0.077747256
62	0xbd9b1ed2	-0.07574238
63	0xbdf1cf6c	-0.11807141
64	0xbc5caa3b	-0.0134683205
65	0xbd0ccddf	-0.03437602
66	0xbe3b3f05	-0.18285759
67	0xbdff486f	-0.124649875
68	0x3b2092f9	0.0024501665
69	0x3d4cdc90	0.050015032
70	0xbd4fd601	-0.0507412
71	0x3dcf5572	0.10123719
72	0xbd8003f4	-0.06250754
73	0x3cfa0757	0.030521078
74	0x3d51b521	0.05119813
75	0x3d47409e	0.048645608
76	0xbe250f27	-0.16119061
77	0xbd76ee21	-0.06028569
78	0x3da42526	0.08014898
79	0xbd900ad9	-0.07033319
80	0x3d8f2394	0.06989208
81	0x3c7df6cb	0.015500735
82	0x3d52f21d	0.05150043
83	0x3d183f03	0.037169468
84	0xbe09970f	-0.1343653
85	0xbc933b6e	-0.017972674
86	0x3d4f6920	0.050637364
87	0x3db18b47	0.08669143
88	0xbda8c424	-0.08240536
89	0xbd1af5cd	-0.03783207
90	0x3dc77a0b	0.09740075
91	0x3c8ae39e	0.01695424
92	0xbca1ab3e	-0.019734975
93	0x3dee008e	0.116211995
94	0x3df3a831	0.11897314
95	0xbda4a2cd	-0.08038864
96	0x3d8c173f	0.06840371
97	0xbdc24cce	-0.094873056
98	0xbd5aea3b	-0.053446036
99	0x3c0bdedf	0.008537023
100	0xbc80b101	-0.015709402
101	0xbd7fc19a	-0.062440492
102	0xbdd98d59	-0.10622663
103	0xbdab5b2a	-0.083669975
104	0xbdee2ced	-0.11629663
105	0x3da00ce5	0.078149594
106	0xbda7f5d2	-0.082011834
107	0x3cb89205	0.022530565
108	0x3c63cf7f	0.013904451
109	0x3db50f3b	0.088407956
110	0xbcf9d89d	-0.030498797
111	0xbdd595ed	-0.10428987
112	0xbbe58579	-0.0070044366
113	0x3e179721	0.14803745
114	0x3d98313a	0.07431264
115	0x3d15c51f	0.036564942
116	0x3cdd3200	0.02700138
117	0x3c3d25df	0.011544674
118	0xbd8eb365	-0.069678105
119	0xbd3caf00	-0.04606533
120	0xbd3e641f	-0.0464822
121	0xbdb6a720	-0.08918595
122	0x3d0f8320	0.03503716
123	0xbe0494e3	-0.12947421
124	0xbc4dbb57	-0.012556872
125	0x3d4cc2a6	0.04999032
126	0xbdab21f9	-0.08356089
127	0xbdac56bf	-0.08414983
128	0x3c1b3c24	0.009474788
129	0x3d42ee6a	0.04759065
130	0xbd837328	-0.06418449
131	0x3d9a697e	0.07539652
132	0x3c3e9b13	0.011633652
133	0xbd17ff45	-0.03710868
134	0x3e456a86	0.19278917
135	0xbdb55eb9	-0.088559575
136	0x3cb2dca3	0.021833723
137	0x3d120a23	0.0356542
138	0xbdc78eb9	-0.09744019
139	0x3dc3fe9d	0.09570048
140	0xbd5285e7	-0.05139723
141	0x3bcf0298	0.006317448
142	0xbd9558a9	-0.07292301
143	0xbe0f12fa	-0.13972083
144	0x3c1f6086	0.009727603
145	0xbe04b774	-0.12960607
146	0x3da4a226	0.0803874
147	0xbdad5af5	-0.08464614
148	0x3c8f7282	0.017510656
149	0xbd3e3ac7	-0.046442773
150	0x3dd7b53c	0.105326146
151	0x3d427a05	0.04747965
152	0x3d42ca09	0.047555957
153	0xbd57b436	-0.052662097
154	0xbe7046e7	-0.23464547
155	0xbd22ef47	-0.039778974
156	0x3e32032c	0.17384022
157	0x3da3a538	0.07990497
158	0xbbe188ac	-0.0068827476
159	0x3e03e5ed	0.12880678
160	0x3da89ca1	0.082329996
161	0xbd72be71	-0.05926365
162	0x3bc8b5ee	0.0061252033
163	0xbc031157	-0.00799974
164	0x3d4b0738	0.04956743
165	0xbd8b01e1	-0.06787468
166	0x3cfe21d9	0.031022
167	0x3cb3a9ef	0.021931617
168	0x3d570287	0.052492645
169	0xbdc26c6d	-0.09493337
170	0x3d8897c7	0.06669574
171	0x3daf5d7e	0.08562754
172	0x3cabbe08	0.020964637
173	0x3dc36cbc	0.09542224
174	0x3dd1e41d	0.10248587
175	0xbe02a36f	-0.12757657
176	0xbddec46e	-0.1087731
177	0x3e0adc01	0.13560487
178	0xbda69fd9	-0.08135957
179	0xbca994ae	-0.020700779
180	0x3d7663c0	0.060153723
181	0x3e4e2e77	0.20134912
182	0x3c5df067	0.013546086
183	0xbe537c55	-0.20652898
184	0xbe2b7546	-0.16743955
185	0xbc8053bb	-0.015664926
186	0xbb1a0a03	-0.0023504503
187	0x3d3f2788	0.04666856
188	0xbe10e54d	-0.14149971
189	0x3c7e671d	0.015527514
190	0xbd437061	-0.047714595
191	0x3d3711cc	0.044694707
192	0xbd0d2a3c	-0.034464106
193	0x3db90c8e	0.09035598
194	0xbe106991	-0.1410277
195	0x3e160538	0.14650428
196	0xbd5e5191	-0.054277007
197	0x3d72db5e	0.059291236
198	0x3c897ccc	0.01678314
199	0xbc31afd8	-0.010845147
200	0xbac0d83c	-0.001471288
201	0x3d83a96b	0.06428798
202	0x3d870356	0.06592433
203	0xbe3abfb6	-0.18237194
204	0xbd5e3992	-0.054254122
205	0xbd51a1cd	-0.051179696
206	0x3cb0a069	0.021560865
207	0x3d5008fd	0.050789822
208	0x3d808a17	0.062763385
209	0xbd5f8054	-0.054565743
210	0x3e7953db	0.24348395
211	0xbbe7c142	-0.0070725987
212	0xbcf2164a	-0.029551644
213	0xbdbd1851	-0.092331536
214	0x3cbbaa07	0.022908224
215	0x3d38f990	0.045159876
216	0xbdaa8b19	-0.08327312
217	0xbe364d1a	-0.1780285
218	0xbbaf83ff	-0.0053563113
219	0xbd8185e6	-0.06324367
220	0xbdfa6864	-0.12226942
221	0x3df4745b	0.119362555
222	0xbd81be03	-0.0633507
223	0x3d8cc853	0.06874146
224	0xbdb60c14	-0.088890225
225	0xbde56706	-0.11201291
226	0xbc7956cb	-0.015218447
227	0xbd4c500e	-0.049881034
228	0x3df5b5e1	0.11997581
229	0xbda30f88	-0.07961947
230	0x3dfd0a47	0.12355476
231	0xbba947b5	-0.005166019
232	0xbd175d75	-0.036954362
233	0x3d317b23	0.043330323
234	0x3d1ba55d	0.0379995
235	0xbdaa1909	-0.08305556
236	0xbd44f872	-0.0480885
237	0xbdc53de2	-0.09630944
238	0x3d10557d	0.035237778
239	0x3d5cc533	0.053899
240	0x3dee0fc6	0.11624102
241	0x3db08511	0.086191304
242	0x3deed89a	0.11662407
243	0xbb40ed29	-0.0029438233
244	0xbd21f48d	-0.039539862
245	0xbc5ec830	-0.013597533
246	0x3ce88162	0.028382007
247	0x3dac403e	0.08410691
248	0x3e5481e4	0.20752674
249	0x3d2eb949	0.04265717
250	0x3bff5c0b	0.007792955
251	0x3d3a8854	0.04554017
252	0x3ddedbeb	0.1088179
253	0x3d415e2b	0.047208946
254	0xbdf84b88	-0.121237814
255	0xbc702077	-0.014656178

net.1.freq_scale.bias f4 [256]
0	0x3d79bf42	0.060973413
1	0x3d2b08d8	0.04175648
2	0x3d096b54	0.03354962
3	0xbe1ac75e	-0.15115115
4	0xbd0ce3ac	-0.034396812
5	0xbd41d18d	-0.047318984
6	0xbd60c38f	-0.054874
7	0x3c551c54	0.013007242
8	0xbdeefe1b	-0.116695605
9	0xbe5b0cf0	-0.21391654
10	0xbd905521	-0.07047487
11	0xbd8304d1	-0.06397403
12	0xbaf40e12	-0.0018619916
13	0x3d16ac00	0.036785126
14	0x3d3178a3	0.04332794
15	0xbc99aa0a	-0.018757839
16	0xbd031930	-0.032006443
17	0xbdb3f789	-0.08787448
18	0x3cfa9d59	0.030592607
19	0xbe0155d6	-0.126304
20	0xbd29e9df	-0.041482802
21	0x3e0b1e54	0.13585788
22	0xbd743aa1	-0.059626225
23	0x3d416a33	0.04722042
24	0x3d72437b	0.059146386
25	0x3dfea36b	0.12433513
26	0xbd7d6298	-0.061861604
27	0xbb2ed93c	-0.0026679775
28	0xbda10933	-0.07863083
29	0x3d8b4c02	0.06801607
30	0xbd778cec	-0.060437128
31	0xbe0ffa01	-0.14060213
32	0xbe10770a	-0.1410791
33	0x3d5be65e	0.053686492
34	0x3d1a0094	0.037598208
35	0x3d351ab1	0.044214908
36	0xbd4f473f	-0.050605055
37	0xbdaf7ca1	-0.08568693
38	0x3c500196	0.012695691
39	0x3ca35e38	0.019942388
40	0xbde0865e	-0.109631285
41	0xbdb0c164	-0.08630636
42	0xbbd82eb1	-0.006597363
43	0xbdc53056	-0.0962836
44	0xbdedde76	-0.11614697
45	0xbe3eb723	-0.18624549
46	0x3e12fe92	0.14354923
47	0xbd6bff30	-0.057616413
48	0x3ceda9f5	0.029011706
49	0x3d46ae94	0.048506334
50	0xbd251b66	-0.040309332
51	0x3dc6afa8	0.097014725
52	0xbda1636e	-0.07880293
53	0xbe06993d	-0.13144393
54	0x3d6b6bdf	0.05747592
55	0xbdbba83a	-0.09162946
56	0xbd3639c6	-0.04448869
57	0xbdb5d789	-0.08879001
58	0x3da870df	0.082246535
59	0x3d1d6f8c	0.038436458
60	0xbc2c2fea	-0.0105094705
61	0xbdc6e502	-0.097116485
62	0xbe0d5d63	-0.13805155
63	0x3d149b23	0.036280762
64	0x3e03b9e1	0.12863876
65	0x3c821d74	0.015883185
66	0xbca0048d	-0.01953342
67	0xbba599dd	-0.0050537423
68	0x3e043ddd	0.12914224
69	0x3dd2aafd	0.1028652
70	0xbb7c45d3	-0.0038493767
71	0x3d3cffa5	0.04614224
72	0x3df9baf0	0.121938586
73	0xbcb1e06d	-0.02171346
74	0x3e04ebd6	0.1298059
75	0x3de46a73	0.11153116
76	0xbe462453	-0.19349794
77	0xbb610eee	-0.0034341174
78	0x3d207f35	0.039183814
79	0x3d9fcaca	0.07802351
80	0x3dbbc868	0.09169084
81	0x3da433fc	0.08017728
82	0x3c16000d	0.009155286
83	0xbdb1cd6e	-0.08681761
84	0xbd827784	-0.06370452
85	0xbca79410	-0.020456344
86	0xbd915283	-0.07095816
87	0x3d5c1724	0.053733006
88	0x3d734f22	0.05940164
89	0xbdc55a78	-0.09636396
90	0xbded34f9	-0.11582369
91	0x3da9cb4d	0.0829073
92	0xbc8e6346	-0.017381322
93	0x3bcf1f84	0.0063208956
94	0xbe17d383	-0.14826779
95	0xbe0a0a4f	-0.13480495
96	0xbd6a292f	-0.057168182
97	0x3da22e92	0.07919039
98	0xbc166ca8	-0.009181179
99	0x3c998049	0.018737929
100	0xbd27347f	-0.04082155
101	0x3d6fa3da	0.05850587
102	0x3dd1170d	0.10209475
103	0xbd8716aa	-0.0659612
104	0x3cc6bb91	0.02425936
105	0xbd317c5d	-0.043331493
106	0x3d0ae7b5	0.03391238
107	0x3d8b1b95	0.0679237
108	0x3dc2a164	0.09503439
109	0xbc433161	-0.011913628
110	0x3a40d0b3	0.00073553174
111	0xbdb0302e	-0.086029395
112	0x3b1270a1	0.0022344964
113	0xbd2c5b8a	-0.042079486
114	0xbc797678	-0.015225999
115	0xbd13d74c	-0.036093995
116	0xbda27846	-0.079330966
117	0xbd9f84ad	-0.07788978
118	0xbd2bdd2e	-0.04195898
119	0x3ac2fc61	0.001487624
120	0x3d4d0c1f	0.050060388
121	0xbc109a33	-0.008825826
122	0xbcdb8265	-0.026795575
123	0x3d9b199e	0.075732455
124	0x3d4fd3f7	0.050739255
125	0x3dd77cbf	0.1052184
126	0xbd1a9f11	-0.037749354
127	0x3b05c0ca	0.00204091
128	0xbd34bc83	-0.04412509
129	0x3db32917	0.08748072
130	0xbd59f240	-0.053209543
131	0x3d3d62a3	0.046236645
132	0xbd73c506	-0.059514068
133	0xbd1b5ac8	-0.037928373
134	0x39f90e5d	0.00047503682
135	0xbda4ecaa	-0.080529526
136	0x3c16cf6b	0.009204726
137	0xbd46d91d	-0.0485469
138	0xbc4f60a3	-0.012657317
139	0xbcbd4e94	-0.023108758
140	0x3d04e975	0.032449204
141	0xbd4545d8	-0.04816231
142	0xbd8c297a	-0.068438485
143	0x3c628e7e	0.013827918
144	0x39ae72fe	0.00033273542
145	0x3de8cbd2	0.11367001
146	0xbba1ca5f	-0.0049374546
147	0xbd8cd46d	-0.068764545
148	0xbd79b7a3	-0.060966145
149	0x3d7b3636	0.061330996
150	0x3d79f2c7	0.061022546
151	0x3d03af1f	0.03214943
152	0xbd6faf3a	-0.05851672
153	0x3e15ea17	0.1464008
154	0x3e0422a7	0.12903844
155	0xbcf4c055	-0.029876867
156	0x3de9986a	0.11406024
157	0xbb3a3291	-0.0028411488
158	0x3cce6fa9	0.025199728
159	0xbda15e15	-0.07879273
160	0x3e5c1e55	0.21495946
161	0xbdb75488	-0.0895167
162	0x3d5f33b1	0.054492656
163	0x3de42e4b	0.11141642
164	0xbc5ff93a	-0.01367026
165	0xbdb6ec76	-0.0893182
166	0xbd8cfd5c	-0.06884262
167	0x3dbd718f	0.09250175
168	0x3db0465b	0.08607169
169	0xbd22bf96	-0.03973349
170	0xbdb72e1d	-0.08944342
171	0x3ac7243e	0.0015193296
172	0xbd939008	-0.07205206
173	0xbd45f888	-0.04833272
174	0x3cbeb941	0.023281695
175	0x3dfdc514	0.12391105
176	0x3b98da60	0.004664704
177	0x3db9a08a	0.090638235
178	0xbd720802	-0.059089668
179	0x3c0b956c	0.008519512
180	0xbd1a5a2c	-0.03768365
181	0x3d42c034	0.04754658
182	0xbdcccafc	-0.09999654
183	0xbc00c5f1	-0.007859693
184	0xbdaa899c	-0.08327028
185	0x3cc5136a	0.024057109
186	0xbba8c43c	-0.005150346
187	0xbcb4abc2	-0.022054557
188	0xbd888e9d	-0.06667826
189	0x3c1c572b	0.009542267
190	0xbd8fa68e	-0.0701419
191	0xbd092f4e	-0.03349238
192	0x3ccd3c2b	0.025053104
193	0xbcb04015	-0.021514932
194	0x3c1ac190	0.009445563
195	0x3d8d9bd0	0.069144845
196	0x3e0a8768	0.13528216
197	0xbe30b7d9	-0.17257632
198	0x3dc1caeb	0.09462532
199	0x3df2155a	0.11820479
200	0xbd8a6bb7	-0.06758826
201	0xbdcf3b06	-0.1011868
202	0x3d3579ee	0.044305734
203	0xbdf009f9	-0.11720652
204	0xbcc2efcf	-0.02379599
205	0x3e0c0103	0.13672261
206	0xbe002787	-0.12515078
207	0xbe2de50b	-0.16981904
208	0x3c450858	0.012025915
209	0xbd7376a9	-0.059439335
210	0x3ca51c68	0.020155147
211	0x3dc52e74	0.09628001
212	0x3d838ca0	0.064233065
213	0xbd22576b	-0.03963415
214	0x3d2fc316	0.042910658
215	0x3d155113	0.03645427
216	0x3c632a4b	0.013865064
217	0x3da5c437	0.08094066
218	0xbd8c9951	-0.0686518
219	0x3a885d51	0.0010403787
220	0xbe10e6cd	-0.14150544
221	0x3da4a52d	0.08039317
222	0x3cabb102	0.020958427
223	0x3e088dd6	0.13335356
224	0xbd3ca559	-0.046056125
225	0x3ce8d2c4	0.028420813
226	0xbc2ed58e	-0.010671033
227	0xbc975cbf	-0.018476842
228	0x3dbbba31	0.091663726
229	0xbdb05227	-0.08609419
230	0xbbcbc443	-0.0062184646
231	0xbc9a4d7a	-0.018835772
232	0x3dc03336	0.09384768
233	0xbbf22aea	-0.0073903697
234	0x3db35afb	0.087575875
235	0xbd958bb6	-0.07302038
236	0xbb21234a	-0.0024587684
237	0x3c87aca0	0.016561806
238	0x3dcdff1e	0.10058425
239	0x3d91731c	0.071020335
240	0xbc9a4e45	-0.01883615
241	0xbd0561b3	-0.032563876
242	0xbd4112f1	-0.047137205
243	0x3d5a420b	0.05328564
244	0x3dd873d3	0.10568967
245	0xbd46c365	-0.048526186
246	0x3d64e3fa	0.055881478
247	0x3d9417e2	0.07231118
248	0xbd91bf21	-0.07116533
249	0x3e1fe9a6	0.15616474
250	0xbe2e1eed	-0.17003985
251	0xbd39ae07	-0.04533198
252	0xbd44ec5c	-0.048076972
253	0x3da75dfb	0.08172222
254	0xbbfd7c18	-0.0077357404
255	0x3d290ed5	0.04127391

net.2.freq_scale.weight f4 [256, 128]
0	0xbdb1f3d0	-0.08689082
1	0x3d2bca80	0.041941166
2	0x3de1153d	0.10990379
3	0xbc02968c	-0.0079704635
4	0x3d81ef83	0.06344511
5	0x3e052632	0.13002852
6	0x3d860ef2	0.06545819
7	0x3d9d93aa	0.0769418
8	0x3d09a2de	0.033602588
9	0x3d8ec517	0.06971186
10	0xbc5773cc	-0.013150167
11	0xbc1c47e6	-0.009538626
12	0x3cff2dfb	0.031149855
13	0x3ce3b5d7	0.027796669
14	0x3d506170	0.050874174
15	0xbcbe583c	-0.023235433
16	0x3ca73a70	0.020413607
17	0xbea54c54	-0.32284796
18	0xbdd70852	-0.10499634
19	0x3dec2c68	0.11531907
20	0x3b1c6222	0.0023862203
21	0xbc990fe7	-0.01868434
22	0x3dc7e552	0.09760536
23	0xbde3ac7f	-0.111168854
24	0x3c09c695	0.008409162
25	0xbc25fa93	-0.010130542
26	0xbcda7ff6	-0.026672345
27	0x3b55f967	0.0032649876
28	0x3d3c96b9	0.046042178
29	0x3cf8fcf3	0.030394053
30	0x3d38a1ec	0.045076296
31	0x3ca0a26f	0.019608704
32	0xbd9c29f7	-0.07625192
33	0xbe3cda5b	-0.18442671
34	0xbd75b4ca	-0.059986867
35	0x3c646a3f	0.013941347
36	0x3d9479f5	0.07249824
37	0x3dc5dfa0	0.09661794
38	0x3cc2cdc2	0.023779754
39	0x3d06001c	0.032714948
40	0xbcf22bc7	-0.02956189
41	0x3d0a5e15	0.03378113
42	0x3d5d1562	0.05397547
43	0x3def4943	0.116838954
44	0xbe199a82	-0.15000346
45	0x3da94cf0	0.08266628
46	0x3d95d74c	0.07316455
47	0xbcb5957f	-0.022166012
48	0x3d8ec131	0.06970442
49	0x3d456af5	0.048197705
50	0x3dff8a24	0.1247752
51	0x3da7cbd9	0.08193178
52	0x3d6ee702	0.058325775
53	0xbd40ca8c	-0.047068164
54	0xbd1816c8	-0.0371311
55	0xbe03cef0	-0.12871909
56	0xbce13399	-0.027490424
57	0x3d97adbd	0.07406185
58	0x3cba4643	0.022738582
59	0x3b70a418	0.0036718901
60	0x3b6d8365	0.0036241647
61	0x3d74713d	0.059678305
62	0x3de8930d	0.11356173
63	0x3bca70b5	0.0061779865
64	0x3d8756fe	0.06608389
65	0xbd5dc771	-0.05414528
66	0x3dcc5c54	0.09978548
67	0xbd5d38b2	-0.054009147
68	0x3de409e7	0.11134701
69	0xbcc2a5c3	-0.023760682
70	0x3df5175d	0.11967347
71	0x3d99c1c3	0.0750766
72	0x3d8253e7	0.06363659
73	0x3bbd01b8	0.005768027
74	0x3c83e326	0.016099524
75	0xbcda4478	-0.026643977
76	0xbc44eb45	-0.012018983
77	0x3d9a4955	0.07533518
78	0xbd8cd230	-0.068760276
79	0xbd1a3d8e	-0.03765636
80	0xbcd6cefa	-0.026221741
81	0xbcdb9ce1	-0.026808204
82	0x3cfba52c	0.030718409
83	0xbda11171	-0.07864655
84	0xbc19df10	-0.009391561
85	0x3ce9a22a	0.028519709
86	0x38be7547	9.0817506e-05
87	0xbcaea6bb	-0.021319738
88	0x3d625c95	0.055264074
89	0x3e35c0e6	0.17749366
90	0xbd3ca7b7	-0.046058383
91	0x3c73e716	0.014886638
92	0xbc3034f8	-0.010754816
93	0x3d9dac05	0.07698826
94	0x3d09d599	0.03365097
95	0x3dafaeb0	0.08578241
96	0xbd55f8df	-0.052239295
97	0xbd243f47	-0.04009941
98	0xbcb63ac4	-0.022244819
99	0x3d860225	0.06543378
100	0x3cf34aac	0.029698692
101	0x3d0e543f	0.034748312
102	0x3df59a5f	0.119923346
103	0x3ca1c233	0.019745922
104	0xbc83b5a0	-0.016077816
105	0x3d7f4fba	0.062331893
106	0xbc34aea6	-0.011027968
107	0x3cc530fe	0.024071213
108	0x3d1a8d5d	0.03773247
109	0xbd664dea	-0.05622665
110	0xbc702b73	-0.014658797
111	0x3d8b8cd0	0.06813967
112	0xbd13c464	-0.036075965
113	0x3d1a2a15	0.03763779
114	0xbcae5e05	-0.021285066
115	0xbcdf73f4	-0.02727697
116	0x3cdd2f6b	0.02700015
117	0x3d776dfe	0.06040763
118	0x3c8ee8db	0.017445019
119	0xbd27cafe	-0.040965073
120	0x3da10ce4	0.07863787
121	0xbc895b68	-0.016767219
122	0xbd9dc3a4	-0.07703331
123	0x3db60e64	0.088894635
124	0xbdceb09e	-0.10092281
125	0x3d803bac	0.062613815
126	0x3d49ca8a	0.049265422
127	0x3e552c79	0.20817746
128	0xbd8ab9cf	-0.067737214
129	0xbdb0e8b9	-0.08638138
130	0xbe4d2178	-0.20032299
131	0xbd6ca918	-0.057778448
132	0xbe435059	-0.19073619
133	0xbdb913da	-0.090369895
134	0xbe0d86ba	-0.13820925
135	0xbd7e86d2	-0.062140293
136	0xbde424ab	-0.11139806
137	0xbdb93baa	-0.09044583
138	0xbdce5293	-0.100743435
139	0xbd55e969	-0.05222455
140	0xbd90fbf7	-0.070793085
141	0xbd98ed0b	-0.07467087
142	0xbd3aa8e2	-0.045571215
143	0xbd8831e8	-0.06650144
144	0x3cc8074a	0.024417538
145	0xbce27fc5	-0.027648816
146	0xbd59ccaf	-0.053173717
147	0xbe51e34c	-0.20496863
148	0xbdb989c0	-0.09059477
149	0xbe454b4f	-0.19267009
150	0x3cb6c045	0.022308478
151	0xbd9f72aa	-0.07785542
152	0xbd96efc0	-0.073699474
153	0xbdf46b40	-0.11934519
154	0xbd552545	-0.052037496
155	0x3d68f262	0.05687178
156	0x3c59b12c	0.01328687
157	0xbc90f512	-0.017694984
158	0xbdea8a62	-0.11452176
159	0xbdba8ea3	-0.09109237
160	0xbdabde7e	-0.083920464
161	0xbc555185	-0.013019924
162	0xbdf92eb0	-0.12167108
163	0xbcf9ee42	-0.030509118
164	0x3bffdb8d	0.007808155
165	0xbd968bc8	-0.0735088
166	0xbc3e07c1	-0.011598528
167	0x3d2bb69f	0.041922208
168	0xbd8a7d6a	-0.06762202
169	0x3cd03e64	0.025420375
170	0xbdba9695	-0.091107525
171	0x3cff4653	0.031161463
172	0x3b8cc13d	0.0042954967
173	0xbe2a4517	-0.16627918
174	0xbc7b087e	-0.015321849
175	0xbb774650	-0.0037731119
176	0x3d7a2e8a	0.06107954
177	0xbe2d483c	-0.16922086
178	0xbe43fdea	-0.1913983
179	0xbd94334f	-0.07236349
180	0xbcae7a5b	-0.021298578
181	0xbd33efab	-0.043929737
182	0xbdcd1c46	-0.10015158
183	0xbba7488c	-0.005105084
184	0xbd83c8d4	-0.06434789
185	0xbe708713	-0.23489027
186	0xbdbc3627	-0.09190016
187	0xbdfd1649	-0.12357766
188	0xbdfc9705	-0.12333492
189	0xbc5a9120	-0.013340265
190	0xbd2f4075	-0.04278608
191	0x3cf7e2e7	0.030259563
192	0xbd6634e2	-0.056202777
193	0xbde0257a	-0.10944648
194	0x3cbaa6e2	0.022784654
195	0x3d59bfbe	0.053161375
196	0xbde9556a	-0.113932446
197	0xbdcd22f1	-0.1001643
198	0xbe546f51	-0.20745589
199	0xbd88e44e	-0.06684171
200	0x3ca7510e	0.020424392
201	0xbe06bd19	-0.13158073
202	0xbd60f603	-0.054922115
203	0xbdd2a86b	-0.102860294
204	0xbdb83b4e	-0.089956865
205	0xbd4b7428	-0.049671322
206	0xbda4df34	-0.08050385
207	0xbd9338d8	-0.071885765
208	0x3d3a7e0f	0.045530375
209	0xbdc41676	-0.095745966
210	0xbe0cc686	-0.13747606
211	0xbd29418f	-0.041322287
212	0x3d8e07b7	0.06935065
213	0xbe1e89f2	-0.1548231
214	0x3cea24f6	0.028582077
215	0xbe3d6efb	-0.18499367
216	0xbd025b8b	-0.031825583
217	0xbdcfa59a	-0.10139008
218	0xbd0c5f4f	-0.03427058
219	0xbce52a44	-0.027974255
220	0xbcbba214	-0.022904433
221	0xbd87c388	-0.066290915
222	0xbd259161	-0.040421847
223	0xbd9fe6e1	-0.078077085
224	0xbdb13818	-0.08653277
225	0x3c84c09a	0.01620512
226	0xbd6ee82c	-0.058326885
227	0xbdbea2c1	-0.093083866
228	0x3d045b48	0.032313615
229	0x3d155ee7	0.03646746
230	0xbd9fcf66	-0.0780323
231	0xbd140e74	-0.036146596
232	0xbd15a88e	-0.0365377
233	0xbe34411d	-0.17602964
234	0xbc1f9faf	-0.009742661
235	0xbdc56e74	-0.09640208
236	0xbdc3ad50	-0.09554541
237	0x3cb0e884	0.021595247
238	0xbbc73119	-0.006078851
239	0xbdaa5fa6	-0.08319025
240	0xbde22535	-0.11042253
241	0xbdd3e3f2	-0.103462115
242	0x3bd3aaab	0.006459554
243	0xbc862917	-0.016377015
244	0x3d4faf29	0.050704155
245	0xbb691dcb	-0.0035570737
246	0x3d24bcf5	0.040219266
247	0xbde6a2aa	-0.112614945
248	0xbce72176	-0.028214198
249	0x3c8e81aa	0.017395813
250	0xbd30ea76	-0.04319235
251	0xbd3fd366	-0.046832465
252	0xbd096882	-0.033546932
253	0xbcfcc88c	-0.030857347
254	0xbc6c107a	-0.014408225
255	0xbd89da8c	-0.06731138

net.2.freq_scale.bias f4 [256]
0	0x3d9a8af7	0.07546037
1	0xbe357299	-0.17719497
2	0x3de9676a	0.11396678
3	0x3c2409a3	0.010012063
4	0x3d38fe5f	0.045164462
5	0x3e039427	0.12849484
6	0x3c266c8a	0.010157714
7	0x3d1f3910	0.03887278
8	0x3e1b2ac0	0.15153027
9	0x3e11f74b	0.14254491
10	0xbe3fc828	-0.18728697
11	0x3e078f08	0.13238156
12	0xbda9eec3	-0.08297493
13	0x3dea5fc3	0.11444046
14	0xbcbe7783	-0.023250347
15	0x3de73c1a	0.1129076
16	0xbbc2c6ee	-0.0059441244
17	0xbd4d4b6a	-0.05012075
18	0xbcb20dbf	-0.02173507
19	0xbe191bdd	-0.14952035
20	0xbc9a8548	-0.018862382
21	0x3cd58f2f	0.026069252
22	0x3d9b14e6	0.075723454
23	0xbde4447c	-0.11145875
24	0xbb8c5a79	-0.004283246
25	0xbda1ffb8	-0.079101026
26	0x3c7368ba	0.014856512
27	0x3d65383f	0.055961844
28	0x3d46b65a	0.048513748
29	0x3db8cbd7	0.09023254
30	0x3e082ddd	0.13298745
31	0x3d975a58	0.073902786
32	0xbc9a2a89	-0.01881911
33	0x3d97b9d0	0.07408488
34	0x3d627bf1	0.05529398
35	0xbd330ec8	-0.04371527
36	0xbd4376de	-0.047720782
37	0xbdb4ca86	-0.08827691
38	0xbdb70cbc	-0.08937976
39	0x3e4d8e7a	0.20073882
40	0x3d98caf3	0.074605845
41	0xbe177abb	-0.14792912
42	0xbc7047b0	-0.014665529
43	0xbd9f27bb	-0.0777125
44	0xbd16655c	-0.036717758
45	0xbde8eb8f	-0.11373054
46	0x3d20c7ec	0.03925316
47	0xbdeb8036	-0.11499064
48	0xbe3144f4	-0.1731146
49	0x3d612fe9	0.05497733
50	0xbc846db9	-0.016165601
51	0x3e0f22a1	0.13978054
52	0x3d508576	0.05090853
53	0xbe2d1f0a	-0.16906372
54	0xbdb98f66	-0.09060554
55	0x39ff2703	0.00048666456
56	0xbd65f3e2	-0.056140788
57	0x3e32efda	0.17474309
58	0x3e368d41	0.17827322
59	0x3dda67b5	0.10664312
60	0xbe01db95	-0.1268142
61	0x3df3b582	0.11899854
62	0x3d869103	0.065706275
63	0xbe236744	-0.15957361
64	0x3de17c97	0.11010092
65	0x3d36f29d	0.044664968
66	0xbc32ada7	-0.01090566
67	0xbd92bcda	-0.07164927
68	0x3d78717d	0.060655106
69	0xbd8845ae	-0.06653915
70	0xbd789011	-0.060684267
71	0x3e01e04b	0.12683217
72	0x3e04c759	0.1296667
73	0x3d56487a	0.052315213
74	0x3dec70b9	0.11544938
75	0x3d0377ce	0.032096677
76	0x3c9ec0c7	0.019379033
77	0xbdf41bfc	-0.119194
78	0x3cf44b4c	0.02982106
79	0xbae430db	-0.001740958
80	0x3d0a8315	0.033816416
81	0xbe1769c0	-0.14786434
82	0xbc8af04e	-0.01696029
83	0xbd4b526e	-0.049639158
84	0x3ddeed00	0.10885048
85	0x3dd8ac7f	0.10579776
86	0x3e3229c5	0.17398746
87	0xbe0b239d	-0.13587804
88	0xbd905eee	-0.070493564
89	0x3d89aeea	0.06722815
90	0xbe1b56cd	-0.1516983
91	0xbde098d5	-0.109666504
92	0xbcb9a498	-0.022661492
93	0xbdb50113	-0.088380955
94	0xbd8a6ee1	-0.0675943
95	0x3e2bb14c	0.16766852
96	0x3e0ed9b7	0.13950239
97	0x3d896939	0.06709523
98	0x3daa789e	0.08323787
99	0xbe2f212d	-0.171025
100	0xbdb5084e	-0.088394746
101	0xbda2de1c	-0.0795252
102	0xbe28ab5d	-0.1647162
103	0x3ce7ed96	0.028311532
104	0xbdc2deff	-0.095151894
105	0xbc1e97ed	-0.009679777
106	0xbd07eeb8	-0.033186644
107	0x3b29eb69	0.002592767
108	0x3db7dcb8	0.08977646
109	0x3cda4fab	0.026649317
110	0xbbae871a	-0.005326164
111	0xbe00a6c6	-0.12563619
112	0xbd7906de	-0.060797565
113	0x3e0d52eb	0.13801162
114	0x3dfc75b1	0.12327135
115	0xbd91c022	-0.071167246
116	0xbc808787	-0.015689624
117	0x3d91cb17	0.071188144
118	0xbe21d616	-0.15804324
119	0xbc3b5adb	-0.011435236
120	0x3dd0c5b3	0.10193958
121	0xbdf7972c	-0.120893806
122	0xbe5aa532	-0.2135208
123	0xbca412bb	-0.020028463
124	0xbd9edbd5	-0.077567734
125	0x3d5e57c2	0.05428291
126	0x3d9bd32d	0.07608638
127	0xbc33aaaf	-0.010965987
128	0xbdb1b851	-0.08677734
129	0x3da8b1d1	0.08237041
130	0xbd2b19f8	-0.041772813
131	0xbddd2fd0	-0.10800135
132	0x3d6338f9	0.055474255
133	0x3d90667e	0.07050799
134	0xbdd7cdb7	-0.10537284
135	0x3d473ccf	0.048641976
136	0xbdd63b9d	-0.10460589
137	0xbb4bbb0e	-0.0031086835
138	0x3cfeca13	0.031102216
139	0x3e1f86f8	0.1557883
140	0xbdefe77e	-0.117140755
141	0x3e282e1a	0.16423836
142	0xbda34f67	-0.07974129
143	0xbd2b34b5	-0.041798312
144	0x3dea0b07	0.114278845
145	0x3dcff2bd	0.101537205
146	0xbd5343de	-0.051578395
147	0xbcd0efc8	-0.025504962
148	0x3e19f292	0.1503394
149	0xbd9d60ff	-0.07684516
150	0xbde015bd	-0.10941646
151	0x3b28d0fc	0.002575933
152	0xbdc3bf51	-0.09557975
153	0x3dde5ea8	0.10857898
154	0xbe19fc84	-0.15037733
155	0xbdee1211	-0.1162454
156	0x3dc069c7	0.093951754
157	0xba904d0c	-0.001100929
158	0xbe0fca22	-0.14041951
159	0x3dd81485	0.10550789
160	0x3dd3a388	0.103339255
161	0x3e09801b	0.13427775
162	0x3dc1f6cf	0.09470903
163	0x3df9255e	0.1216533
164	0x3db66ffe	0.089080796
165	0x3dee3ac7	0.11632305
166	0x3d8a5d68	0.06756097
167	0x3dad6db8	0.08468193
168	0xbd37efc1	-0.04490638
169	0x3e20b1cd	0.15692826
170	0x3dad8d1f	0.08474182
171	0xbddb5a6a	-0.107106045
172	0xbde3b96e	-0.11119352
173	0x3bb3c565	0.0054861777
174	0x3e02ea66	0.12784728
175	0xbd93c351	-0.07214988
176	0x3da49610	0.08036435
177	0x3d8e3f46	0.06945662
178	0xbe0f3160	-0.13983679
179	0xbc460b6c	-0.012087684
180	0xbd9aba87	-0.075551085
181	0xbe031ff0	-0.12805152
182	0xbba24f31	-0.004953288
183	0x3db12716	0.08650033
184	0x3d0c4048	0.03424099
185	0x3d1882d2	0.037234135
186	0xbd306ce6	-0.043072604
187	0x3d787a94	0.060663775
188	0x3cb9e25d	0.022690946
189	0x3e16973f	0.14706133
190	0x3d0daaad	0.034586597
191	0x3dc37b9a	0.095450595
192	0xbdc6a222	-0.09698893
193	0xbd3aa153	-0.045564007
194	0x3e1829a0	0.14859629
195	0x3cf33c35	0.029691795
196	0x3e11778f	0.14205764
197	0xbdf8d7ee	-0.1215056
198	0x3e004fe7	0.1253048
199	0xbe29437e	-0.16529652
200	0xbc9b5e04	-0.018965729
201	0x3c78000e	0.015136732
202	0x3cbd519f	0.023110209
203	0xbe172574	-0.14760381
204	0xbe104df4	-0.14092237
205	0xbe148ade	-0.14506099
206	0x3e44731d	0.19184537
207	0xbdfef795	-0.12449566
208	0x3ce7349a	0.028223325
209	0xbe3c93e1	-0.18415786
210	0xbd500e13	-0.050794672
211	0x3dd96ea0	0.10616803
212	0x3d186c2e	0.037212543
213	0x3da73c7f	0.081658356
214	0x3c3b722f	0.011440798
215	0xbdbfe43c	-0.09369704
216	0xbcf6ce72	-0.030127738
217	0xbdeedc93	-0.11663165
218	0x3d2d2de4	0.042280093
219	0x3dcefb2c	0.10106501
220	0xbd321445	-0.04347636
221	0x3d8ba6f3	0.068189524
222	0xbcfcffee	-0.030883756
223	0x3dd1afac	0.10238585
224	0x3e173ca5	0.14769228
225	0x3d1cf23d	0.038316954
226	0x3e3408a3	0.1758142
227	0x3d168bcb	0.03675441
228	0x3df4fc30	0.119621634
229	0xbe0108e4	-0.12601048
230	0x3dea163f	0.11430024
231	0x3d9ad8b9	0.07560868
232	0xbd89c346	-0.067266986
233	0xbdfadb2c	-0.12248835
234	0xbdf1c67a	-0.118054345
235	0x3dbcf073	0.092255495
236	0xbdbcf202	-0.09225847
237	0xbbd5dfd5	-0.006526927
238	0xbd290838	-0.041267604
239	0xbe8ab3a8	-0.27090192
240	0x3c702087	0.014656193
241	0x3e17962a	0.14803377
242	0x3dd5334d	0.104101755
243	0x3ce21f49	0.027602809
244	0xbd81c598	-0.06336516
245	0xbe2c97d3	-0.16854791
246	0x3d72ec07	0.059307124
247	0xbd294c59	-0.041332576
248	0xbe2c39db	-0.16818945
249	0xbe17519f	-0.1477723
250	0x3d06b321	0.032885674
251	0x3d9931fd	0.07480238
252	0xbccf5780	-0.025310278
253	0xbe0f6db6	-0.14006695
254	0xbc8252ea	-0.015908677
255	0x3da1807a	0.07885833

net.3.weight f4 [1, 128]
0	0xbbd09377	-0.0063652354
1	0xbc3be88d	-0.011469019
2	0xbc3cc3b3	-0.011521268
3	0x3c978c22	0.018499438
4	0x3cb2467f	0.02176213
5	0xbbf94996	-0.007607649
6	0xbc8a9e05	-0.016921053
7	0x3c345712	0.011007087
8	0x3d180cfe	0.037121765
9	0xbb226932	-0.002478194
10	0x3bcab0fe	0.00618565
11	0x3d0becb5	0.03416129
12	0x3a7da412	0.00096756325
13	0xbc3d73ac	-0.011563223
14	0x3c69145d	0.014226046
15	0x3c106631	0.008813427
16	0x3c0701a8	0.008240141
17	0x3c19f95e	0.009397833
18	0xbccfb61a	-0.025355387
19	0x3c242f33	0.010021019
20	0xbba2f541	-0.004973084
21	0xbc929d36	-0.01789723
22	0xbbbc9c72	-0.0057559544
23	0xbca43f5e	-0.020049747
24	0x3ab9677c	0.0014145221
25	0x3c1aa950	0.009439781
26	0x3c0dfe74	0.008666623
27	0xbba34831	-0.004982971
28	0xbc3d561b	-0.011556174
29	0xbbc6e35f	-0.006069585
30	0x3c2347fe	0.009965895
31	0xbaffcf52	-0.0019516742
32	0x3d93eb08	0.07222563
33	0x3bd19c0a	0.006396775
34	0x3b192792	0.0023369533
35	0xbc1874ea	-0.009305218
36	0x3c82124f	0.01587787
37	0xbc283a7b	-0.010267849
38	0x3c3e23e6	0.011605239
39	0xba845eb5	-0.0010099026
40	0xbc56aca8	-0.013102688
41	0xbba4aab0	-0.0050252303
42	0xbbb9679c	-0.005658103
43	0xbc2b8191	-0.010467903
44	0x3caa00c2	0.020752314
45	0x3b9cb130	0.0047818646
46	0x3d35cbec	0.04438393
47	0xbc70e7a1	-0.014703662
48	0x3b4facd2	0.0031688702
49	0xbb4829bc	-0.0030542454
50	0xbd3d4519	-0.046208475
51	0xbc1ce18f	-0.009575262
52	0x3b894da2	0.0041901628
53	0x3cc3ffe4	0.02392573
54	0xbc9d733c	-0.019219987
55	0x3a959585	0.0011412358
56	0xbc205c05	-0.009787564
57	0x3bd98964	0.0066386927
58	0x3c1fc3a7	0.009751237
59	0x3bf7f9ef	0.007567636
60	0xbb16483c	-0.0022931239
61	0x3caa2e46	0.020774018
62	0xbcea809b	-0.028625777
63	0xbc2ed154	-0.010670025
64	0xb7c614f8	-2.3613204e-05
65	0xbc181712	-0.009282844
66	0xbc0ab2d8	-0.008465491
67	0xbadfac75	-0.0017064946
68	0xbc97effb	-0.018547049
69	0x3c2a9750	0.010412052
70	0x3c7ccb48	0.015429325
71	0xbc65ff9d	-0.014037994
72	0x3b5c6a0c	0.0033632545
73	0x3cce57d3	0.025188362
74	0xbb308c33	-0.0026939034
75	0x3bf0e81d	0.007351889
76	0x3b740e2b	0.003723989
77	0xbbd6503c	-0.0065403264
78	0x3cfd107f	0.030891655
79	0xbca19a5b	-0.019726923
80	0x3c1525c5	0.009103243
81	0xbbd2c21d	-0.0064318315
82	0xbb9cced4	-0.004785398
83	0x3cc2d91f	0.023785172
84	0x3bd0555c	0.006357832
85	0xbad4d48c	-0.001623766
86	0x3c153313	0.009106415
87	0xbc028eb6	-0.007968595
88	0xbadfa1e2	-0.0017061795
89	0x3bdfecff	0.006833672
90	0xbc451b8f	-0.012030496
91	0x3bac6c1a	0.00526191
92	0xbc3b9835	-0.011449863
93	0xbbba2c91	-0.0056815823
94	0xbc034f42	-0.008014502
95	0x3d39d601	0.045370106
96	0x3e095077	0.13409601
97	0x3b84008e	0.0040283864
98	0x3c42938c	0.011875998
99	0x3a9bae49	0.0011877503
100	0xbbb77e30	-0.0055997595
101	0xbc151a8e	-0.009100569
102	0x3ca09fbc	0.019607417
103	0x3c3fb38d	0.011700523
104	0xbc14b167	-0.009075499
105	0x3bef160e	0.0072963303
106	0xbc7a54f9	-0.015279048
107	0x3bf73720	0.007544413
108	0xb9198064	-0.00014639046
109	0xbcd47405	-0.025934229
110	0x3b5a1cf9	0.003328143
111	0x3dec7887	0.11546426
112	0x3cd81e95	0.02638177
113	0x3b605d38	0.003423525
114	0xbc0064d6	-0.007836541
115	0x3c0d1039	0.008609825
116	0x3c851d20	0.01624924
117	0x3b966b62	0.0045904377
118	0x3bc21976	0.0059234453
119	0xbb5aac57	-0.0033366883
120	0xbc055135	-0.008137037
121	0xbc7488cc	-0.014925193
122	0x3bc8ee16	0.0061318977
123	0xbc80bf00	-0.015716076
124	0xbad226d2	-0.0016033298
125	0x3cca09c3	0.024662858
126	0x3af866a3	0.0018951487
127	0xbb9f5733	-0.00486269
