path/to/dir/cond_wire/2026_01_27__15_01_16-no_wandb_id/2026_01_27__15_01_16-no_wandb_id-model.pt (torch, 273908 bytes, 7 tensors)

net.0.freq_scale.weight f4 [256, 4]
00000000: fc25 ce3e df74 8a3e 1377 8f3e 418e 833d
00000010: 960f 043e 5595 d33e 8a1b 713e fa26 d7be
00000020: 7d93 bebe 38c5 6e3c 207a 953e 04f5 853e
00000030: 0ee1 f33e e47d 853e 692e fdbe a4d5 99be
00000040: da4c 743e 1e64 0e3d 93e0 003e b1b7 353e
00000050: f99c 63be ed5a 7cbd 7f77 7a3e 4038 00bf
00000060: 469e b33e f182 eb3c 3cb0 e13e 0ff2 d2bd
00000070: 5287 b1b9 0a64 363e 5e48 8fbe 2563 273e
00000080: cc20 f9bd 6082 a43c 3e80 cdbe f92b ddbe
00000090: e39f b03e 01b8 05bf 3e88 e63e a77f cb3e
000000a0: f5ae bb3e 3016 793e cbaf dd3d 9960 8b3e
000000b0: ac55 21be 2769 51be 4f41 743e 398c e33e
000000c0: ff3a 86be fa30 623e 15e0 31be b8c2 cabe
000000d0: 1239 5f3d 1305 aabe 0d1f b03e 56a7 b53e
000000e0: b7f6 4e3e f95c abbe c418 0c3f 1de0 aabd
000000f0: 1f56 e0be 4f69 f1be 3c2b 303e c4d2 bf3d
00000100: b2bd 55bd eef2 573d bea7 22be c046 533d
00000110: b687 8f3c d838 513e 0bf0 03bf 4026 ee3e
00000120: 29ab 66be 14ba cc3e aab3 ebbe 11f6 d9be
00000130: de6d cfbe 84cf ad3e daee 7c3d f547 be3c
00000140: fd5b afbe 9c9d bcbd 4a42 863e a2bd 8c3e
00000150: 6fea e23e 3ecf fbbe ec41 da3d ed9b 57be
00000160: 58f1 f3be fd71 ffbd 9fd1 9a3d 00a5 f0be
00000170: 2dbb 3bbe 6b6a ff3e 88e4 8fbe 121e cdbd
00000180: 185e 4ebe e048 eabe 87de 4ebd a265 b83e
00000190: 9574 4c3e 2ce2 ddbe bf6b 2dbe 39f5 b9be
000001a0: f6cf eb3c cc97 5cbe 35c1 b83e aaeb ccbe
000001b0: 5ca6 cf3e f592 b43e 77cc d9be cbbb 833e
000001c0: 0979 96bd 651f 4f3e e390 f93e 39e8 39be
000001d0: afd5 d9bd c3eb d5be 5620 963e 5d8f 963e
000001e0: 79f3 573e c1ba cbbd fff1 753e 46f6 88be
000001f0: 27a9 eabe 0130 47be 7691 d3be 81c6 883e
00000200: e9e8 edbe 5ae6 5d3e d0f1 0b3e bba1 2b3e
00000210: ef05 bd3e 2324 5cbd af4f d7bd ab5b 3d3c
00000220: 124e e7be 4d13 cebe 2ed0 ba3d bef8 d7be
00000230: 12fc 95be f3fb fc3d defd 083e ef30 0b3e
00000240: 7bb4 a8be 9852 b03e 1937 483e 648e ba3e
00000250: 91f0 b9be c210 713e 5830 563e c49e c03e
00000260: c43d 6d3e 8b09 4f3b 2f3d ea3d 9ef5 f53e
00000270: 079e 5ebd 6081 aa3e 8815 08be db80 0e3e
00000280: 9c55 e43e ed96 573c 8757 e5be a60e 8ebd
00000290: 474f 5e3e 4444 3ebe bafe 59be 1d65 97be
000002a0: 05ff d93d e085 b33e d943 633e daa2 df3e
000002b0: dfe1 1f3d 6a9e 8f3e 6298 06bf f77a 87bd
000002c0: e55f a6bd 563e 6f3b a260 c0be 9949 823e
000002d0: 753d 89be 4eea b03e 4eb5 303e 2834 d33d
000002e0: a824 2fbe ed9e e23d f90c 7ebe 88c5 32be
000002f0: 255f 473e e083 0cbe 03db 51be 82e9 a53e
00000300: 621e 87be 5f81 c43e b064 c83d 8d48 b03e
00000310: c642 d7bd 3c4c 8bbd 4e91 f8be 6227 3dbe
00000320: 7760 a63e f498 dfbb 7419 003e 508f e4be
00000330: 2fe8 83be 5e66 ac3e b4f7 83be 235e a9be
00000340: 59fb 8a3e 8ae3 e7be e19f 17be b5a3 cb3e
00000350: 237d dcbb fe02 793d 595c b4bd 60bf b33e
00000360: 189c b1be 8fce 8cbe b5bb 2a3e 43b7 9fbe
00000370: ee37 aebb 9d29 f5be d4ee 033f 5d08 203e
00000380: ac7f 8bbd 2b69 cf3e 2d39 ae3e 3d9b b7be
00000390: 95c9 9bbe a780 d9be 9d6b e5bb 63f7 90be
000003a0: d9ed f53e d7ee 863e ec6b 84be 9a15 9c3e
000003b0: fcd4 d7be 5945 c93c 17c5 07bf 5173 c93e
000003c0: 857f ebbe 6cb4 543e b87b 273e 6574 f6be
000003d0: 59f1 13be 718e 59bd 2b25 9b3e 55de c03d
000003e0: 92fb 47be eb82 16bd 877c a83e 5d9c b4be
000003f0: f0ce debe 0c09 643e eb9f a53e 50a2 7f3e
0.40263355 0.2704229 0.28020534 0.06423617 0.1289657 0.4132487 0.23545662 -0.42021924
-0.372219 0.014573388 0.29194736 0.26163495 0.4763264 0.2607261 -0.4944947 -0.30045807
0.23857442 0.034763448 0.12585668 0.17745854 -0.22227849 -0.06161015 0.24459647 -0.5008583
0.3508169 0.028748961 0.4407977 -0.10300075 -0.00033860892 0.178116 -0.279849 0.16346414
-0.12164459 0.020081699 -0.40136904 -0.4319761 0.34496984 -0.5223389 0.4502582 0.39745829
0.3665692 0.2432487 0.108245455 0.27222136 -0.15755337 -0.20450269 0.23853038 0.4444292
-0.26216885 0.22088996 -0.17370637 -0.39601684 0.054497786 -0.33206996 0.3439869 0.3547923
0.20211302 -0.3346937 0.5472529 -0.083435275 -0.43815705 -0.47150657 0.17203993 0.09366372
-0.05218286 0.05272191 -0.15884301 0.051581144 0.017520767 0.2043184 -0.5153815 0.46513557
-0.2252623 0.39985716 -0.4603551 -0.42570546 -0.4051351 0.33947384 0.061751224 0.023227671
-0.3424987 -0.09209749 0.2622245 0.27488428 0.44319484 -0.4918155 0.10657105 -0.21055575
-0.47645068 -0.124729134 0.07559513 -0.47000885 -0.1833312 0.49885878 -0.28104043 -0.10015501
-0.20153081 -0.45758724 -0.050505187 0.3601504 0.19966348 -0.43336618 -0.16935633 -0.36319903
0.028785687 -0.21542281 0.36084905 -0.40023547 0.4055661 0.3526837 -0.42538807 0.25729212
-0.073473044 0.2022682 0.48743352 -0.18154992 -0.1063646 -0.41781434 0.29321545 0.29406253
0.21088971 -0.0994773 0.24018095 -0.26750392 -0.45832178 -0.19451906 -0.41321915 0.26713946
-0.4646676 0.21669903 0.13666463 0.16760914 0.3691859 -0.0537454 -0.10513245 0.0115575
-0.4517675 -0.402491 0.091217384 -0.42181963 -0.29293877 0.12352743 0.13378093 0.13592885
-0.32950196 0.34438014 0.19552268 0.3643676 -0.3631635 0.23541549 0.20916879 0.3762113
0.23168093 0.0031591381 0.11437451 0.48038954 -0.054349925 0.3330183 -0.13289464 0.13916342
0.44596565 0.013158542 -0.4479334 -0.06936388 0.2170993 -0.18580729 -0.21288577 -0.2956933
0.10644344 0.35063076 0.2219385 0.43678933 0.039033767 0.28050548 -0.5257627 -0.066152506
-0.08123759 0.003650566 -0.37573725 0.25446776 -0.268047 0.3455376 0.17256662 0.103126824
-0.17103827 0.11065469 -0.24809636 -0.17458165 0.19469889 -0.13722181 -0.20493703 0.32404715
-0.26390368 0.38379952 0.097848296 0.34430352 -0.10510783 -0.0680165 -0.4854836 -0.18472055
0.32495472 -0.0068236534 0.1250971 -0.4464059 -0.2576308 0.3367185 -0.2577492 -0.33079633
0.27144888 -0.45290786 -0.14807083 0.39773336 -0.0067287846 0.06079387 -0.088066764 0.35106945
-0.34689403 -0.27501342 0.16673167 -0.31194505 -0.005316726 -0.4788331 0.515363 0.1562819
-0.06811461 0.40509924 0.34027997 -0.35860625 -0.30427232 -0.42480966 -0.007001354 -0.2831374
0.48033026 0.26354095 -0.25863588 0.3048523 -0.42154682 0.0245692 -0.5303511 0.39345792
-0.45995727 0.2077195 0.16355789 -0.48135677 -0.14447536 -0.05311436 0.30301794 0.094174065
-0.1952956 -0.036745947 0.32907507 -0.35275546 -0.43517256 0.22269076 0.3234857 0.24964261

net.0.freq_scale.bias f4 [256]
00000000: 334a cebd e5d8 08be e26d 7abd a944 963e
00000010: 8368 963e 48a4 b4be c1c4 51bd bee0 49be
00000020: 81d3 86be 91be 62be 9f9b 71be 1a9d d6be
00000030: aa63 073f 8411 6f3d fbe1 cc3e 2144 09be
00000040: 0993 a7bd 7ff3 c33d d3fd 023f 2d58 823d
00000050: f762 b7be b72b f6be bee0 f3bc b02c 60be
00000060: f29f fcbe cc92 a43e 25f0 14be 469f 9abc
00000070: 98d5 473d 0ee1 8dbe ffa2 eb3e af04 9d3e
00000080: fd40 4e3d 5721 c2be ca9d e23e 6718 c5be
00000090: b2a9 c0be 0b70 d73e 8653 493b 3d27 17bd
000000a0: 5b79 e63d 9f0d 613e eba7 d33e 1080 043f
000000b0: 7a5c 3dbc d291 dfbc defd dd3e 414e 25be
000000c0: 16b5 703d 21b7 e53e a7d3 f9be b6c4 dabe
000000d0: bbf5 8fbe 85af c9be 6fa9 a7be c88a b2bc
000000e0: b31f adbe c8f8 a0be f3b4 933e 1d31 00be
000000f0: 0f0c e43e d368 323e f9f0 25bd 2c48 f03e
00000100: 23ed f83d ca31 8c3e bce7 01bf 7527 ce3e
00000110: 2d20 fe3c 851f e23e 4420 603e c1e9 9ebd
00000120: e306 d33e 5f3d 3abe 91ad 93bd 02bf 8e3e
00000130: 1aeb 983e 39fc 8c3e 2d98 b1be 06a6 943d
00000140: cc01 bdbd 6b63 27be 551a ac3e fdc0 41be
00000150: fe27 933d 2c36 1a3e a0ca 9cbe 5710 4bbe
00000160: 37f3 3dbe 91b6 c63e 2a51 26bd fad4 b6be
00000170: 6c18 163e 9bcb d43e 3bea a1be a514 ad3d
00000180: a340 cbbe 9112 f1bc 1412 f3be 618e 9fbd
00000190: fee0 72be 9018 273e 82eb aa3d eb9c 65be
000001a0: 6f9d 22be 1bc6 53be 0010 993e 1ef8 253e
000001b0: b885 c43c 72b1 163e c6f0 b3be 7e17 f23e
000001c0: fb26 d5be 4ab2 503e 3f32 e7be dc86 b5be
000001d0: a5d9 b4be d40c 353e 8336 ff3d 2461 f93d
000001e0: 88a5 32bd 6cf3 7d3e 977a 723e 756d a9be
000001f0: 6d90 d6bc c12c c83e a69f 823e ba90 e73d
00000200: f50c ab3e 12ad f03c 286c 8c3e e3f5 c23d
00000210: e6a5 5abe ff29 233d 53ab d4bd 6215 f53e
00000220: f3f5 1dbe 135a 1a3e 386b 993e 021e bb3e
00000230: 549e bb3e 95f8 0a3e bf11 96be 8351 073e
00000240: 3ca7 7dbe a65c 3e3e 9e88 eebd 5d25 953e
00000250: fd47 fb3d 9ad4 b53e 4b77 bfbc 9850 1fbe
00000260: 686e 26be afbd a83e 1d56 293e db05 453e
00000270: e369 d6be fbde 14be c58c ddbe ae6a 533d
00000280: eea5 073c aedf bdbe cd76 6d3e 9742 913e
00000290: 5cc2 a33c 9f11 fd3d 0233 11be 2874 fa3c
000002a0: 9a8e 003e 28f3 8cbd 4f0f 50be dbe9 74be
000002b0: ab92 253e 6934 d23e 8950 b93e 82c5 cb3e
000002c0: a455 c23e 0914 d73e a6a0 9e3e aaa3 653d
000002d0: 3b70 35be 3f65 6a3e 0bb9 983e 12f5 d03e
000002e0: 93e4 6abe 6fc0 e3be a5a6 28bd 2580 03be
000002f0: 5ba2 b1be 66fe 36bd 59d8 99bd c69c 04be
00000300: 1278 ec3c 38c1 c33e 5585 a7be 7910 543e
00000310: a8cd 9e3e 12a2 853e 76a4 bd3e 051e d3bd
00000320: 4da5 cdbc ff4f 253e 0e76 67be b314 c5be
00000330: 4683 aa3e f82b c83e ef34 4c3e e810 d73e
00000340: 5ebc 553e 1efa c73d 0b0d c1be 9303 4a3e
00000350: 0e8f a2be 889d 02bf 1cee 813e ca84 863e
00000360: 8566 3a3e f308 c43d 8b87 2c3e 1590 bfbd
00000370: e514 ec3e d869 293e a7de eb3d 284c a93e
00000380: 649b cbbe 3dc8 c7bd 3832 ce3e 8800 863e
00000390: aeb1 9a3e fc2b 543d e393 a3be b390 8b3e
000003a0: d54a a6bc 80b0 b6be 2db4 d9be 7c8e 5f3e
000003b0: c98d 1e3d e32c ba3e 752a c43e e9e6 dfbd
000003c0: d4e5 72bd b2d3 06be 0418 9bbe b3b2 e03e
000003d0: 48cd 363e 40f4 cf3e 118a 683e e2dd cd3d
000003e0: 0f5c 86bd 093a 8bbe 7e50 bfbe 0c79 a73d
000003f0: e1e2 653d 5a5b e1bd 388d 9b3e e087 95be
-0.10072746 -0.13363989 -0.06113995 0.2934926 0.2937661 -0.35281587 -0.05121303 -0.19714639
-0.2633324 -0.22143008 -0.23594521 -0.41916734 0.5288645 0.058366314 0.4001616 -0.13404895
-0.081823416 0.095679276 0.51168555 0.063644744 -0.35817692 -0.48080227 -0.029770251 -0.21892047
-0.4934078 0.32143247 -0.14544733 -0.018874776 0.048787683 -0.27710766 0.46022794 0.30667636
0.050354946 -0.3791606 0.44261009 -0.3849518 -0.37629467 0.4207767 0.003071995 -0.036902655
0.112536155 0.21977852 0.4133905 0.5175791 -0.011557693 -0.027291212 0.43357748 -0.16143133
0.058766447 0.4486628 -0.4879429 -0.42728204 -0.28117165 -0.39391723 -0.32746455 -0.021794692
-0.33813247 -0.31439805 0.2884899 -0.12518735 0.4454045 0.174228 -0.040513013 0.46930063
0.12154605 0.27381736 -0.50744224 0.40264478 0.031021202 0.44164672 0.21887308 -0.07759429
0.41216192 -0.18187474 -0.072108395 0.27880102 0.29866868 0.2753618 -0.34686413 0.07258229
-0.09228858 -0.16346519 0.3361384 -0.18921275 0.07185362 0.15059727 -0.3062334 -0.19830452
-0.1854981 0.38811162 -0.040604748 -0.35709363 0.14657754 0.4156159 -0.31624016 0.08451203
-0.3969775 -0.029427798 -0.4747473 -0.077908285 -0.2371864 0.16317964 0.08345701 -0.2242314
-0.15880369 -0.2068104 0.2989502 0.1620793 0.023989543 0.14716128 -0.35144633 0.47283548
-0.41631302 0.20380512 -0.45155522 -0.35454452 -0.353223 0.17680675 0.12461569 0.12176731
-0.043614894 0.2479989 0.23679577 -0.33091322 -0.026191914 0.39096645 0.25512427 0.11306901
0.33408323 0.029379401 0.27426267 0.095195554 -0.21352348 0.039834972 -0.1038424 0.47867876
-0.15425853 0.15073423 0.29964614 0.36546332 0.36644232 0.13571389 -0.29310414 0.13214688
-0.24770826 0.1859003 -0.116471514 0.29130068 0.1226959 0.35513765 -0.023372313 -0.15558088
-0.16253054 0.32957217 0.16536756 0.19240515 -0.4187766 -0.14538185 -0.4327146 0.05161541
0.008279307 -0.37084717 0.2318985 0.28371117 0.019990139 0.123568766 -0.14179614 0.030572966
0.12554398 -0.06882316 -0.2031834 -0.23917334 0.1616923 0.4105561 0.36194256 0.39799124
0.37955964 0.42007473 0.3098194 0.056064285 -0.17718594 0.22890185 0.29828677 0.40811974
-0.22938757 -0.44482753 -0.04117455 -0.12841852 -0.3469418 -0.044676207 -0.07511968 -0.1295043
0.028865848 0.38233352 -0.32718912 0.20709409 0.31016278 0.26100212 0.37039536 -0.1030846
-0.025103236 0.16143797 -0.22603628 -0.38492355 0.3330328 0.39096045 0.19942068 0.42005086
0.20872638 0.09764503 -0.37705263 0.19727926 -0.31749767 -0.51021624 0.25376976 0.26273185
0.1820317 0.095720194 0.1684858 -0.09353653 0.4610969 0.16544282 0.11517077 0.33065915
-0.3976699 -0.09754989 0.4027269 0.2617228 0.30213684 0.05179976 -0.31948766 0.27258834
-0.020299355 -0.35681534 -0.42520276 0.21831697 0.038709436 0.3636237 0.38313642 -0.109327145
-0.059301212 -0.13166693 -0.3029176 0.43886337 0.17851746 0.40616035 0.22708918 0.100520864
-0.065605275 -0.27192715 -0.37366098 0.08177385 0.05612457 -0.11003752 0.3038118 -0.29205227

net.1.freq_scale.weight f4 [256, 128]
00000000: 39a9 203e 9d29 e9bd b098 73bc 55cd b0bd
00000010: 25cd d5bb 3ba9 09bd 3e4c b4bd c8ba 443c
00000020: ea12 b1bd 2495 163e 7930 c33b 90f9 fa3d
00000030: 989d 3d3e 9f43 993c 2661 083e 47cb 43be
00000040: a1ad ecbc 8392 243c 92a4 4ebd 4216 e43d
00000050: 2469 323e 2c07 0bbd d6d6 b73d a6ce 973c
00000060: d397 333e f92a c1bc 535a 983d 422b 6bbd
00000070: 714a c3bd fdce a33d 1777 b93d a7f2 26be
00000080: 4ddd 143d 20a6 c43d d49e a73e 1be9 f73c
00000090: 7ecd 1dbe fde1 0f3b a9b0 89bd dc8a 853d
000000a0: e744 393e bcf2 22be 8c65 293e a12c c2bd
000000b0: dd5c c1bd a639 9fbe 0cad 98bc 8690 4dbd
000000c0: f24f ba3c 514e cd3d 3ae1 bbbd 162f f4bd
000000d0: 376d 813c 15d7 a83d ff3b c1bc 650a 26bd
000000e0: c688 1abe 886f e6bd e871 cfbd 04bc ae3d
000000f0: b54a 573d 3169 c1bc aeca c7bd dd78 2a3d
00000100: 0f59 4cbc 0cea 67bd d808 87be 8e9e 15be
00000110: 0adc 92bd bcb2 c7bc 472b a7be d0ce 5b3e
00000120: 9650 03be 9071 143e e24b 47bd df54 533d
00000130: c156 173d 327f 67bd 8cdc 063d e50f 1f3e
00000140: c47d f8bc 1844 a0bd 0d62 17bd 6758 4cbd
00000150: 68aa aabe 3cd0 2cbe e3ad 7fbd 8d94 353d
00000160: 6c65 1d3e 20e9 a1bd 45b3 fdbc 4b8a 843c
00000170: c40b 803d 5b45 193e 3d03 aa3d 410a f2bd
00000180: 7c34 15be 444b 41be 5cc3 163d 1fad 92bc
00000190: b3b1 a93d 38e2 183e 0c2a 0fbe c946 0cbe
000001a0: edfe 4c3e e3c7 82be c9af 49bd 42b8 883d
000001b0: 4bcd 7fbd e58d 033e 2d5c 2bbd 341c 1dbe
000001c0: 7a7c e5bd cf37 66be ee52 4d3c 304e 1f3d
000001d0: 5c0d 263c 329e 953d 482d d83c 2c6a ec3b
000001e0: 505c debc 51c9 edbc 9e62 a43c f0ed 87be
000001f0: 5c3f a13d a57b 283d cdb3 30bd 1c3c 4abd
00000200: 46cc 063e f941 7fbd 0211 46bd ce64 c8bb
00000210: 8369 8f3d ed91 ba3c bdc5 ce3d 9a36 373d
00000220: 0724 d73d cdff 03be a15b a63d c779 8c3d
00000230: fda7 00be c163 763d dc58 43be a393 8fbd
00000240: cf7c fdbc 7310 eb3b b2a6 133e 3dbd eabd
00000250: 1ce0 eb3d 90d2 b13d f8b4 f43d 0e91 9abb
00000260: c04d 64bc 457f 03be e42e bdbd 7243 89bb
00000270: 5084 503d 6ed9 bc3d f460 27bc fe16 1ebb
00000280: 2457 5c3e b632 74bd 059b af3c 7a38 25bd
00000290: 1922 033e e86f 17bd f7f3 a1bc 8267 a73d
000002a0: 67a1 23bd ebca 12be f828 d33c 267f fa3d
000002b0: 841e 4b3d a626 033e 452f f73c 187e dcbd
000002c0: 4e9a fcbd e462 c83d b0a3 36bd a694 143d
000002d0: 5117 893c d64c 753d c747 aa3a 6a00 b5bd
000002e0: d640 04bd 243a 49bd 1640 a53c 909b e1bd
000002f0: 1204 8ebd 02b6 10bd 097f a0bc bd86 d53d
00000300: c3f9 0dbc 946b 97bd 915d 89bd 28eb 833c
00000310: f396 d0bd 9191 fb3d eae7 87bd a6b4 20be
00000320: 6196 4fbe 3337 6e3d 8194 9bbc fc30 18be
00000330: c74a 8cbc e8ca 2e3d 6182 85bd bb0a 16bc
00000340: 229f 92bd 898b d3bd 66ee 7f3e 3266 a1bc
00000350: 03f8 c7bd c8bb a2bd 5dfe ec3c 76d4 adbd
00000360: c140 0fbe 0fc4 bcbd 00b0 bfbd 832c 59bc
00000370: 9e11 88bc e55b 2fbd d063 4b3d c770 203e
00000380: 78b0 d3bc d649 983d 204c 4e3e 4888 f1bc
00000390: e3a7 b13c 91f7 3fbd 8ab1 ce3d b89f e0bd
000003a0: a3e5 cabd 5017 40bd a817 c1bd 86e1 063d
000003b0: f579 8bbd 8178 51bd 2624 85bd d5cd 9a3d
000003c0: 8b0d 81bd 7b06 18bc b30a 343e 6fba 2b3d
000003d0: 8049 d93d 98da 2cbc 1ec9 9f3d dd2e 233e
000003e0: 9220 a13d fda5 a93c 0437 12ba fdc8 013d
000003f0: 2ecf 8a3d 0140 54bd df7b e2bb df2d 063d
0.15689553 -0.1138489 -0.0148679465 -0.08632914 -0.0065246993 -0.033608656 -0.088036045 0.012007423
-0.08646186 0.1470533 0.005956706 0.122546315 0.18517148 0.018709002 0.13318309 -0.19120513
-0.028891386 0.010044697 -0.050449915 0.11137058 0.1742292 -0.033942387 0.089765236 0.018531155
0.17538385 -0.023580061 0.07439103 -0.0574143 -0.09535683 0.07998464 0.09055918 -0.16303502
0.03634386 0.09601998 0.32738364 0.03026252 -0.1541042 0.0021954768 -0.067231484 0.06520626
0.1809269 -0.15912908 0.16542643 -0.094811685 -0.094415404 -0.3109867 -0.018637203 -0.050186656
0.022743199 0.10024703 -0.09173818 -0.119230434 0.015799148 0.08244149 -0.023588179 -0.040537257
-0.15091237 -0.11251742 -0.10129148 0.08531955 0.05256148 -0.02360973 -0.09755455 0.04161917
-0.012472405 -0.05661969 -0.26373935 -0.14611265 -0.07170875 -0.02437722 -0.32650205 0.21465611
-0.1282371 0.14496446 -0.048656352 0.05159461 0.03694797 -0.056517787 0.032925174 0.15533407
-0.030333407 -0.07825488 -0.036958743 -0.049888995 -0.33333135 -0.1687631 -0.06242169 0.044331122
0.1537072 -0.07905793 -0.030969271 0.016179224 0.06252244 0.14967863 0.08301399 -0.11818362
-0.14570802 -0.18876368 0.036807403 -0.017904816 0.082858466 0.14930046 -0.13980883 -0.13698877
0.20019121 -0.25543126 -0.049239907 0.066757694 -0.062451642 0.12847097 -0.041835953 -0.1534279
-0.11205383 -0.22482227 0.012531979 0.038892925 0.010135021 0.07305564 0.02638878 0.007214805
-0.027143627 -0.02902666 0.020066556 -0.2654872 0.07873413 0.04113354 -0.04314022 -0.04937373
0.13163862 -0.062318776 -0.048356064 -0.0061155325 0.07002547 0.022774661 0.10096309 0.044729806
0.105049185 -0.12890549 0.081229456 0.06859165 -0.12564082 0.060153726 -0.19076866 -0.07010581
-0.030943302 0.0071735918 0.14419058 -0.114618756 0.11517355 0.0868274 0.119485795 -0.004716999
-0.013934553 -0.12841518 -0.09237459 -0.0041889483 0.050907433 0.09221159 -0.0102159865 -0.002412259
0.21517617 -0.059618674 0.021436224 -0.040337063 0.12805976 -0.036971956 -0.019769652 0.081740394
-0.039948847 -0.1433522 0.025776371 0.12231283 0.04958965 0.12807712 0.030173907 -0.10766238
-0.12334119 0.09784487 -0.0445897 0.036274575 0.016734751 0.05988773 0.0012991362 -0.088379696
-0.032288395 -0.049127713 0.02017216 -0.11015999 -0.0693437 -0.035329826 -0.019591825 0.1042609
-0.008665505 -0.07393566 -0.067072995 0.016103342 -0.10185041 0.12283624 -0.06636031 -0.15693912
-0.20272209 0.05815811 -0.01899171 -0.14862436 -0.0171255 0.042673975 -0.065190084 -0.009157832
-0.071592584 -0.103293486 0.24993286 -0.01970205 -0.09764101 -0.07945973 0.028929884 -0.08487789
-0.13989545 -0.09217083 -0.09359741 -0.013255241 -0.016609963 -0.042812247 0.049655735 0.15668021
-0.025840983 0.07435958 0.20146227 -0.02948393 0.0216865 -0.046866957 0.10092457 -0.10967964
-0.09907081 -0.046897233 -0.0942834 0.03292992 -0.06810371 -0.051140312 -0.065010354 0.075587906
-0.06301411 -0.009278889 0.17582206 0.041925844 0.10609722 -0.010550164 0.07802032 0.15935846
0.078675404 0.020709032 -0.0005577656 0.031685818 0.06777798 -0.05181885 -0.0069117392 0.03275859

net.1.freq_scale.bias f4 [256]
00000000: a408 683d b69e 33bd a9c5 21bd fefd 93bd
00000010: 97a7 17be 780c 7cbb 67db 44bc e8c8 87bc
00000020: 1a01 a9bd a397 a8bd fe18 0b3c 372f 993c
00000030: 0a1a 023b baaa 2c3d 60d1 05bc f35f 9c3c
00000040: 6263 13bd de96 b8bd 51d2 773c cec0 50bd
00000050: 9557 8fbc f3d4 f53d d76c c53a 16b5 b1bd
00000060: 96c2 87bd 0c14 313d 7c4a a83d affe 5dbd
00000070: 96d5 84be e474 a93b 37b6 f23c bbf8 29be
00000080: 80ff babd 28b0 d03d 270d 333e ee72 5fbd
00000090: d049 1ebd d6a1 20bd 8122 69bd 65a8 afbb
000000a0: 559f a8bd d26d 7cbd 12c5 bc3c f70a 1bbd
000000b0: 4152 debd 405d 13bd 07c7 273e 52ca 483b
000000c0: 97cc 943d 058b f3bb 2a08 2b3d 495a 273c
000000d0: f85b 93bc 0564 85bd f9eb a43d 54cc 09be
000000e0: 9b9d 0cbd 1d2a 00be fa0b 1f3e 420e c93d
000000f0: bf63 51bc 0dda c5bd 18ef 40bd 94a7 003e
00000100: cf3a dd3c 6fdd 87bc 5354 aa3c d810 94bc
00000110: 210a 9d3c 9bc7 ce3d 6f2c 5cbd 8469 8fbd
00000120: f8c3 ecbc 7521 89bd b707 503e d47e 77bd
00000130: e89a 34bc 29d5 0abe 3c3f ce3d 1c2b e1bc
00000140: 00fa 073e 7a3d a8bc 2a45 c63d 2ff7 23bd
00000150: 8276 95bd cb70 cb3c b257 80bd 7282 7c3d
00000160: 1d38 b83b e98d f7bd 4983 7dbd a815 ef3d
00000170: 4f17 5fbd 2847 8ebd 48a1 efbd 4e81 d3bd
00000180: 1e3d 5ebd 727e 103e 2cdf eabc a185 dd3d
00000190: c54d 4a3c 3b68 8d3d 106c 32bd f992 13bd
000001a0: cc67 1f3d 422e 80bd 8d64 be3c 33f3 023e
000001b0: 6678 38bd 5137 55bd b3be 1e3d fadb 64be
000001c0: f522 e9b8 7853 05be 15a3 62bc efd9 e3bc
000001d0: c18f 773d 3a31 58bd 8d41 a0bd 7008 0c3c
000001e0: b40f ea3d 87eb 44bd 9e51 92bd 3a25 093e
000001f0: 5541 a53d 9d09 343d b312 933c 0630 803d
00000200: f82d adbd a998 a93d 6db5 c7bb 9e03 9c3d
00000210: 3576 873a 445e ffbd 20cb 11bd 08a7 bbbd
00000220: b0e7 18be 3aed 6b3d 4662 a7bd e473 c13d
00000230: 86a8 f3ba c3ca bbbb 1159 89bd 99eb ce3d
00000240: ce7c f5bc 47fc 0c3d cc9c 723d 78c9 9dbc
00000250: 67f8 0a3b f090 563b 0783 3fbc 61f9 583d
00000260: 2ee2 7b3c a7c1 623d 8ce5 4a3d 7b93 a7bb
00000270: 3809 993d 9896 d03c 5d73 933d 6755 afbd
00000280: 035a 943d 840f 1bbd 32e8 823d a475 8c3d
00000290: 5f67 5ebb d06c b8bd c317 69bd d2b7 773d
000002a0: 927f 873d 178d cabd 1f00 83bd 5671 74bd
000002b0: 450d 003d b2cc 87bd eb08 5e3d 369b d03d
000002c0: 0703 ac3d 80cd 0f3c d260 ebbd 8a64 3ebd
000002d0: f9d6 9f3d 3541 683d 9f6d 073b 7081 cdba
000002e0: 8cd4 2dbd dd1c 80bd 1c76 e7bd b012 083d
000002f0: b6aa aabd 3d81 223d 7c29 6f3c a18f 003d
00000300: 93e4 7abd 19e3 a6bd d716 a23d 88a0 cb3c
00000310: fb17 9d3d 948a 0cbe fea5 933d 73c3 7b3d
00000320: 29bf 16bd f3f0 c4bd f5dc c33d 2bb2 00be
00000330: a525 ab3b 137f bc3d 4219 47bd f7df 7abd
00000340: 69fb 3ebd e635 e0bc 876a 5ebd b7ae 7b3d
00000350: 67df 0c3d d5ab 233b 1491 e43d 7189 8d3d
00000360: 8712 823c a5a6 363d 8250 cabc 1c5b 0ebd
00000370: 3119 06be 10b2 c23d e280 053d 7f9c f63d
00000380: daf8 cbbd f5dd 7fbc 9167 5abc 7437 ea3c
00000390: d1ce 4b3d f679 10bd 6f1a 72bd 1027 c4bd
000003a0: f44f b63d 8f65 a93c 3805 833d fdc1 16be
000003b0: d894 4e3d 1c33 7c3d ede5 493d 0d37 42bd
000003c0: c11f 83bd d9a9 373d cb67 8bbd 70a7 af3d
000003d0: ee51 3a3d 665e 61bc 5559 de3d 84ef 653d
000003e0: e3cf 5cbd 7308 903d f33a acbd 8b74 c4bd
000003f0: 8b2e d5bc 0774 0c3d 1ea3 6abd 12b2 343c
0.056648865 -0.04385253 -0.039495144 -0.072261795 -0.14810024 -0.003845958 -0.0120152 -0.016575292
-0.08252163 -0.082320474 0.008489845 0.018699272 0.0019851946 0.042155005 -0.008167595 0.01908872
-0.03598345 -0.09013151 0.015125827 -0.050965123 -0.017497817 0.120035075 0.0015062344 -0.086771175
-0.06628911 0.04323201 0.08217332 -0.054197963 -0.25944203 0.005171405 0.029627902 -0.1659879
-0.09130764 0.10189849 0.17485486 -0.054552965 -0.03864461 -0.03921684 -0.05691767 -0.0053606504
-0.08233515 -0.06162817 0.02304319 -0.037852254 -0.108555324 -0.035977602 0.16384517 0.003063817
0.07265585 -0.007432344 0.041755833 0.010214397 -0.01798819 -0.06513218 0.08052821 -0.13456851
-0.03432999 -0.12516065 0.15531912 0.098171726 -0.012780129 -0.096607305 -0.047103018 0.12563926
0.027005581 -0.01658508 0.020792162 -0.018074438 0.019169869 0.100966655 -0.053753313 -0.070025474
-0.028902039 -0.066958345 0.20315443 -0.060423687 -0.011023261 -0.13557877 0.10070655 -0.027486376
0.13278961 -0.020537127 0.09681161 -0.040030655 -0.07297994 0.024834057 -0.062667266 0.06164784
0.0056219236 -0.12087614 -0.06189278 0.116740525 -0.05446559 -0.06947166 -0.11700684 -0.10327397
-0.054257505 0.14110735 -0.02867087 0.10816503 0.012347643 0.06904646 -0.043560088 -0.036028836
0.038917348 -0.06258823 0.023241306 0.12788086 -0.045036696 -0.052054707 0.038756084 -0.2234954
-0.00011116817 -0.13020122 -0.013832827 -0.02781388 0.06043983 -0.05278132 -0.07825003 0.0085469335
0.114287764 -0.04807618 -0.071444735 0.13393107 0.08069102 0.04395448 0.017953252 0.0625916
-0.084560335 0.08281071 -0.0060946257 0.076178774 0.0010334911 -0.124691516 -0.035594106 -0.09162718
-0.14932132 0.057599284 -0.08173041 0.094459325 -0.0018589653 -0.005730958 -0.06706441 0.101035304
-0.029966738 0.034420278 0.059231564 -0.019261107 0.0021205188 0.0032740198 -0.011688954 0.0529722
0.01537375 0.055360463 0.04953532 -0.0051140166 0.074724615 0.025462434 0.07199738 -0.08561211
0.07243731 -0.037856594 0.06391944 0.06858376 -0.0033936126 -0.09005129 -0.056907427 0.06047804
0.06616129 -0.09890192 -0.063965075 -0.059678398 0.031262655 -0.066308394 0.054207724 0.10185854
0.08399015 0.008777022 -0.114930764 -0.0464826 0.07804675 0.05670281 0.0020664704 -0.0015678834
-0.04243903 -0.06255505 -0.113018245 0.033220947 -0.08333342 0.039674032 0.014597293 0.031386975
-0.06125314 -0.08148784 0.079145126 0.02485682 0.076705895 -0.13724738 0.07209395 0.06146569
-0.0368034 -0.0961627 0.095636286 -0.12567966 0.0052229934 0.09203925 -0.048608072 -0.061248746
-0.046626482 -0.02736945 -0.05430081 0.061445918 0.03439274 0.0024974246 0.11160484 0.069109805
0.015877975 0.04459252 -0.024696592 -0.034754857 -0.13095547 0.09506619 0.032593615 0.12041568
-0.09959574 -0.0156168835 -0.013330356 0.028590895 0.049757782 -0.03527256 -0.05910724 -0.09577763
0.089019686 0.02067831 0.0639748 -0.14722438 0.050434917 0.06157218 0.04929154 -0.04741578
-0.06402541 0.044839714 -0.06806906 0.08576858 0.04548829 -0.0137554165 0.108568825 0.056136623
-0.053909194 0.070328616 -0.08409681 -0.09592541 -0.02602317 0.03429034 -0.057284467 0.011028783

net.2.freq_scale.weight f4 [256, 128]
00000000: 7721 cbbd 8c7d 13bd 5337 0c3d fa60 b8bd
00000010: 3bcc e4bd 3a23 173c 1c00 973d b4c1 5a3d
00000020: 481e fcbd 8fd9 303d f6dd 8ebb 18ca 51bd
00000030: 7d0c b23c 97ea 903c 49ed 4a3c bbb7 543b
00000040: 87f8 acbd e5f3 89bd d2ce 46bd 6e6e b23d
00000050: 8d70 cdbd a07a 81bd cf52 d83d e075 34bd
00000060: a0f1 efbc 7523 37bd 823a 2dbd d164 11bd
00000070: b2b9 5d3d 9c88 babc c087 d33d 3305 e53a
00000080: 3f6a 34bc 1761 04be d721 bbbd 1098 a9bc
00000090: 7b4b bc3c f4b5 883d a77b 743d 428b 50bd
000000a0: 896d 7fbd 719c 8bbd a93d b63d 9442 e13d
000000b0: 1efa 83bc fd4e fd3c 3a5a 183d bb0d 223c
000000c0: 500a 9c3d 037f 763d e4ad 7b3d 822e a43d
000000d0: af30 f4ba 3d11 cebd 55e1 863d 2c90 12bd
000000e0: c6d1 21bd 9b09 983d 75a4 533d a7ee 1b3b
000000f0: 29e8 d23d e92b 84bd 7793 013d 2ca6 1d3d
00000100: 5347 8a3d 3758 18be dd14 0ebd b8f7 9bbd
00000110: d4a8 da3b d274 28bd df1e 2e3d 6a0f 933d
00000120: 5032 81bd 70a7 fcbc 02ec 133c 28f5 30bd
00000130: 8226 123d 34f6 763d a266 e4bc efbf 86bd
00000140: 01d0 66bc a994 0dbc 8ebd 46bd 4f0a c9bd
00000150: 04a1 df3b 3efd 82bd f32e 17bc e102 bcbd
00000160: bb31 133e 6eaa 293e 19a5 c8bd efa8 05be
00000170: 33f1 c43b 7c3b 413d 1f73 cfbc 1426 db3d
00000180: 1bb9 13bd 03dd 3e3e dffe adbd 842c 1c3c
00000190: 6e6e 6b3d 23ad 0ebd 35ac 743d 9f76 683c
000001a0: 12e9 44bd 3d9f 1d3d 042e bdbc f9fc 9d3d
000001b0: 0516 edbc 8aec 64bd 5bd8 81bd 0e7e 3a3d
000001c0: 5a72 87bd 88eb a8bc 91f7 163c 6818 fdbd
000001d0: a89e 06bd a7dc 88bd 4773 1abc 090d 96bd
000001e0: eb9d 873d 3cd3 0dbe 47fd 87bc c2b0 3c3d
000001f0: 218f 02bd f121 973d 5913 adbd b2bb 5c3d
00000200: 611b f43c 7cfd aebd 4108 0dbe 5568 b9bd
00000210: 34f9 eabd 1ee5 05be 6d28 07be 62ac abbd
00000220: 3d1a 44be 4ebe 0abd 2ead babd 6bbe 123d
00000230: d4cd 333d 5037 5dbd 887b 47bc b708 24bd
00000240: 6759 9abd b276 bdbd 5843 0cbd a450 89bd
00000250: 9f60 8bbd 3915 02be 8a65 613d 5d92 f2bd
00000260: 4199 e4bd a1d3 fabd d1d5 6fbd 2652 cb3c
00000270: 2917 853c 3d48 27bc 3ca1 02be c848 fdbc
00000280: 7b95 d4bd 3169 183c e15a d5bd 07cb 663d
00000290: 68e7 2d3d bb59 34bd c939 d8bc a2ae 163d
000002a0: f08d 2dbd 2680 613d 79e0 c7bd 092a e33a
000002b0: 2e3a 28bd 01c5 d9bd 5ceb 1e3c dfed d33c
000002c0: d099 1f3d fc3c 91bd 651f c8bd 1d13 85bd
000002d0: 5680 0cbd 47c1 0f3d 6084 92bd 2613 a13d
000002e0: 73f9 cabd 79ba e0bc bc26 95bd bfb3 03be
000002f0: 1c40 11be f13f 83bb 40ca a4bd 23c2 be3c
00000300: 3723 4ebd 6d8e e6bd f7f8 753c 833e 2f3d
00000310: 5e55 9dbd 5fc8 c8bd 5c76 0fbe 574c 3bbd
00000320: d854 043d 1cc6 18be 30e9 bcbc 7cad bbbd
00000330: 3f82 7bbd b4a7 78bc bac8 10bd 9802 d9bd
00000340: 3563 603c f969 e8bd b7cb 9abd c2cd 6bbd
00000350: efce 483d 887d f2bd 8dfd 2b3c 5933 cabd
00000360: a112 3f3c ce44 b2bc ce5b b9bc b2de 9abc
00000370: d7e6 3ebd 8af2 e3bd 2ce9 abbd 02e8 a8bd
00000380: 5130 a0bd efe2 4d3d 1bfd 19bd 737d aabd
00000390: ef27 3e3d 08da 313d f33a 96bd 59d1 d9bc
000003a0: ce9b 663b 4f80 bbbc 406c 9abc fb1e 99bd
000003b0: 9066 f4bd 8224 6c3c 2e7f a4bc 7008 bcbd
000003c0: 3796 c5bd 8df5 aabd 3eb1 bebc b1c4 e5bc
000003d0: 5e95 bf3b 04bf 933c 8912 893c 5c78 e7bd
000003e0: 63c8 1ebc af2a 493c a6b0 2a3c ef7d 60bd
000003f0: 63cb d73b efdb d5bc 10b5 cebc 21ec efbd
-0.09918492 -0.036008403 0.03423245 -0.09002872 -0.11171766 0.009224707 0.07373068 0.053407386
-0.12310463 0.04317623 -0.004359956 -0.051218122 0.02173447 0.017689986 0.012385675 0.0032458145
-0.0844584 -0.06735972 -0.048537083 0.08712469 -0.10031233 -0.06322217 0.105626695 -0.044057727
-0.02929002 -0.04471155 -0.042292126 -0.035496537 0.05413217 -0.022770219 0.10328627 0.0017472863
-0.011011659 -0.12927662 -0.09137314 -0.020702392 0.02298521 0.0667533 0.059688237 -0.050914057
-0.06236032 -0.06816948 0.088984795 0.10999027 -0.016110476 0.030921454 0.03719542 0.009890969
0.076191545 0.06017972 0.061445132 0.08016683 -0.0018630231 -0.10061882 0.065859474 -0.035782024
-0.039506696 0.07423707 0.05167051 0.002379337 0.10298187 -0.06453688 0.031634774 0.038488552
0.06751885 -0.14877401 -0.034687866 -0.07615608 0.006672958 -0.041127034 0.04250991 0.071806744
-0.063084245 -0.03084156 0.009028437 -0.04320255 0.035681255 0.06029339 -0.02788097 -0.06579577
-0.014087678 -0.0086414 -0.048520617 -0.09816419 0.0068246145 -0.06395958 -0.009227502 -0.091802366
0.1437444 0.1656892 -0.09797115 -0.13052724 0.0060101985 0.04717587 -0.025323449 0.10700622
-0.036065202 0.18638997 -0.084958784 0.009532098 0.05747836 -0.034833085 0.059734542 0.014188438
-0.048073836 0.03848194 -0.023093231 0.07714266 -0.028941164 -0.055889644 -0.06340095 0.04553037
-0.06613608 -0.020620123 0.009214298 -0.12358171 -0.03286615 -0.06682711 -0.009426898 -0.07326705
0.06621917 -0.13850111 -0.016600264 0.046067007 -0.03187478 0.07379521 -0.08450956 0.053889938
0.029798212 -0.08544442 -0.1377268 -0.09053103 -0.11473313 -0.13075683 -0.13199015 -0.08382489
-0.19150634 -0.033872895 -0.09115063 0.035826128 0.043897465 -0.05400783 -0.012175448 -0.040047374
-0.075365834 -0.09251155 -0.03424391 -0.06704834 -0.068055384 -0.12703408 0.055028476 -0.11844323
-0.11162043 -0.12247396 -0.05855352 0.024819445 0.016246395 -0.010210094 -0.12756819 -0.030918494
-0.10380074 0.009302423 -0.104177244 0.056345966 0.042457014 -0.044030886 -0.026394742 0.036787637
-0.04237169 0.055053852 -0.09759612 0.0017331253 -0.04107111 -0.10633279 0.009699669 0.025870262
0.038965046 -0.0709171 -0.09771613 -0.06497786 -0.03430208 0.035096433 -0.07154155 0.078649804
-0.0991086 -0.027432667 -0.072827786 -0.12861536 -0.14184612 -0.004005425 -0.080463886 0.023285931
-0.050326552 -0.11257634 0.015012971 0.042784225 -0.07682298 -0.09803843 -0.14009994 -0.0457271
0.032307476 -0.14919323 -0.023060411 -0.09163949 -0.06140351 -0.015176702 -0.035347678 -0.10596198
0.013695528 -0.11348338 -0.07558387 -0.057569273 0.049025472 -0.118403494 0.010497463 -0.09873075
0.011662156 -0.021761324 -0.022626784 -0.018905018 -0.046606865 -0.11130245 -0.083940834 -0.08247377
-0.078217156 0.05026525 -0.037594896 -0.08324709 0.046424802 0.04342082 -0.073354624 -0.026589083
0.0035188082 -0.02288833 -0.018850446 -0.07476612 -0.11933625 0.014413001 -0.020080175 -0.09181297
-0.09647792 -0.08347616 -0.023277875 -0.028047891 0.0058466634 0.01803542 0.016732471 -0.113022536
-0.009691331 0.012278243 0.010418093 -0.0548076 0.006585525 -0.02610585 -0.025232822 -0.1171496

net.2.freq_scale.bias f4 [256]
00000000: b6bb 323c 6551 b1bd 8c57 f23d dcb1 7abc
00000010: dc54 803b da25 c53d 2b77 a93d a3a2 d4bc
00000020: f198 133d 8a19 2f3d 3dd0 1bbc 2443 d73d
00000030: 4fe9 1d3d 10a9 823d 42ec e83b f261 6a3d
00000040: d8db e5bc 017c 55bd 0dbd 20bd 12c1 12bd
00000050: a360 47bc 2caf b83d 9e4d ba3d f95b 24bd
00000060: c3aa 123e bdf8 28bd 08a3 8abc 1335 e33c
00000070: 6a06 213d 66f3 933d b68f e33d dce8 b3bd
00000080: 60aa 9c3c 56fe c33d 092e 463d 3bd0 a6bd
00000090: ff01 74bc d239 89bc dedf 4cbd 6dcb 6f3d
000000a0: 560e 80bb 9782 e9bd 568f 743c bf10 3f3c
000000b0: cff6 9b3b b37c cbbc 7a2a 333a 8338 bdbd
000000c0: d743 2ebe 821b e73a 2126 2dbd 1905 fd3d
000000d0: d72b f73c 7e5d a7bd 244b 983d 3f8a da3c
000000e0: 8ca2 bd3d bb34 d33d 3fd1 aa3d a2b2 753b
000000f0: 3c90 96bc f78c 743d a2a5 93bc 91e8 cfbc
00000100: ff31 75bd 2905 493c 5292 8b3d c57c d5bb
00000110: f3d8 593d 41c5 45bd b9fc f1bc e666 833d
00000120: 9f15 063e 633f 453d bfae 753b 063e fe3c
00000130: 0424 1b3c 0304 e9bd de44 0f3d 73cd 33bd
00000140: 24d5 8d3b 170f 9fbd 7f80 1dbd afc2 86bd
00000150: 5818 1b3d af30 c93c 411d c33d 10a4 03bd
00000160: 546f 01bd abb1 ed3c 000a dfbc bb67 3bbd
00000170: f697 31bd d035 82bd cc9f 8dbd 8c11 0f3e
00000180: 3e54 193d 0e39 b23c 0acd 1f3d d058 4abd
00000190: 6b8d 88bd 53ea 3cbd ed5e 32bd 664a 723d
000001a0: bfc8 003d e24d cd3d 8be2 243d b1da e83b
000001b0: e911 d83d cb94 dd3c 3cc6 543c 7b55 723d
000001c0: 190c e7bd 0e2f a63d d660 ae3d b7e0 bb3c
000001d0: 736b 6f3c b3b6 9b3d 53a6 d1bc c215 df3c
000001e0: 4795 8b3d bd90 ccbd 3f15 e4bd 27d3 293d
000001f0: 674f 3fbd 72db f03b 2be1 3ebb 69f4 223d
00000200: 2bdd 90bd eb61 553c 3c4a 93bb 2eae 9ebd
00000210: f395 9fbd a053 b03d 1c68 72bd 4bfb cdbd
00000220: 2cff 25bc 95e9 473d f7f7 e83d cba1 c53d
00000230: 23df b4bd e1bd 223d 87dd 24bd 28f4 7c3c
00000240: 42f1 ab3d ae70 713d 8a21 ab3c 03b1 a5bc
00000250: d0bc 1f3d 7968 533b 9fea ddbc 597f 103d
00000260: 96a8 f0bd 9a20 fb3d 1cfb cebd 00fb ef3a
00000270: 4fd9 533d e257 cf3c 71ec a8bc 1db4 643d
00000280: c172 873d 0d71 113d 0993 b73d 9cc3 403d
00000290: d4a1 a0bb fc92 56bb f097 543d 4329 ac3d
000002a0: 9272 68bc 36e6 c73d 13e6 833d e015 523a
000002b0: 7eb2 abbd d40c 8e3d 928b ab3d 2d07 dabc
000002c0: ac23 2abb af08 923d 9d6c 91bc 265b 80bc
000002d0: 49b8 27bd 390d 30bd 24f0 033d 1801 873d
000002e0: 1f0b 4bbd c765 0a3d 86a6 653b 3486 6d3c
000002f0: 6e3b 353a 1dd1 ca3d f9cd 093d a876 943d
00000300: c257 b6bc 75ca 8ebc 9bea da3d d9b8 0abd
00000310: fb77 d93d e894 0cbd 86c4 dd3d 1b73 e0bd
00000320: 5aa5 94bc 4c8f 213c bad7 87bb f1e4 f2bd
00000330: 5848 fdbd cc98 d9bd 95c1 e33d af63 92bd
00000340: 6a44 99bb 506a acbd e0f8 073d a43b a13d
00000350: e6b8 953a 99f2 853c f71a 303d 6fc5 143d
00000360: 579c 3fbd 0000 2abd 0b75 b03c 0cb1 7b3d
00000370: 7f41 a4bb e9d7 193d 0624 853c 1be4 d13d
00000380: c291 0b3d ff5c 07bd 42e9 453d c6d0 793c
00000390: 0119 a13d a8fa 1cbd 5478 7c3d 9b86 213d
000003a0: 8c17 963b 44a9 5dbd d258 b6bd b8e9 50bd
000003b0: c627 5ebd 645a 013c eecf bd3d 26c3 fcbd
000003c0: 5ec3 533c 27fc 9e3d ed53 903d c7a7 b63d
000003d0: 504e 063c 63a8 c0bd 9ce9 38bc f37a c93d
000003e0: 8f5e 08be fb94 b5bd 4d21 f13c 6481 1f3c
000003f0: a2bf 98bc b60d a6bd 2acf 9b3d e7e8 883c
0.010909012 -0.08658103 0.118331045 -0.015301194 0.003916366 0.0962636 0.082746826 -0.025956457
0.03603453 0.042748965 -0.009510097 0.10510853 0.03855258 0.06379902 0.0071082423 0.057222314
-0.028058931 -0.052120212 -0.039242793 -0.035828657 -0.012169036 0.090177864 0.090968356 -0.040126774
0.14322953 -0.04125284 -0.016923442 0.027735269 0.039312758 0.07224159 0.11111395 -0.08784649
0.01912421 0.09569995 0.048383746 -0.081451856 -0.014893054 -0.016751204 -0.050018184 0.05854361
-0.003907959 -0.11401861 0.014926752 0.011661707 0.0047596465 -0.024839735 0.00068346376 -0.092392944
-0.17018066 0.0017632099 -0.04227269 0.12354488 0.030172272 -0.08172129 0.07436207 0.026677249
0.09259519 0.10312792 0.08340692 0.0037490507 -0.018379323 0.059704747 -0.018023316 -0.025379451
-0.059862133 0.012269297 0.06815018 -0.006515118 0.053185415 -0.04828382 -0.029539453 0.06416111
0.13094185 0.048156153 0.003748819 0.031035434 0.009469036 -0.11377718 0.034977786 -0.043897104
0.004328387 -0.0776655 -0.03845262 -0.06580102 0.037865013 0.024559347 0.09527064 -0.032138884
-0.03160031 0.029015383 -0.027226448 -0.045753222 -0.043357812 -0.0635792 -0.069152445 0.13971537
0.037433855 0.021755721 0.0390139 -0.049401104 -0.06667598 -0.046121906 -0.04354756 0.059152983
0.031441446 0.100246206 0.04025511 0.007106148 0.10550291 0.02704849 0.012986716 0.05916355
-0.11281604 0.08114444 0.08514564 0.0229343 0.01461302 0.076032065 -0.025592005 0.027232055
0.06815582 -0.09988544 -0.11136865 0.041461136 -0.046706583 0.0073503787 -0.002912591 0.03978387
-0.070734344 0.013023834 -0.0044949334 -0.07748066 -0.077922724 0.086097 -0.059181318 -0.10057696
-0.0101316385 0.048806746 0.113754205 0.0965 -0.088316225 0.039731864 -0.040250327 0.015439071
0.08395626 0.05894535 0.020890016 -0.020226007 0.038998425 0.0032258315 -0.027089415 0.0352777
-0.11750905 0.12262078 -0.10106489 0.0018309057 0.051720913 0.02531046 -0.020620557 0.055835832
0.066136844 0.035508204 0.089635916 0.047061548 -0.004902104 -0.0032741418 0.05190271 0.084063075
-0.014187472 0.09760706 0.064403675 0.0008014124 -0.08383654 0.069360405 0.0837623 -0.02661475
-0.0025961204 0.071305625 -0.017751986 -0.015668463 -0.040947232 -0.04298136 0.032211438 0.065920055
-0.049571153 0.03378847 0.0035041883 0.014497329 0.0006913458 0.099031664 0.033643696 0.072491944
-0.022258643 -0.017430523 0.10689279 -0.03386769 0.106185876 -0.034321696 0.108284995 -0.109594546
-0.018145252 0.009860825 -0.0041455897 -0.11860073 -0.12367314 -0.10624847 0.11120907 -0.071479194
-0.004677345 -0.08418715 0.03319633 0.07872704 0.0011422902 0.016351031 0.042994466 0.0363211
-0.046779957 -0.041503906 0.021540185 0.061448142 -0.0050126906 0.037559424 0.016252529 0.10248586
0.034074552 -0.033047672 0.048318155 0.015247529 0.07866097 -0.038324982 0.06163819 0.03943501
0.0045804437 -0.054116502 -0.0890366 -0.05100414 -0.05423715 0.007895086 0.09268175 -0.12341909
0.012924997 0.07762938 0.070472576 0.0891872 0.008197382 -0.09407117 -0.011286166 0.09837904
-0.13317321 -0.088663064 0.029434824 0.009735439 -0.018646065 -0.08108084 0.07607873 0.016712619

net.3.weight f4 [1, 128]
00000000: 29dc 3abc c88a 1a3c c6f3 243c 9ff2 cabc
00000010: 7e28 60b9 86d9 cfbc bace d8bb 7de1 84bc
00000020: 30a5 30bc 564f 3abd da30 82bc 38e1 fe3b
00000030: b428 fdbb bdb0 8d3c e467 0abc f039 ebbb
00000040: 34b9 123d 1492 d5bc 6bb3 fa3c 938e 00bc
00000050: f16b a0bc 52ce 453b 11ea 903c 1810 80bc
00000060: 62e9 373d 64ba 043c 9170 03bc 3cc4 85bc
00000070: 5ea0 583c d2de 96bc 4069 5f3d 6a08 7b3c
00000080: 572e 17bd 3258 97bc d29a 313d bf0f 31bc
00000090: 18ec 963c d9f2 863a d91f e63b 0d79 143c
000000a0: d285 82bd 7513 f8bb 2f18 a5bc d389 053c
000000b0: 0264 163d 8380 023d 657e bd3c 8fb8 1fbc
000000c0: 338f 30be 05b0 a539 04a5 27bc 8df1 92bc
000000d0: b418 65bc 2f98 143d 2cbe 543c 4051 1a3c
000000e0: 9ac8 6a3c 3f2e 493c 4f14 d1bd 8de5 733c
000000f0: a853 0dbb aaec 8f3c e5c6 24bc 0328 67bc
00000100: 010e 27bc 3463 7fbc 5ab7 afbc b05f 9e3c
00000110: 6c93 5cbd b3f0 25bc 585d 063c e167 ae3c
00000120: 2975 98bc 0d06 163d e8ba b33b 71b9 f13c
00000130: 8517 0b3c 0941 bd3c cc67 193d 366a e9bc
00000140: feb7 6b3c d7e1 293c 7f22 cabc a391 30bc
00000150: 3cab 883a 77d4 8e3c 8cd7 9d3c 2135 f53c
00000160: 77b6 9ebc 7559 c0bb bc8f 95bb 2a28 d1bd
00000170: 6dd8 9ebc c633 39bc ea9b 093c 6567 c43c
00000180: 7317 b4b9 c168 01bc bf2a 363c 0644 3b3c
00000190: 729d 2a3a 4339 3e3c 50b2 fbbb 7ac6 8fbc
000001a0: 608b babb 1e49 1d3b dd26 2fbd d637 df3c
000001b0: 2c6f bebb 1ea5 e8bc c848 08bc a906 ad3c
000001c0: f60f 473c 8257 af3b 9c39 d0bb 8dd4 bb3c
000001d0: cecc 1f3c f12c 4bbc 6079 c9bc 4747 203b
000001e0: eb7f 65bb 169c 1cbd 804f 903c fa81 c3bb
000001f0: f9f8 87bb cae3 bc3d 47e8 223b f451 ae3c
-0.011405029 0.009432502 0.010067886 -0.024773894 -0.00021377389 -0.025372278 -0.0066164406 -0.016220802
-0.010781571 -0.045485817 -0.015892435 0.007778313 -0.0077257995 0.01729619 -0.008447621 -0.0071785375
0.035821155 -0.026070632 0.030603131 -0.007846492 -0.01958272 0.003018279 0.017689737 -0.015632674
0.044900306 0.00810108 -0.008022443 -0.016328923 0.013221828 -0.018416796 0.054543734 0.01532183
-0.036909427 -0.018474672 0.04336054 -0.010806977 0.018423125 0.0010295763 0.0070228395 0.009062064
-0.063731804 -0.007570679 -0.020153133 0.008150536 0.03671647 0.03186084 0.023131559 -0.009748592
-0.17242126 0.00031602397 -0.010232214 -0.017937446 -0.01398294 0.036277946 0.012984794 0.009418786
0.014330054 0.012279092 -0.10208952 0.014886272 -0.0021564756 0.017568905 -0.010057186 -0.014108661
-0.01019621 -0.015587617 -0.021449734 0.019332737 -0.05385153 -0.010128188 0.008200966 0.021289768
-0.018610554 0.036626864 0.0054849274 0.02950737 0.008489494 0.0231023 0.037452504 -0.028493028
0.014387129 0.010368786 -0.024674652 -0.01077691 0.0010427008 0.017435296 0.01926782 0.02993256
-0.019374115 -0.005870039 -0.0045642536 -0.10212739 -0.01939031 -0.011303848 0.008398989 0.023975084
-0.00034349746 -0.00789851 0.01111859 0.011429792 0.00065084465 0.011610332 -0.0076811686 -0.017550696
-0.0056928843 0.002399988 -0.042761672 0.027248304 -0.0058115926 -0.028399047 -0.008318134 0.02112134
0.0121498015 0.005351008 -0.006354524 0.0229285 0.009753419 -0.012400852 -0.024594009 0.0024456547
-0.0035018872 -0.038234793 0.017616034 -0.005966422 -0.004149553 0.09223135 0.0024857686 0.021279313
