path/to/dir/cond_wire/2026_01_28__16_03_57-no_wandb_id/2026_01_28__16_03_57-no_wandb_id-model.pt (torch, 273908 bytes, 7 tensors)

net.0.freq_scale.weight f4 [256, 4]
000000 65 28 cd 3e b8 46 85 3e b2 69 a6 3e 5b 99 6e 3d
       0.4006988 0.26030517 0.32502514 0.05825172
000010 d9 aa e8 3d 70 70 c4 3e c6 22 da 3e 34 1f de be
       0.113607116 0.38367033 0.42604655 -0.4338318
000020 04 50 b0 be 7f c1 0e bd c3 4f b3 3e b9 73 ab 3e
       -0.34436047 -0.0348525 0.3502179 0.33486727
000030 4b 5e 01 3f 81 72 22 3e 67 be fd be d9 d5 4d be
       0.50534505 0.15863992 -0.49559328 -0.20101108
000040 57 3b 97 3e 70 3e 4b 3d 76 c1 8e 3e 08 ce 22 3e
       0.2953746 0.049620092 0.27881974 0.15898907
000050 b4 f5 4e be ad 85 8f bd f1 ae 66 3e 2a cb fe be
       -0.20210916 -0.070079185 0.22527672 -0.49764377
000060 b0 31 a0 3e eb a6 8a 3d 8e 7b 08 3f 70 b9 c1 bd
       0.3128791 0.06770118 0.5331353 -0.094591975
000070 49 3d a2 bc 4e 52 da 3d 6e da c7 be 42 1f 3e 3e
       -0.019804614 0.106602296 -0.39033836 0.18566611
000080 9a 13 7c bd df d8 80 bd ef 40 cd be e3 ad cb be
       -0.06154213 -0.06291365 -0.40088603 -0.39781103
000090 11 80 c2 3e 1c 7a f5 be ac 1b f2 3e 31 60 c0 3e
       0.37988332 -0.47944725 0.47286737 0.37573388
0000a0 82 fa 98 3e bd 32 91 3e 6b ad ea 3d 21 ae 85 3e
       0.29878622 0.28359023 0.11458858 0.26109412
0000b0 48 d9 00 be 5e 19 87 be 9a a3 b0 3e fa e1 e4 3e
       -0.12582886 -0.2638654 0.34499818 0.44703656
0000c0 b3 d0 45 be 3b 3e 5c 3e c7 64 56 be fb ba d3 be
       -0.19317894 0.21508114 -0.20936881 -0.41353592
0000d0 aa 35 ef 3d ea 5f ad be 2a f0 b1 3e 5b 3e a8 3e
       0.116801575 -0.3386224 0.34753543 0.32860073
0000e0 00 d7 17 3e bc 67 d4 be c8 85 c9 3e ab e0 ba bd
       0.1482811 -0.41485393 0.3935988 -0.09124883
0000f0 d7 29 c6 be 77 d5 e0 be e4 12 05 3e b6 6d 78 3d
       -0.38703796 -0.4391286 0.12995487 0.060651504
000100 99 16 9f bd 87 79 22 3d f3 5e 30 be 7c be a6 3d
       -0.07767982 0.03966668 -0.1722372 0.08141801
000110 3d 20 81 3c 9a 25 4f 3e c9 1d 1f bf 6d 40 e8 3e
       0.015762443 0.20229188 -0.62154824 0.45361653
000120 25 c3 56 be d5 cf ca 3e 56 e0 e0 be fe 38 e4 be
       -0.20972879 0.39611688 -0.43921155 -0.44574732
000130 7d 15 bb be 5e e9 99 3e 3f 30 5f 3d 6a 69 fe 3c
       -0.36539832 0.30060858 0.05448937 0.031056125
000140 8e 59 a1 be 48 52 9e bd 58 c2 a1 3e ff 20 83 3e
       -0.31513637 -0.07730538 0.31593585 0.25611112
000150 a8 6f cc 3e b8 08 c7 be 76 9b b2 3d e6 3c 77 be
       0.39928937 -0.3887384 0.08721058 -0.24144325
000160 b6 26 d8 be 64 6e f3 bd 4f f0 b5 3d fb ae fc be
       -0.42217034 -0.1188629 0.08883726 -0.4935225
000170 61 c5 15 be 59 44 01 3f da 13 c7 be 97 55 09 be
       -0.14626075 0.50494915 -0.38882333 -0.13411556
000180 97 75 41 be ad 8d fc be d8 a5 25 be 59 b6 bc 3e
       -0.18892513 -0.4932684 -0.16176546 0.3685787
000190 ee 1e 13 3e 11 15 d7 be 75 6d 2f be 61 45 bf be
       0.14367267 -0.4200826 -0.17131598 -0.3735762
0001a0 02 b0 92 3d d5 2c 80 be d9 6d a2 3e a7 a7 c5 be
       0.07162477 -0.25034204 0.31724432 -0.3860447
0001b0 7e af 73 3e 66 1a c0 3e 1d b2 e6 be ae 94 9c 3e
       0.23797414 0.3752014 -0.45057765 0.30582184
0001c0 1e 5b 18 bd 85 84 16 3e f8 95 e9 3e f3 e8 5c be
       -0.03719627 0.1469899 0.4562223 -0.21573238
0001d0 e4 68 08 bd 93 54 d4 be 34 61 a4 3e 7a fb 97 3e
       -0.033303156 -0.41470775 0.3210541 0.2968405
0001e0 6d ea 8a 3e 6f 7c 52 bd 44 4d bb 3e 4f 6b 92 be
       0.27131978 -0.0513882 0.36582386 -0.28597495
0001f0 b8 ac eb be b0 43 47 be 9f ff 09 bf e7 34 92 3e
       -0.4603021 -0.19459414 -0.5390567 0.28555986
000200 53 f6 e5 be e8 4a 13 3e 71 b0 84 3d d5 6c 5f 3e
       -0.44914493 0.14384043 0.06478966 0.2181886
000210 53 2e 8e 3e e7 b1 7f bd ed 7e d1 bd b8 2b a8 3c
       0.27769718 -0.06242552 -0.10229287 0.02052866
000220 8d dc f2 be 9f 04 bb be 39 ed 0b 3e 93 b6 c8 be
       -0.47433892 -0.36526963 0.13664712 -0.39201793
000230 2a 05 88 be 1e e6 e1 3d 9c 8e f4 3d d5 b2 05 3e
       -0.2656644 0.110302195 0.11941263 0.130565
000240 ad eb 8f be 18 b4 b2 3e 1c be 63 3e 46 bf b6 3e
       -0.28109494 0.34903026 0.2224049 0.35692805
000250 b1 f6 b4 be 8f 79 7e 3e d9 87 5d 3e 50 b8 bd 3e
       -0.3534446 0.24851058 0.21633853 0.37054682
000260 67 75 50 3e b9 5f af bb 64 bb 20 3e 81 24 e9 3e
       0.20357285 -0.005351987 0.15696484 0.45535663
000270 74 a7 a1 bd ac cf b3 3e 3d 39 62 bd d9 1c d8 3d
       -0.07893267 0.3511938 -0.055230368 0.10552377
000280 6c 00 d0 3e 9a 8d 91 3a 36 6b c6 be 59 89 85 bd
       0.40625322 0.0011104823 -0.3875367 -0.065203376
000290 fa bd 25 3e 24 ec 38 be f3 93 90 be 80 01 99 be
       0.16185752 -0.1805883 -0.28237876 -0.29883957
0002a0 a2 93 9e 3d 09 52 c3 3e 87 aa 5e 3e f8 6a de 3e
       0.077430025 0.38148525 0.21744739 0.43440986
0002b0 9f 49 10 3d 39 20 79 3e da 72 14 bf 8d 5f fa bd
       0.03522646 0.24328698 -0.5798775 -0.12225256
0002c0 05 c5 03 be c9 1d 5a bc b4 c3 f2 be 0b 9f 8e 3e
       -0.12868126 -0.013312765 -0.47414935 0.27855715
0002d0 17 8e 7e be e5 0c a1 3e 3c 71 ab 3e 3b 74 d8 3d
       -0.2485889 0.3145515 0.33484828 0.10569044
0002e0 21 34 07 be 61 76 03 3e f2 90 ec be c4 da 1c be
       -0.1320348 0.12838127 -0.46204334 -0.15317827
0002f0 cb c7 37 3e 9f 08 4d be 10 ad 38 be 6e d9 a7 3e
       0.17947309 -0.2002282 -0.18034768 0.32783073
000300 5d b6 9c be 46 b7 a7 3e b4 e3 21 3e 62 cf a1 3e
       -0.30607882 0.32757014 0.15809518 0.31603533
000310 c0 02 0d be 58 e7 e0 bd 1d 20 ed be c0 bf 1d be
       -0.1377058 -0.10981625 -0.46313563 -0.15405178
000320 dd cb 84 3e a3 84 b5 bc 0d 23 56 3e 42 da fc be
       0.25936785 -0.022157973 0.20911808 -0.49385267
000330 cd 6c a4 be be aa b1 3e 05 0d 93 be 72 88 a2 be
       -0.32114258 0.34700578 -0.2872087 -0.31744725
000340 28 2a 8a 3e 3e ea e0 be 9f 46 26 be 6f 86 ce 3e
       0.26985288 -0.43928713 -0.16237877 0.4033694
000350 b5 7f 06 bd 72 a9 16 3d 83 82 93 bd 7f 09 b3 3e
       -0.032836635 0.03678269 -0.072026275 0.34968182
000360 08 5a 97 be f5 11 87 be 87 95 87 3e 91 ff 95 be
       -0.29560876 -0.26380888 0.26481268 -0.29296544
000370 f9 67 7b 3c a5 87 f1 be d1 5c ef 3e 01 2a 0d 3e
       0.015344613 -0.471738 0.467505 0.13785554
000380 21 e8 8a bd 4a f5 bd 3e 85 40 ec 3e b9 4f bd be
       -0.06782556 0.37101203 0.46142974 -0.36974886
000390 bb 17 9c be 2d bb f1 be 6d 65 03 bd 53 f2 8b be
       -0.30486855 -0.47213116 -0.03207915 -0.27333316
0003a0 66 74 ff 3e d3 c9 8d 3e 83 fe b4 be 8a 54 a0 3e
       0.49893492 0.27693042 -0.35350427 0.31314498
0003b0 32 0f da be 02 9d bd 3c a5 0a f9 be 02 51 d6 3e
       -0.42589718 0.023146156 -0.48640934 0.4185868
0003c0 c4 5a cf be 7b ac 32 3e 48 57 34 3e 2f e3 f0 be
       -0.40498936 0.17448609 0.1761142 -0.47048327
0003d0 a3 3b 0b be cb 70 4e bd 1d 0f d7 3e 14 bf 46 3d
       -0.13596968 -0.050400537 0.42003718 0.04852207
0003e0 16 8a 32 be 97 2b ca bd ff 91 ce 3e 2d 5e b5 be
       -0.17435488 -0.09871595 0.4034576 -0.35423413
0003f0 20 da de be cd 9f 4b 3e 91 4f ac 3e 17 2f 69 3e
       -0.4352579 0.19885178 0.33654454 0.2277187

net.0.freq_scale.bias f4 [256]
000000 66 8b da bd 79 c9 16 be ea 20 46 3c 57 2f c9 3e
       -0.106711194 -0.14725293 0.012092808 0.3929393
000010 b1 f3 8c 3e 29 ff b2 be ec 52 2f bd 94 24 33 be
       0.27529672 -0.34960297 -0.04280369 -0.17494422
000020 8f aa 6a be 67 fd 78 be 01 ff 7c be 6e 49 d5 be
       -0.22916625 -0.24315415 -0.24706651 -0.41657585
000030 8d e7 02 3f fa c8 03 3d 33 e2 c8 3e 6f 12 2b be
       0.5113457 0.032174088 0.39235076 -0.1670625
000040 93 ef 54 bd 19 5c ac 3d a0 b8 fb 3e 79 60 92 3d
       -0.05198629 0.08416004 0.49164295 0.07147307
000050 a2 ff c0 be 49 fe 02 bf 16 3f 5a bd a8 79 81 be
       -0.37695032 -0.5116926 -0.05328282 -0.2528813
000060 ed 4e f8 be 99 42 9f 3e fc 67 06 be 20 f2 f2 3c
       -0.48497716 0.31105497 -0.13125604 0.02965647
000070 ba 4c 6f 3c f8 74 8c be ce 2d e2 3e 04 73 a6 3e
       0.014605695 -0.2743299 0.4417557 0.32509625
000080 f3 b6 ce 3d 6e 89 bd be f3 df f1 3e 68 d7 c7 be
       0.100934885 -0.37018913 0.47241172 -0.3903153
000090 bf 78 c4 be 95 89 d4 3e 04 eb b3 bc 38 78 90 bd
       -0.38373372 0.41511217 -0.02196265 -0.0705418
0000a0 66 fe ee 3d 44 d4 5d 3e 25 70 d2 3e ce 46 ec 3e
       0.116696164 0.21663004 0.41101184 0.4614777
0000b0 a6 53 4d 3c 17 8f ca bc 69 f3 e8 3e ac 6e 21 be
       0.01253215 -0.024726434 0.45498207 -0.15764874
0000c0 c8 d7 f9 3c e9 6a f5 3e 13 0f 09 bf f8 ee d3 be
       0.0304984 0.47933128 -0.53538626 -0.41393256
0000d0 10 13 8d be 4f 65 ca be b9 f1 9d be 07 bd 24 bd
       -0.27553606 -0.39530417 -0.30848482 -0.040219333
0000e0 25 d4 b2 be c6 f3 9b be f0 f3 97 3e a0 e9 cc bd
       -0.34927478 -0.30459422 0.29678297 -0.10005498
0000f0 51 9d e9 3e 44 a9 03 3e 80 f9 2b bd 66 0e e5 3e
       0.45627835 0.12857538 -0.04198599 0.44737548
000100 1e 8e 04 3e 12 22 87 3e ad 0a f7 be 5e a7 d6 3e
       0.12944838 0.2639318 -0.48250332 0.41924566
000110 f3 3b b1 3c e6 62 ed 3e 35 8f 3d 3e a8 6a 93 bd
       0.021635031 0.46364516 0.1851166 -0.071980774
000120 0d 86 cb 3e f0 f5 25 be fd 86 e3 bd 45 fd 9c 3e
       0.3975071 -0.16207099 -0.11109731 0.3066198
000130 b7 43 83 3e 65 f8 9d 3e 4f e6 ae be 78 80 a0 3d
       0.256376 0.30853572 -0.34160087 0.078370035
000140 2e b7 b5 bd 59 71 56 be 95 9c ba 3e 7e 8f 45 be
       -0.088728294 -0.20941676 0.36447588 -0.19293019
000150 69 c7 4a 3d 32 96 cc 3d 4b b7 ad be 04 60 22 be
       0.04950658 0.09989585 -0.33928904 -0.1585694
000160 87 29 17 be aa a9 c3 3e 01 0b 53 bd e0 1d cd be
       -0.14761935 0.3821538 -0.051524166 -0.40061855
000170 45 53 12 3e 8d 35 e1 3e f0 c5 a3 be d1 a5 fc 3d
       0.14289577 0.43986169 -0.31986952 0.123363145
000180 1d 4b c3 be a1 51 0f bd 17 56 03 bf 75 5e b9 bd
       -0.38143244 -0.034989957 -0.5130324 -0.090512194
000190 c8 f2 4f be 3e 51 1c 3e b0 22 aa 3d ce 01 74 be
       -0.20307457 0.15265366 0.08307397 -0.23828813
0001a0 ec c2 3f be f4 df 41 be bf 78 99 3e 96 60 08 3e
       -0.187267 -0.18933088 0.29974934 0.13318095
0001b0 23 a9 50 3d 6a 92 cd 3d 5c 60 b0 be e8 44 fb 3e
       0.05094255 0.10037692 -0.34448516 0.4907601
0001c0 68 9f f7 be 32 e8 4f 3e 3e 12 d4 be 97 78 b1 be
       -0.48363805 0.20303419 -0.41420168 -0.34662315
0001d0 8a 15 c1 be dd d5 1f 3e 18 48 25 3e 97 12 13 3e
       -0.37711746 0.15608926 0.16140783 0.1436256
0001e0 ec da 62 bd 85 ce 88 3e e7 2a 80 3e ae 0c cb be
       -0.05538456 0.26720062 0.25032732 -0.3965811
0001f0 18 21 ac bc 69 99 ca 3e 8b cd 49 3e 4d a1 06 3e
       -0.021011874 0.39570168 0.19707315 0.13147469
000200 fc 25 54 3e 13 25 5e bd 8c bc 41 3e ab e8 0b 3e
       0.20717615 -0.054234575 0.18919581 0.13662975
000210 0b 67 44 be 5e ec f3 3d bc 6a 5d bd ba 92 03 3f
       -0.19179933 0.11910318 -0.054056868 0.5139576
000220 1e b9 73 be f1 10 fb 3d 7b 82 b4 3e 4a 07 d8 3e
       -0.23801085 0.12259091 0.352558 0.4219306
000230 be 96 bb 3e 2a a2 5d 3e 72 03 9c be f9 2b 64 3e
       0.36638445 0.21643892 -0.3047138 0.22282399
000240 83 36 be be ba 1d 38 3e da c6 5f be 87 e7 2e 3e
       -0.37150964 0.1798009 -0.218532 0.17080508
000250 b8 aa d3 3d f5 b0 d5 3e 5d 40 7b bd 4b 1d 38 be
       0.103352964 0.4173657 -0.06134068 -0.17979924
000260 64 88 2d be 21 e1 b4 3e 67 de 6e 3e a3 de 92 3e
       -0.1694656 0.3532801 0.23327027 0.28685483
000270 01 ec ed be 4d 5b 2a be 30 d6 d6 be c9 af 9b 3c
       -0.4646912 -0.16636391 -0.41960287 0.01900472
000280 ea c1 10 be f9 0d f3 be dd 92 89 3e 06 c0 b5 3e
       -0.14136472 -0.47471598 0.2686986 0.35498065
000290 61 1c c4 3c 5c fe 34 3e d9 65 1f be e1 e5 01 3e
       0.023939313 0.17675155 -0.15566196 0.12685348
0002a0 86 3a 64 3e 85 c2 13 3d 02 4e 5c be 40 54 3d be
       0.2228795 0.03607418 -0.21514133 -0.1848917
0002b0 96 bf 88 3e 05 14 f1 3e 97 5b be 3e 3d 34 e2 3e
       0.26708668 0.47085586 0.37179253 0.4418048
0002c0 32 31 cd 3e 08 1a d3 3e ce dc e7 3e 67 8b 82 3d
       0.40076596 0.41230798 0.45285648 0.06374245
0002d0 7a ea 91 be d8 03 9b 3e 3a ae 70 3e 20 a8 f0 3e
       -0.28499204 0.3027637 0.23503962 0.4700327
0002e0 8c 70 85 be 5a 38 ed be 93 a1 91 3c 52 d2 95 be
       -0.2606243 -0.46332055 0.01777724 -0.29262024
0002f0 ae e6 85 be 51 66 d0 bd fd 91 4b be 39 a4 67 be
       -0.26152557 -0.10175765 -0.19879909 -0.2262124
000300 32 95 84 bc 32 3c f4 3e 66 67 a3 be 8b ee 9e 3e
       -0.016184423 0.47702175 -0.31914824 0.3104137
000310 b7 08 b6 3e c5 ce c5 3e 81 98 e7 3e 9f bc 20 be
       0.35553524 0.38634315 0.4523354 -0.15696953
000320 ba 7f dc 3c 41 da 0f 3e 4d d9 75 be b0 72 dc be
       0.026916374 0.14048101 -0.24008675 -0.4305625
000330 94 f6 be 3e 51 e5 c5 3e 23 67 2e 3e 4d fe e1 3e
       0.372975 0.38651517 0.17031531 0.4413933
000340 9a dd 26 3d d8 6b 6f 3e fe 29 10 bf 86 c8 09 3e
       0.04073868 0.23380983 -0.56314075 0.134554
000350 fc f1 eb be cc 65 f8 be c5 4b 7c 3e ac 2f c2 3e
       -0.46083057 -0.48515165 0.24638279 0.37926996
000360 fc 7e 9a 3e d6 61 36 3e dd 14 6b 3e 90 aa d2 bd
       0.30175006 0.17810759 0.22957177 -0.102864385
000370 22 18 06 3f 54 64 89 3e 85 3f 0b bd 61 72 df 3e
       0.52380574 0.26834357 -0.033996124 0.43641952
000380 b9 16 cd be 6b b0 26 be 08 33 08 3f ac c1 bc 3e
       -0.400564 -0.16278236 0.5320287 0.3686651
000390 6c a1 a2 3e 0b 77 18 3c 62 d6 73 be 39 e0 34 3e
       0.3176378 0.009305726 -0.2381225 0.17663659
0003a0 aa e6 d7 3b 5d 47 97 be 92 3d f1 be aa 0d 74 3e
       0.0065887766 -0.29546633 -0.47117287 0.23833337
0003b0 5d 14 81 3c ff 4a 9c 3e 46 81 d8 3e c8 86 e6 3b
       0.01575678 0.30525967 0.42286128 0.00703511
0003c0 68 aa a9 bd 83 4d 52 bd 5d 6a 92 be 37 c2 ef 3e
       -0.082844555 -0.051343452 -0.28596774 0.46827862
0003d0 8f a2 47 3e 5b 32 d1 3e 22 d7 94 3e 52 00 2b 3e
       0.19495605 0.4085873 0.29070383 0.16699341
0003e0 24 12 12 be d9 70 b1 be fb 0c b0 be 8d 50 c9 3d
       -0.14264733 -0.34656408 -0.34384903 0.09829817
0003f0 20 a2 7a 3d cd ff 4b be bd b5 e7 3e b6 a4 b6 be
       0.06118977 -0.19921799 0.45255843 -0.3567254

net.1.freq_scale.weight f4 [256, 128]
000000 88 7c 95 3d 4e 58 a8 bc 99 87 5d bd fa 63 3c 3d
       0.07299143 -0.02054992 -0.054084394 0.045993783
000010 d2 33 ae 3a ad 6f 10 be d3 46 b8 3d ee 49 86 3d
       0.001329059 -0.14105101 0.08997884 0.0655707
000020 59 fe ee b9 bd 0e a5 3d 4a e8 95 3d b3 70 1e 3d
       -0.000455844 0.08059452 0.07319696 0.038681697
000030 d6 c1 cc 3b f3 27 2a bd 81 01 a9 3d da 9e 58 3d
       0.006248693 -0.041542005 0.0825224 0.052885868
000040 d0 55 2f bd 8c 15 8d bd 09 d9 c4 bb 80 87 ab bd
       -0.042806447 -0.06888875 -0.006007318 -0.08375454
000050 31 2a 33 3c 97 a8 a4 bd 64 ff 14 bd 12 65 98 bd
       0.010935352 -0.080399685 -0.036376372 -0.07441153
000060 f0 02 2b 3e 41 40 0e 3b 06 be 69 bc 32 f6 9b 3b
       0.1670034 0.0021705779 -0.0142664965 0.0047595734
000070 35 ee 24 be 61 62 45 bd f4 7a a7 3b 2b 40 1b bd
       -0.16106494 -0.048189525 0.0051110927 -0.037902992
000080 0e 48 1a be 04 25 0a be fc 82 a7 3d 6e 96 80 bc
       -0.15066549 -0.13490683 0.0817928 -0.01569673
000090 27 96 fb 3c 1c 44 0c be cb 3e 0e bd 25 82 f1 3c
       0.030711247 -0.13697857 -0.034727853 0.029481003
0000a0 2d 10 87 3d ed c8 e3 bd 9b 2a b9 3d ea 37 8f bd
       0.06594882 -0.11122308 0.090413295 -0.06993087
0000b0 31 f1 3a 3d ff 69 57 bd 0b fa bf 3b d9 96 3b bd
       0.045640174 -0.05259132 0.005858665 -0.045798156
0000c0 c6 5f 44 3b 41 86 f3 3d 44 53 d4 bc 6b 76 ee 3c
       0.0029964312 0.11890841 -0.02591861 0.0291092
0000d0 e0 00 44 bd b8 48 0b 3e d1 41 55 3d e0 85 91 bd
       -0.047852397 0.13601959 0.05206472 -0.07105613
0000e0 4e 8d 2e 3d 76 e3 42 be 0e 11 e9 3d 45 c5 f6 3d
       0.042615227 -0.19032082 0.11380206 0.12049345
0000f0 3e 17 0a be fd 44 0c 3e 7b 95 db bd 30 82 1e be
       -0.13485429 0.13698192 -0.107218705 -0.1547935
000100 aa e9 1e be d8 da d6 bd 77 a4 91 bc 6f 2e 29 be
       -0.15518823 -0.1049096 -0.017778618 -0.1652162
000110 5e 2e ab 3d b9 d2 3c 3d 2a 95 05 be c2 59 5e 3b
       0.08358453 0.0460994 -0.13045183 0.0033928012
000120 88 eb 23 3d 21 a9 ad 3b 77 ef c9 bc a4 28 8e 3d
       0.040019542 0.0052997028 -0.024650319 0.06941345
000130 8a d1 fa bd 61 7a 4a 3d 13 2d 24 be cf 44 b6 3d
       -0.12246998 0.049433116 -0.1603282 0.08899843
000140 9e 70 40 3e 43 67 6d 3d 2e e2 c0 3b b5 80 33 3e
       0.1879296 0.057959806 0.0058863377 0.17529567
000150 4b 8a 6a be 14 e9 e6 bd 90 fb 96 3e 47 93 11 3e
       -0.22904317 -0.11274925 0.29488802 0.14216338
000160 fc ec 12 bd 47 5a ae bd 11 8f 76 3d 23 36 d2 bc
       -0.035870537 -0.08513313 0.060195033 -0.02566058
000170 56 ca a3 3d 13 2f 9a 3d 81 ac c1 3c e8 95 fa bd
       0.07997577 0.0752851 0.023641827 -0.122356236
000180 ca 9c d4 3c c3 44 be bd 75 7b bc bd a4 44 28 3d
       0.02595367 -0.09290459 -0.09203235 0.041081086
000190 d6 c7 54 3d 31 63 b5 bb 0a c4 0a be 88 31 20 be
       0.05194839 -0.005535506 -0.13551345 -0.15643895
0001a0 62 75 58 3d 91 98 94 3c dc 26 94 bd 86 1c b3 3d
       0.05284632 0.018139156 -0.07233974 0.08745675
0001b0 06 2d 22 3e 9d 8b 21 3d de 22 20 bd d8 d9 67 bd
       0.15837488 0.039439786 -0.039095752 -0.056604236
0001c0 43 69 9e bc 0d 56 c4 3d 79 10 de 3d 0c c7 9a 3d
       -0.019337302 0.095867254 0.10842986 0.075574964
0001d0 c0 66 2e bd 7e 78 dc 3c 44 a2 0a be 80 02 4a 3e
       -0.04257846 0.026912924 -0.13538462 0.19727516
0001e0 03 c8 0e 3d 0a 00 4a 3d 02 0e 08 be aa c1 65 bd
       0.034858715 0.049316444 -0.13286594 -0.056092896
0001f0 aa c0 cc bd ca e6 8c bc f9 f2 26 bd 5a 1b 83 bd
       -0.09997685 -0.017199893 -0.04075906 -0.06401701
000200 23 2c c5 bc ec 6e 06 3c 8d e2 ce 3d ce 0e 88 bd
       -0.024068898 0.008205157 0.10101805 -0.06643449
000210 64 b6 bf 3d 4d 93 03 bd 95 fe 3d 3e ae 53 5c bd
       0.0936096 -0.0321229 0.18554147 -0.05379074
000220 8a ec cd 3c 4c d5 fe bd b7 4a 53 3d aa db 26 3d
       0.025137205 -0.12443027 0.051584926 0.04073683
000230 e8 12 0e be bb e2 07 3d cd 08 29 bb ac 80 81 bd
       -0.138744 0.03317521 -0.00257926 -0.0632337
000240 20 23 88 3d dd 4d 49 b9 01 b7 54 bc 90 99 07 be
       0.066473246 -0.0001919786 -0.012983085 -0.13242173
000250 ae 84 bc 3d 23 25 41 be 6f a1 66 bd f3 dc 86 bd
       0.09204994 -0.18861823 -0.0563063 -0.065851115
000260 25 9d bc 3c ff 71 2c be fc 26 bd bc 17 38 de 3c
       0.023024151 -0.16840361 -0.023089878 0.027126355
000270 e4 b2 b0 bd 07 23 60 ba 29 6d 0e 3e 15 e9 27 3e
       -0.08627871 -0.00085501414 0.13908829 0.16397507
000280 a8 73 1a 3e 0b cc 03 3e 94 eb 9c bd 1e be 31 3d
       0.15083182 0.12870805 -0.076621205 0.0433942
000290 ee ac e2 3d 82 29 ff bd a1 54 bc 3d f9 be 00 3b
       0.1106814 -0.12459089 0.09195829 0.0019645079
0002a0 5d e6 32 be a6 9b 22 bc a1 19 53 3d 81 e0 e7 3d
       -0.17470689 -0.009924805 0.051538114 0.113221176
0002b0 66 6f 32 3d 33 94 17 3e fd a2 92 ba 2e b2 1b bd
       0.04356327 0.14802627 -0.001118749 -0.038011722
0002c0 b6 58 9f bd fc 47 f1 bc 35 d5 0a be b0 4e 9d 3d
       -0.07780592 -0.02945327 -0.13557895 0.07681024
0002d0 f6 94 c3 3d 24 3f 90 3d 16 1a c7 bd eb d2 23 be
       0.095498964 0.07043293 -0.097217724 -0.15998428
0002e0 6f 45 26 be 37 58 08 bd a5 e8 01 3d 0e 6d cb 3d
       -0.16237424 -0.033287253 0.031716008 0.0993291
0002f0 d4 c0 50 bd 41 43 4b 3b 95 96 04 be 8c 8f 33 3d
       -0.050965145 0.0031015428 -0.12948067 0.04383807
000300 e2 16 c8 3d 9f ef 49 bd 96 12 1e bd 04 a3 2d 3d
       0.097699896 -0.049300786 -0.038591944 0.042391792
000310 16 1f 03 be b4 6d a8 3b 1c 67 dd bd 35 96 07 be
       -0.12804827 0.0051400308 -0.10810682 -0.13240893
000320 49 f5 f7 3c b6 41 13 bd c0 71 b6 3d c2 fc 80 3d
       0.030268328 -0.03595134 0.08908415 0.0629821
000330 b0 fa 21 bd b7 f3 98 3d ea 64 4d 3d 30 c5 e3 bc
       -0.039545715 0.0746836 0.050145067 -0.027803987
000340 8a ab 16 be 2d 64 83 bd bf 0f 10 3e 10 cf 07 be
       -0.14713874 -0.064155914 0.14068507 -0.13262582
000350 ab e8 aa bd 2c fe 19 3c 8e 04 bf bc 5d 7a 57 bc
       -0.08345159 0.009398978 -0.023317602 -0.013151732
000360 ad 93 e9 bd bd 52 e7 bd 04 d3 82 bd a0 cc bc bd
       -0.1140512 -0.11295078 -0.06387904 -0.092187166
000370 b1 22 46 bb 0e ac 77 bd bc f4 fc bd 71 1a 59 3d
       -0.003023308 -0.06046682 -0.12351367 0.053003732
000380 7e dd 36 bd ab 11 1e 3e 76 f1 09 bd fe 26 26 be
       -0.044644825 0.15436427 -0.03367754 -0.16225812
000390 5b 7b 72 bd f0 56 9b bd 49 5b 26 3e 05 fc f2 3c
       -0.059199672 -0.075849414 0.1624576 0.029661188
0003a0 66 07 9b bd f2 75 b8 bd ed f3 31 bd 21 10 a3 3c
       -0.075697705 -0.09006871 -0.043445516 0.019905152
0003b0 4c f0 ab 3d 60 d0 2c be 76 aa 1f bd 33 7d 99 3d
       0.08395442 -0.16876364 -0.038980924 0.07494583
0003c0 82 0d 89 3a 0f 2c 1a 3d 62 14 ad bd fc 82 46 3d
       0.0010456296 0.037639674 -0.08451153 0.04846476
0003d0 6e f0 aa 3d 5a 03 c2 bc 1f a6 23 3d 38 91 a8 3d
       0.083466396 -0.023683239 0.039953347 0.08230823
0003e0 00 55 c7 bc c3 80 51 bd 88 71 01 3e 1b e0 01 bd
       -0.024332523 -0.051148187 0.12640965 -0.031707864
0003f0 18 92 04 3e 05 fb e3 3c f3 e9 08 be b6 db 83 3b
       0.12946355 0.027829656 -0.13370495 0.0040239943

net.1.freq_scale.bias f4 [256]
000000 b7 36 b1 3d d1 41 29 bd 86 d1 bf bd 94 27 65 3b
       0.08653014 -0.041322533 -0.09366135 0.0034966217
000010 f5 f8 f0 bd 71 96 49 3d da 4b 9c 3d d0 f8 30 bb
       -0.11766235 0.049215738 0.07631655 -0.0027003773
000020 d8 84 b2 bd 61 f6 78 bd 95 9b bf bd eb 29 db b9
       -0.08716744 -0.06078184 -0.09355847 -0.00041802166
000030 81 1c a4 bd e8 f3 59 3c 84 c2 c3 bd de 25 99 3d
       -0.08013249 0.013302781 -0.09558585 0.07477926
000040 22 00 a0 bc cc 20 4a bd d4 12 f0 bc 1e 91 25 be
       -0.019531313 -0.049347684 -0.029305853 -0.16168639
000050 df 86 4e 3d 66 7e 9e 3d fe 23 18 bd 18 c7 46 bc
       0.05042159 0.07738952 -0.0371437 -0.012132429
000060 ad 68 99 3d 94 a7 41 3d 63 c8 b9 3d df 0a 12 be
       0.074906684 0.047278956 0.09071424 -0.1426196
000070 d2 20 5b bd d8 82 b3 3c bd fd 1e 3d c4 a8 10 be
       -0.053498097 0.021912977 0.038816202 -0.14126879
000080 0a 7a 00 be 9c d2 92 3d 4f f8 38 bd 30 cc 97 bd
       -0.12546554 0.07169077 -0.04515868 -0.074119925
000090 83 ad 2f 3c c6 d6 76 bd 9b e7 ef bd 08 ed 1b bd
       0.010722521 -0.060263418 -0.11714097 -0.038067847
0000a0 5f 40 8b bd 50 57 10 3d c2 bb 25 be 30 c5 f8 bb
       -0.06799387 0.035239518 -0.16184905 -0.007591866
0000b0 6e 46 97 bd f9 1c 52 3d 26 1f 5d 3d 1e 71 46 bd
       -0.0738648 0.05129716 0.053984784 -0.04844772
0000c0 78 fa 36 3e 0f 38 99 bc 2a 5f 92 bb 85 3e 98 3d
       0.17868984 -0.018703489 -0.004466911 0.074338
0000d0 f3 f5 11 3d fa d7 c3 bd 12 e1 3d 3e e6 a6 00 be
       0.035634946 -0.09562679 0.18542889 -0.12563667
0000e0 5f 1c 9b bd 4f 3c dd bd bc b2 86 3d 9b ed e9 3d
       -0.07573771 -0.108025186 0.065770596 0.11422273
0000f0 ff e7 37 3d a1 74 f3 bd 44 5b 95 3d c3 cd 0f 3e
       0.044898983 -0.118874796 0.07292798 0.14043336
000100 95 cc 69 3e ca 30 b0 3b 13 c3 97 3d dd 83 26 3d
       0.22831948 0.00537691 0.07410254 0.0406531
000110 17 41 70 3c 6a 1d 4e 3d 16 c2 d5 bc 86 af df bd
       0.014663956 0.05032102 -0.026093524 -0.1092215
000120 f9 f3 07 3d 6b 97 e4 bc 90 be 1b 3e 4c f0 08 3d
       0.033191655 -0.027904233 0.15209413 0.03343229
000130 b0 37 8d bb 86 c0 be bd 49 e0 1b bd e5 96 b0 3d
       -0.004309617 -0.09314065 -0.038055692 0.08622531
000140 7b b9 a3 3d c1 c0 aa 3d e4 d2 9d 3d c9 da 03 bd
       0.07994362 0.08337546 0.0770624 -0.03219107
000150 ee ca 5d bd f1 c0 32 bd 45 54 66 bd 4a 0a b8 3d
       -0.054148607 -0.043641035 -0.05623271 0.089863375
000160 e5 91 75 bc 53 92 1b be 3f fb 05 be 7c 40 09 3e
       -0.014988397 -0.15192537 -0.13084124 0.13403505
000170 ab bb 10 be f1 9a 97 bd 63 4a 58 be b6 0c 1d bd
       -0.1413409 -0.074025996 -0.21122126 -0.0383422
000180 62 82 7d bc bc 3d c5 3d a5 ea d5 bc 5e f0 f0 3d
       -0.01547298 0.096309155 -0.026112864 0.117645964
000190 73 73 ae 3d 8a 5e 62 3d f0 9c a9 3c 0b 28 89 bd
       0.08518114 0.05526594 0.020704716 -0.06697091
0001a0 0b af 98 bc 4b ba 82 bd 51 e2 6c 3c 95 cd 46 3d
       -0.018638154 -0.06383189 0.014458255 0.048535902
0001b0 c0 d7 33 3d c3 cd 5f bd 82 f9 8e 3d 74 d0 c7 bd
       0.043906927 -0.05463959 0.069811836 -0.09756556
0001c0 84 32 94 3c 18 91 90 bd 92 7b 3c 3d 42 71 a7 bd
       0.018090494 -0.070589244 0.046016283 -0.08175899
0001d0 ea 72 2e 3d 89 cc bb bd 9c 4a 4e bd 80 fb 97 bd
       0.04259006 -0.09169871 -0.05036412 -0.07421017
0001e0 97 3a 24 3e 40 80 7b 3b 26 14 e3 bc a8 cc 1b 3e
       0.16037975 0.0038376004 -0.027719568 0.15214789
0001f0 05 fd 0b 3e 28 06 1b 3e 41 bd 93 3c a2 3e a0 3d
       0.13670738 0.15139067 0.01803458 0.07824446
000200 9e 46 d8 bd 1a 1e 4e 3d 23 a4 a2 bc 59 e1 8c 3d
       -0.10560344 0.050321676 -0.019853657 0.06878919
000210 7a 77 9e bc 9d 9a 8d bd 84 44 97 bb 77 c7 cc bd
       -0.01934408 -0.06914256 -0.004616322 -0.099989824
000220 91 02 b7 bd 9d ee 36 3d 12 9a f9 bc 18 d1 f0 3d
       -0.089360364 0.044661153 -0.030468974 0.117586315
000230 ad c9 bd 3d fc 60 df 3d d3 2d 3d 3b 72 32 14 3e
       0.09266982 0.1090717 0.0028866425 0.14472368
000240 f6 e8 3b bd 4b af 93 3b 02 f8 35 3c dd ea a8 bc
       -0.045876466 0.0045069805 0.011106493 -0.020619804
000250 cf 60 11 bd a4 8f 1c 3d 55 56 cc 3c 7e f0 6d 3c
       -0.035492714 0.038222924 0.02494351 0.01452267
000260 3b 13 4b bd 79 fe 2c 3d 93 3f 05 3e 0c 77 f4 bc
       -0.049578886 0.04223487 0.13012533 -0.029841922
000270 5d 42 01 3d a7 3e a7 3d 50 80 17 3e d1 7b c5 bd
       0.03155743 0.08166247 0.14795041 -0.09642757
000280 93 9d dc 3d 1d b9 c6 3c 79 0e 13 3d 49 68 84 3d
       0.107722424 0.02425819 0.035902474 0.06465203
000290 01 2f 08 3d 56 65 c2 bd 20 5e 3e bc a1 0c 49 3e
       0.03324795 -0.094919845 -0.011619121 0.19633724
0002a0 cf f1 86 3d 90 d3 56 bd 78 43 bb bd 73 1d fd bd
       0.0658909 -0.052447855 -0.09143728 -0.123591326
0002b0 94 9b cd bc 6c f6 a0 bd 6b ae e5 3c d5 30 63 3d
       -0.0250986 -0.07859501 0.02803727 0.05546649
0002c0 ec 50 af 3c 94 ac 1d 3d e4 da ca bd 13 cc d3 bd
       0.021400891 0.03849466 -0.09905031 -0.103416584
0002d0 da 1b cd bb 65 c6 0d 3d e9 d7 4d bd e3 8d fa 3c
       -0.0062594237 0.034613032 -0.050254736 0.030585235
0002e0 38 a6 9b bd c9 8d 1b bc b3 d1 a4 bd 5f 1a e5 bb
       -0.07600063 -0.009494253 -0.080478095 -0.006991669
0002f0 a4 5d a2 bd dc 3e 41 3c ca 6a 83 3c 3e 16 58 3d
       -0.07928017 0.011794772 0.016042132 0.052755587
000300 32 fc 90 bd 53 6f fe bc 66 d1 62 3d de b9 03 3b
       -0.070793524 -0.031058943 0.05537548 0.00200998
000310 8f 5b af 3d a4 f1 49 bd 32 82 0e 3a d2 b6 81 3d
       0.08562385 -0.049302712 0.0005436271 0.06333698
000320 fc ca 29 bd 72 1c f5 bd 06 1d 05 bd 61 81 25 be
       -0.041453347 -0.11968316 -0.032498382 -0.16162635
000330 38 75 98 bd 4e 10 e9 3d b2 c5 ee bd 58 8a fd bd
       -0.07444233 0.11380063 -0.11658801 -0.123799026
000340 d6 5d de bd 6e 50 7a bd e7 6b 8e 3b 74 5a bc 3d
       -0.108577415 -0.06111186 0.004346359 0.0919694
000350 a8 b9 25 3d 7e 65 00 bc ed 43 d9 3d db 9b 8c bc
       0.04046026 -0.007836698 0.10608659 -0.017164161
000360 79 a0 19 3d d3 26 e8 3d 4a c1 53 3c 3d 07 14 bd
       0.037506554 0.1133553 0.012924502 -0.036139715
000370 06 72 cc bd 5f e5 db 3d 92 d2 ad 3d 5c 85 99 3d
       -0.09982686 0.107371084 0.08487429 0.074961394
000380 19 83 ab bd 2a fb 39 3d 80 bb a5 bd b3 16 61 3c
       -0.08374614 0.045405544 -0.080924034 0.013738322
000390 b8 82 b9 3d b3 b8 69 bd 78 4c d4 bc e4 7e b3 bd
       0.09058136 -0.05706091 -0.02591537 -0.08764437
0003a0 24 59 8c 3d 3c 0d a9 bc a0 eb 6e 3d 26 79 12 be
       0.0685294 -0.020636193 0.05833018 -0.14304027
0003b0 d9 22 1c bd 79 d4 fa bc a4 e3 c0 3d be 48 c8 3b
       -0.03811917 -0.030618893 0.09418419 0.006112187
0003c0 19 dd a9 bd 7b 0d 9d 3d 98 13 96 bc 94 35 09 3d
       -0.08294124 0.07668587 -0.01831989 0.03349836
0003d0 dc d7 9b 3d ac a3 23 bd 23 cd 95 3d 82 6b 79 3d
       0.07609531 -0.03995101 0.07314517 0.060893543
0003e0 8e 98 fa bc d6 21 75 3d 3c 2e 8f bd 38 54 41 bd
       -0.030590322 0.05984672 -0.069912404 -0.047199458
0003f0 2b 7d 09 bd 7c f6 23 3d 75 0e a8 bb d4 d8 e7 3c
       -0.033566635 0.040029988 -0.0051286765 0.028301634

net.2.freq_scale.weight f4 [256, 128]
000000 2b 0f 88 bd 39 aa 9c bc 4f 5b 3c 3c e4 d7 96 bd
       -0.06643518 -0.019124137 0.011496379 -0.073653966
000010 2b bd 50 bd e3 74 9d 3d 9b 2b dc 3d f1 7b ac 3d
       -0.050961655 0.0768831 0.107505046 0.084220774
000020 83 67 da bc 11 d1 5b 3d a9 d1 d9 ba 85 f0 d4 bd
       -0.026660686 0.053666178 -0.001661827 -0.10397438
000030 bd 58 81 3c 2c ee e8 3c c8 21 f4 bb ba 14 bf 3c
       0.015789384 0.028433882 -0.007450316 0.023325313
000040 31 20 55 bd 3b 71 39 3c 7a 12 61 bd af 56 5c 3d
       -0.052032653 0.0113185 -0.05494926 0.053793605
000050 19 08 65 bd 9a e4 a3 bd 23 42 79 3d c0 3f 3e bd
       -0.055915926 -0.08002587 0.06085409 -0.046447515
000060 86 89 11 bd 78 96 f1 bc 99 29 c0 bc 2b 48 11 bd
       -0.035531543 -0.029490694 -0.023457335 -0.035469215
000070 52 fe 84 3d 35 e1 09 bb 23 71 53 3d fc 10 5f 3c
       0.0649382 -0.0021038775 0.051621567 0.013614889
000080 4a e9 4b bd 6b d5 33 bd 75 44 fb bd 5e 13 1f 3c
       -0.04978303 -0.043904703 -0.122689165 0.009709207
000090 c5 bd a0 3d e6 0f 20 3d 2a dd 85 3d 31 fd 77 3d
       0.07848696 0.039077662 0.06536324 0.060544197
0000a0 f0 71 91 bd 75 39 81 3d e1 ef 5e 3d d7 48 ee 3d
       -0.0710181 0.06309787 0.054427985 0.11634987
0000b0 64 e8 8a bd 7a 38 39 3c 28 73 42 3d 6c a6 a3 bc
       -0.06782606 0.011304969 0.047473103 -0.019976817
0000c0 6f 3b a3 3d 6e 86 54 3d 51 a6 90 3d 29 13 84 3d
       0.079703204 0.051886015 0.07062972 0.06448967
0000d0 45 14 7b 3d 2b 49 97 bd 75 c6 63 3d 73 ea 94 bd
       0.061298627 -0.073870026 0.055609185 -0.0727128
0000e0 8a e3 76 bd ab f4 76 3d 6c 6b e6 3c 0b d6 3a bc
       -0.060275592 0.060291927 0.028127395 -0.011403571
0000f0 0e 1a 5e 3d 89 9b de 3c e0 74 9f 3d 1c b3 9a 3d
       0.054224066 0.027173774 0.07785964 0.07553694
000100 54 e0 a0 3c 05 88 a5 bd 2a 99 e2 bc 09 ef a7 bd
       0.019638218 -0.08082584 -0.027660925 -0.08199889
000110 3a ea 58 3d 8f cf 21 bc 23 d0 11 3d 88 3d 0e 3e
       0.05295775 -0.009876146 0.035598885 0.1389066
000120 8d 64 a5 bc b9 e9 38 bd 37 05 2d 3c 20 47 69 bd
       -0.020189548 -0.04514477 0.010560325 -0.056952596
000130 29 3c 40 3d 9f 13 fb bb 22 69 8f bd 34 38 84 bd
       0.046932373 -0.007662251 -0.07002474 -0.064560324
000140 e0 5c c9 bc 28 49 0a 3c 17 fc 3c bd 6d 0d e0 bc
       -0.024580419 0.008440293 -0.04613885 -0.027350152
000150 ac 8d 31 bd 20 38 88 bd 85 ad e2 3a 5d 1a 17 bd
       -0.043348 -0.0665133 0.0017294144 -0.036890376
000160 32 70 0c bc 2c a4 58 3d 28 a2 97 bd bd ad 0a bd
       -0.008571671 0.05289094 -0.07403976 -0.033857096
000170 c1 79 84 3c 63 f7 bc 3d 2a 8f 23 3c da 70 fb 3c
       0.016171338 0.09226873 0.009982863 0.03069346
000180 02 e4 97 3b 54 34 72 3d e5 8c 90 bd ff db 91 3c
       0.004635335 0.059131935 -0.070581235 0.017805098
000190 96 45 a4 3d 95 c5 99 bc f2 0b 11 3d 07 d1 c6 bc
       0.08021085 -0.018770972 0.035411783 -0.024269594
0001a0 dd fa fb bc 07 9d 54 3d 49 08 57 bd 82 66 14 bc
       -0.03075927 0.051907565 -0.052498136 -0.009057643
0001b0 3f 99 0b 3c a4 e3 ed bc 82 a9 7a bd 5d fe b6 3d
       0.008520423 -0.029039212 -0.06119681 0.08935235
0001c0 12 02 b2 bc 6a b6 0e 3d 98 c0 8c bd 8d 3d 0c bd
       -0.021729503 0.034841932 -0.06872672 -0.034238387
0001d0 d6 3b 8a bd d7 c3 53 bd c9 a4 b1 3d 3a f2 31 bd
       -0.06749694 -0.05170044 0.086740084 -0.043443896
0001e0 a2 ca 5e 3d 53 fd 8a bd 14 b5 b6 3c 6f c7 a5 3d
       0.054392464 -0.06786599 0.022303142 0.080946796
0001f0 c3 df 67 bd df 70 2b 3d 83 32 86 bc bd 00 c6 3d
       -0.05660988 0.04185569 -0.016381508 0.096681096
000200 b1 87 3e 3d e4 92 b9 bd d4 6e 80 bd 1f 37 6c bd
       0.046516124 -0.0906122 -0.06271139 -0.057669755
000210 b6 33 bc bd af 45 8e bd c9 3e de bd 92 3a b5 bd
       -0.091895506 -0.06946885 -0.10851819 -0.08849062
000220 e8 b8 8c bd f2 8f 48 bd 23 a2 81 bd d1 8c dc 3d
       -0.068712056 -0.048965402 -0.06329753 0.10769046
000230 b5 54 82 3c 8c da 00 3c 00 67 ff bc 81 5e 05 be
       0.015909532 0.007864606 -0.031177044 -0.13024332
000240 39 f6 98 3b ef 0a 83 bd 87 0d 9f bd 4e 09 a0 bd
       0.004668024 -0.0639857 -0.07766252 -0.07814275
000250 c0 df b6 bc 39 8d ed bd f9 33 70 3c 91 a8 3f bd
       -0.02232349 -0.11599202 0.014660829 -0.046791617
000260 78 20 de bd ed 27 b0 bd 52 42 19 bb 8a 04 b3 3c
       -0.10846037 -0.08601365 -0.0023385477 0.02185275
000270 9e 10 d6 3c 8c 5c 57 bd 20 1f 6f bd 2d 57 83 3b
       0.02613097 -0.052578494 -0.058379292 0.004008195
000280 65 39 a5 bd b3 32 56 3d 2d f9 4a bd b7 73 1c 3d
       -0.08067588 0.052294444 -0.04955404 0.03819629
000290 d3 fa f7 3c 3b d1 99 bc e7 a2 7f 3d e8 40 4d 3d
       0.03027097 -0.018776527 0.062411215 0.050110728
0002a0 70 47 86 bd 34 75 6e 3d f2 c2 a2 bd 2f d3 27 3d
       -0.06556594 0.058217242 -0.07947339 0.040972885
0002b0 91 88 ea 3c 7f 98 1b be 1a 37 18 3d 9c 62 23 3d
       0.028629573 -0.15194891 0.037161924 0.039888963
0002c0 b0 fe 6c 3d 2d 97 8b bd 88 2d 80 bd c2 23 98 bd
       0.057860076 -0.06815944 -0.062586844 -0.07428695
0002d0 5f b5 48 3c fa e0 91 3b 0b bf 36 bd 51 d8 8d bc
       0.0122502735 0.004451868 -0.044615787 -0.017315062
0002e0 4f 2a b4 bd fe ce 23 bd 95 70 6e bd 0e b5 be bd
       -0.08797132 -0.039992325 -0.058212835 -0.09311877
0002f0 37 e1 17 be 4d 29 21 3d 7a 66 b6 bd da 07 4b 3c
       -0.14832006 0.039346028 -0.089062646 0.012392009
000300 9e 56 ee bc 7c 95 2c bd f3 cc 9a 3b 43 1a 9a 3d
       -0.029094037 -0.042134747 0.004724139 0.0752454
000310 d5 6b 3c bd 23 54 9b bd 90 fc f5 bd 59 86 c4 3b
       -0.046001274 -0.07584407 -0.12011063 0.005997461
000320 5a 6f d0 bc 32 3c bc bd 40 52 0f bd 6d ee 10 bd
       -0.025443722 -0.09191169 -0.03499055 -0.03538363
000330 7c 84 92 bc 25 b3 a6 3c 33 46 95 bd 2f 4c 88 bd
       -0.01788544 0.020349095 -0.0728878 -0.06655156
000340 bf 00 7b bc e9 2c cd bd 27 bf d7 bd cd e8 4d bc
       -0.015320002 -0.100183316 -0.10534506 -0.012567711
000350 c0 7a fd 3a b5 d9 bb bd 30 82 ca bc 30 bd 9b bd
       0.001933895 -0.09172384 -0.024720281 -0.07604444
000360 d8 16 47 3d a5 a5 b1 bd 7d bb 0a bd ca 1d 9f 3c
       0.04860577 -0.08674172 -0.03387021 0.019423384
000370 82 ee 8b bd 43 71 09 bc e8 cb ad bd 5a 2e 5c bd
       -0.06832601 -0.00838882 -0.08486158 -0.05375514
000380 42 cb 42 bc 32 0c 37 3d 7d ef ab 3c dd f6 fd bc
       -0.011889281 0.044689365 0.02098822 -0.031001503
000390 04 10 74 3d 76 ba 81 3d 8d 38 45 bd 21 f1 61 bd
       0.059585586 0.06334393 -0.048149634 -0.0551616
0003a0 06 49 aa bc 7d c7 88 bd 55 03 1e 3d 0a 92 b1 bd
       -0.020786773 -0.06678674 0.038577396 -0.08670433
0003b0 d0 e5 d8 bd 0c 39 95 3c ff d9 ac bb 33 59 85 bd
       -0.10590708 0.018215679 -0.0052750106 -0.06511154
0003c0 2b 5d bf bd d7 85 a7 bd 21 66 d3 bc 1e 81 2e 3d
       -0.09343942 -0.08179825 -0.025805535 0.042603604
0003d0 33 d2 4c 3d 85 84 bf 3c b9 80 7c 3d 8b be 1b be
       0.05000515 0.02337862 0.061646197 -0.15209405
0003e0 e6 44 aa 3c fa bb 88 3d 06 b0 f5 bb af 28 da bc
       0.020784806 0.06676479 -0.0074977903 -0.026630728
0003f0 1e a4 bf 3c e3 10 2f bd 02 7b 83 bc 50 ba 6d bd
       0.023393687 -0.042740714 -0.016049866 -0.05803901

net.2.freq_scale.bias f4 [256]
000000 83 4c 53 3d 17 79 81 bd 7e b7 0e 3e f9 65 ba 3b
       0.05158664 -0.06321924 0.13937184 0.0056884256
000010 ee 6c 0a 3c 4f 5b 80 3d 65 96 ef 3d 93 af b9 bb
       0.008448822 0.06267416 0.11698607 -0.005666682
000020 18 05 06 3d 52 6b 05 3d 3c 0a 46 bd 3a de 08 3e
       0.0327197 0.03257305 -0.048349604 0.13366023
000030 da 7b 7d 3c 58 32 a1 3d 9f 5e 0c 3d 15 f0 0f 3d
       0.015471423 0.078709304 0.034269925 0.03514107
000040 5e c2 3a bc 2b 65 8b bd bb ef b6 3c 3c 00 55 bd
       -0.01139888 -0.06806406 0.02233111 -0.052002177
000050 eb ca 03 bd 3c b3 57 3d 5d f3 f4 bb d2 a9 de bd
       -0.03217594 0.052661166 -0.0074753 -0.108722344
000060 4d 8f 1a 3d 35 87 8a bd a4 ce bf bc 95 8a 56 3c
       0.03773432 -0.0676407 -0.023413964 0.013094564
000070 f9 49 51 3d 6f 14 37 3d fc 4d 34 3d d7 5a fd bc
       0.051095936 0.04469722 0.044019684 -0.030927105
000080 cf e3 a4 3d 2b f8 80 3b 2d 2d 42 3d 58 75 a6 bd
       0.080512635 0.003935834 0.047406364 -0.0812785
000090 bd 03 ae ba a6 cb 0d 3d 03 3b cf bc 5b e1 68 3d
       -0.001327626 0.034618042 -0.025296694 0.05685554
0000a0 02 7d 86 bd 28 e1 e4 bd c3 67 c9 3c 8f e8 a9 bc
       -0.06566812 -0.11175758 0.02458561 -0.020740775
0000b0 30 96 eb bd 23 40 3b bc 33 3e 06 be a8 c6 ae bd
       -0.11503255 -0.011428866 -0.13109665 -0.085339844
0000c0 91 2d bd bd eb 12 b0 bd e0 75 ee bc d9 e4 e0 3d
       -0.09237207 -0.08597358 -0.029108942 0.10981149
0000d0 8d 4a af bb 2b 25 86 bd 20 65 fc bc 32 d5 d0 3c
       -0.0053494633 -0.06550058 -0.030809939 0.025492284
0000e0 94 f7 ec 3d ac 8d f4 3d 84 c9 fa 3d 89 24 5e bd
       0.11570659 0.11941084 0.12245467 -0.05423406
0000f0 a3 be e8 3c 62 e6 77 3d 27 86 b0 bb c0 78 2c bd
       0.028411215 0.060522445 -0.005387086 -0.042107344
000100 a3 ba 90 bd 56 f7 dd 3d 90 92 4c 3d cc 51 29 bd
       -0.07066848 0.10838191 0.04994446 -0.041337773
000110 d1 95 99 3d 4c 41 30 bd b4 f7 2f bd 02 eb a9 3d
       0.07499278 -0.043031022 -0.042960837 0.08296777
000120 7d 71 8c 3d 44 e1 d2 bb 0a 1b 01 3d 47 34 3c 3d
       0.06857584 -0.006435545 0.031519927 0.045948293
000130 b0 1a 2c bd 6f b6 cd bd ed 97 b6 3c 56 06 1c bd
       -0.04201764 -0.10044562 0.02228924 -0.03809198
000140 ca 99 71 3b d0 b6 a1 bd d2 f7 20 bd 34 36 62 bd
       0.0036865347 -0.07896197 -0.03929884 -0.055227473
000150 36 8a 44 bd c6 61 84 3d df b8 d4 3c b2 ec b1 bd
       -0.04798337 0.06463961 0.02596706 -0.08687724
000160 8c 95 da bc 3a bb 4e 3c 02 75 cc bd 53 75 3d bd
       -0.026682638 0.0126178805 -0.09983255 -0.046254467
000170 8c eb a7 bc 6c a5 3d bd 56 69 81 bd 1a f7 fd 3d
       -0.02049806 -0.046300337 -0.06318919 0.124006465
000180 86 2e 5b 3d d7 c1 81 bc e8 93 8c 3d 43 1f d8 bc
       0.053511165 -0.0158395 0.068641484 -0.026382094
000190 63 5c 6d bd 21 1f 77 bd cb a4 b2 bd 5d 9c 51 3d
       -0.057949435 -0.06033242 -0.08722838 0.05117451
0001a0 fb 7b e7 bc 40 53 db 3d 71 64 8b bc 0c 8f 33 bb
       -0.02825736 0.10709238 -0.017015668 -0.0027398495
0001b0 3e 1d ac 3c e8 ea 59 3c e7 c8 07 3d b3 d4 e7 3d
       0.021010038 0.013300635 0.03315058 0.11319866
0001c0 6d c8 a1 bc 10 7a c5 3d 78 02 a6 3d 86 58 a5 3d
       -0.01974889 0.09642422 0.081059396 0.08073525
0001d0 ea 23 12 bc 30 04 84 3d 78 fa 9f ba 7c e9 3c 3d
       -0.008919695 0.06446111 -0.0012205383 0.046121106
0001e0 ff ef 8e 3d 3e c0 74 bd 68 8e eb bd 56 0d 47 3d
       0.06979369 -0.05975365 -0.11501771 0.048596703
0001f0 ab 23 3b bd e3 0e bc bd 00 e5 83 3d 2b e9 f4 3a
       -0.045688313 -0.09182527 0.06440163 0.0018685212
000200 a1 c2 f6 bd 13 88 c7 3c 24 8c 13 3d 1b 0c ba bd
       -0.12048841 0.024356877 0.03602232 -0.0908434
000210 e2 27 c8 bd a0 73 81 3d 4d e9 18 bd 0a 84 50 3a
       -0.09773232 0.06320882 -0.037331868 0.00079542457
000220 4d fa 9f bc b5 df ca 3c b9 f6 f8 3d 82 92 d6 3b
       -0.019528532 0.024764875 0.121564336 0.006548227
000230 46 a2 b8 bd d6 01 38 3d ca da 88 3d 7e 28 e0 3c
       -0.09015326 0.044923626 0.06682356 0.027363058
000240 bf 4d 50 3d f3 fa 80 3d a8 46 c4 bc 64 b7 90 3b
       0.050855394 0.06297865 -0.023959473 0.004416393
000250 a1 ad b4 3d b2 bf 52 bb 3b 7e 9c bc e1 98 94 3c
       0.088221796 -0.0032157716 -0.01910316 0.018139305
000260 36 3a 75 bc 26 56 dd 3d 75 3f ed bd f7 84 0b 3c
       -0.014967492 0.10807447 -0.11584369 0.008515588
000270 2c 36 71 3d c0 49 17 3d e2 f1 9b bd 9a 90 b1 3a
       0.058889553 0.036935568 -0.07614495 0.0013547123
000280 68 80 a0 3d bc 95 29 3d 78 42 27 bc d7 e2 83 3d
       0.078369915 0.041402563 -0.0102087185 0.06439751
000290 7a 09 62 3c c1 e1 39 3b a3 2b e7 3c bd a8 b0 3d
       0.013796205 0.002836332 0.02821905 0.08625934
0002a0 9a 96 e6 ba 70 be 05 3e d5 46 24 bd f2 c7 eb 3d
       -0.001759249 0.13060927 -0.040106613 0.11512746
0002b0 ae 3f 65 bd 62 c7 0e 3d a2 64 8c 3d b1 e4 8c bc
       -0.055968933 0.034858115 0.06855132 -0.017198892
0002c0 de 58 43 bc 87 0e b8 3d 92 3e dd bd 8a d6 80 bc
       -0.011923043 0.08987146 -0.1080295 -0.0157273
0002d0 d9 b3 d3 3c 2f 93 2a 3d ec 18 de 3c f7 ec 62 3d
       0.025842594 0.04164427 0.027111493 0.05540177
0002e0 e3 f2 66 bc d1 2b 46 3d b8 20 72 bc f0 5c b5 bb
       -0.014095995 0.04838163 -0.014778309 -0.0055347607
0002f0 0a cc b8 bd 8e 9a 96 3d 1b 51 c0 3c 01 db a1 3c
       -0.09023292 0.07353698 0.023476174 0.01975775
000300 89 0b 1b bd 59 99 3f bc 02 c8 0b 3e 4a 65 b7 bc
       -0.037852798 -0.011694276 0.13650516 -0.022387166
000310 b1 e4 a8 3c 56 93 34 bd b7 f1 e4 3d c0 20 0b be
       0.020616861 -0.044085823 0.11178916 -0.13586712
000320 e9 99 a5 bc 0f 91 8a bc b9 d2 8e bb 74 7d 87 bd
       -0.020214992 -0.016914872 -0.004358616 -0.06615725
000330 2d 7f 83 bd 1d d5 f6 bd 5f e3 58 3d 23 75 b3 bd
       -0.06420741 -0.12052367 0.052951213 -0.087625764
000340 6c 80 48 bd a1 9d 37 bb 76 57 de 3c 5e bd b6 3d
       -0.048950598 -0.0028017538 0.027141314 0.08922838
000350 5c 01 2e 3d 4a ec 25 3d 2b 9a 86 3c 1d ae 25 bd
       0.042481765 0.040508546 0.016430935 -0.04044925
000360 a1 57 44 bd 4c 30 51 3d f3 d5 65 3d d6 8a 03 3d
       -0.047935132 0.05107145 0.05611224 0.032114826
000370 2e 64 cf bb 95 77 60 3d aa 32 89 3c 22 9c 9e 3d
       -0.006329081 0.054801542 0.016747791 0.07744624
000380 f5 7c 4e 3d 45 0c ca bc 6f 96 1b 3d e0 cd 2b 3d
       0.050412137 -0.024664054 0.03798526 0.041944385
000390 a1 b2 a8 3d f6 f1 62 bd 7a 51 5d 3d f6 48 05 3d
       0.08237196 -0.055406533 0.05403278 0.032540284
0003a0 dc 21 3e bd e6 81 99 bd e8 4f b1 bd 45 bf 2f bd
       -0.04641901 -0.07495479 -0.08657819 -0.04290702
0003b0 c9 fd 97 bd 00 c8 4b ba c6 e1 ec 3d 5c af 02 be
       -0.074214526 -0.0007773638 0.115665 -0.12762207
0003c0 25 6c 78 bd 44 2f bf 3d 23 9c 63 3d 22 90 c2 3d
       -0.06065001 0.09335187 0.055568825 0.095001474
0003d0 85 bc a5 bc c1 1b b1 bd 41 30 93 3c 1f b5 0e 3e
       -0.020231495 -0.08647872 0.017967345 0.1393628
0003e0 b0 29 1a be 25 48 a2 bd 89 70 52 bc f8 e8 ea 3c
       -0.15054965 -0.07923917 -0.012844213 0.028675541
0003f0 a3 1f d4 bc 63 07 78 bd d7 ad 8e 3d 61 c5 9c 3c
       -0.025893992 -0.06055392 0.06966751 0.019137086

net.3.weight f4 [1, 128]
000000 72 ed 82 ba c4 40 28 3c 26 bd 70 3c b9 70 0e bc
       -0.0009988977 0.010269348 0.014693534 -0.008693867
000010 bf fa cf 38 4f b2 84 bc 46 60 94 bb 75 d5 5a bc
       9.917234e-05 -0.016198305 -0.0045280783 -0.013356556
000020 2f b2 06 bc a0 9a d8 3b 70 9b 16 3c 50 62 ac 3b
       -0.008221193 0.0066102296 0.009192333 0.005260743
000030 36 34 e3 bc 5d 7d 73 3c 61 e1 2e bc 89 ae 0c bc
       -0.027734857 0.014861432 -0.010673852 -0.008586534
000040 02 93 04 3d c3 ee a1 bb 66 7b 35 3c ab 0a 0c bb
       0.03236676 -0.0049417927 0.011076784 -0.0021368663
000050 f7 02 44 bc 90 53 6e 3c e1 5c bb bb 71 42 28 bd
       -0.0119635975 0.01454629 -0.005717859 -0.04107899
000060 af 78 f7 3b 36 50 72 3c 65 3f c8 3a 55 53 44 bc
       0.0075522284 0.014789632 0.0015277682 -0.0119827585
000070 73 6e 0f 3c ec 3c 9c bc f7 ad 13 3c 18 ff 9e 3c
       0.0087543605 -0.019072019 0.009013644 0.019408748
000080 35 7b 1e bc da 36 6a bc cb 11 bf 3b e5 39 5f bc
       -0.0096729295 -0.014295304 0.0058309785 -0.013624643
000090 89 be b0 3c 64 92 19 bb d3 3c 47 3b 3f 7f 32 3c
       0.02157523 -0.0023433203 0.0030401244 0.010894596
0000a0 fb 86 3c bb 5e e9 d2 bb f4 12 02 bc 73 e8 10 ba
       -0.0028766978 -0.006436511 -0.007939089 -0.00055278017
0000b0 16 1b 9d 3c d9 66 fb 3b 37 4b e2 3c e4 f2 3e bc
       0.019177955 0.0076721725 0.027623756 -0.011654589
0000c0 7a 9e 76 bb e9 a6 35 bc 41 87 db b9 0f 17 95 bc
       -0.003763108 -0.011087158 -0.00041871707 -0.018199472
0000d0 07 5e dc bb 82 38 92 3a 80 c1 d4 3b 4a e0 7e bc
       -0.006725076 0.0011155757 0.0064927936 -0.015556404
0000e0 8b 65 07 3c f2 88 f4 3b ed 00 bf 3c 56 70 0a bc
       0.008263956 0.007462614 0.023315871 -0.008449635
0000f0 d7 0f 22 bc 8d 7b 60 3c da b3 d6 bb 47 ec 77 bc
       -0.009891472 0.013701332 -0.0065522017 -0.0151320165
000100 69 c3 49 3b 5f ba 01 bc 88 26 32 3c a5 40 31 3c
       0.003078664 -0.0079179695 0.010873444 0.010818635
000110 8a 21 ab bb 4c a1 d5 bb 00 6e d4 ba 6f ef 06 3d
       -0.005222504 -0.006519472 -0.0016207099 0.032943185
000120 d2 1f cc bc 4b 17 28 3c 46 2f be bb 98 56 a6 3b
       -0.024917517 0.01025946 -0.0058039753 0.0050762407
000130 1d fa 1e 3c b2 1a ad 3b 96 e2 e0 3b 9e 67 94 bc
       0.009703186 0.0052827233 0.0068629486 -0.018115815
000140 65 7e 44 3b 45 b3 27 3b 32 a6 53 bc 38 4e ed bb
       0.0029982564 0.002558903 -0.012918042 -0.0072419904
000150 35 a1 d6 3c b3 dd 76 3c 42 47 81 3b 2c d5 75 b8
       0.026199916 0.015067506 0.003945262 -5.8611084e-05
000160 26 e7 5e bc 09 d0 88 bb bc 86 11 bc cf 41 23 bc
       -0.013604915 -0.0041751903 -0.008882221 -0.00996442
000170 3b e1 90 bc 1c 5b e7 bb 50 b5 6b 3c 3a 0b fd 3b
       -0.017685523 -0.0070604216 0.01438649 0.0077222856
000180 77 74 16 bb 0a ca c0 ba b1 30 96 bb 2a b3 5f 3c
       -0.0022957602 -0.001470865 -0.004583441 0.013653556
000190 1f f2 48 3b 25 cf 84 3b 33 69 08 bc 5d 06 bf bb
       0.0030661894 0.004053014 -0.008325863 -0.005829616
0001a0 ae f6 0a bb ff cc b7 b9 c3 1d 50 bd 63 2b 0f 3d
       -0.0021204161 -0.00035057214 -0.050809633 0.034953486
0001b0 e8 af fc bc 82 85 1f 3c be bf 77 39 5d e3 1d 3d
       -0.030845597 0.009736421 0.00023627185 0.03854691
0001c0 61 f4 80 3c 51 fd f1 3b 15 18 db bb 3f 5e 25 3c
       0.015741529 0.007384934 -0.0066862204 0.010093271
0001d0 67 16 6a 3c 53 3f f0 bb fb f9 6d bd c8 68 b5 bc
       0.014287568 -0.0073317676 -0.058099728 -0.02214469
0001e0 1a 9a 4f 3b dd f4 49 bc 24 64 66 3c 96 5c fa bb
       0.0031677545 -0.012326446 0.014061961 -0.0076404316
0001f0 1e a2 85 bc d8 a6 6b 3c 7e 41 20 3a 31 5b 84 3c
       -0.016312655 0.01438304 0.0006113275 0.016156765
